Assets/Training/results/zombiekiller/AgentController/AgentController-1250287.onnx (onnx, 670568 bytes, 11 tensors)

network_body._body_endoder.seq_layers.0.weight f4 [256, 128]
-0.04629364 -0.009950042 -0.124723025 -0.08395602 -0.13038312 -0.07019195 0.0005324562 0.101307966
-0.23541342 0.027758766 -0.040099293 0.021811666 0.114999644 0.04715027 -0.11253661 -0.19135967
-0.1079071 0.20329106 0.004615972 -0.055191595 0.14457136 0.00883004 -0.036991484 -0.013167872
0.03216142 -0.14807372 0.03375027 0.002480522 -0.12897368 0.046687122 0.17330188 -0.07334127
-0.08398385 -0.009672698 -0.12600757 0.043517478 -0.17228656 0.08462341 0.15336934 -0.16147716
-0.031971816 -0.057068445 0.11934401 0.0060361293 0.07507691 0.09789986 0.072765015 -0.19703384
-0.17920864 -0.019414 -0.038946223 -0.27471688 -0.052878678 0.0910559 0.065545395 0.0020252685
-0.0602569 -0.11963431 -0.11588927 -0.043255895 0.072478816 0.015907068 -0.026586568 -0.038075227
0.011897463 -0.022177584 -0.071736194 0.094406866 -0.0012945787 0.015396873 0.059494853 -0.03610488
-0.0036423926 0.062054086 0.05055834 0.111965396 0.11551257 0.13759832 0.003845614 0.07680441
0.13412331 -0.12190033 -0.058253326 0.033215236 0.12328119 0.039731197 -0.014220557 0.008427964
0.025781285 -0.027519135 -0.17206067 0.07528118 -0.12943482 0.03535602 0.11123395 -0.21361436
-0.14294632 -0.00011566275 0.12556462 -0.11996366 0.1314866 -0.02152563 0.07086874 0.0056219087
0.12009763 -0.0006168088 0.13054642 -0.040400796 0.062350005 0.06771818 0.0024404698 0.14331366
-0.017489031 0.045100737 -0.1112126 -0.054339167 -0.10754164 0.07186333 -0.023151772 0.034905303
0.013851138 0.004136694 0.019407358 0.011481595 -0.07496333 0.055939835 -0.010650807 -0.0019362043
0.20272885 -0.07668254 0.04384689 -0.036141675 0.18076771 -0.079229884 -0.03503549 0.09752647
0.040176764 -0.06001506 -0.12915927 -0.08706896 0.25024134 -0.050077148 -0.07140323 0.055248685
0.114222415 -0.075528294 0.060056612 0.109542735 -0.087303616 0.17517687 -0.06924121 -0.04984376
0.09045442 0.04217884 -0.019530166 -0.09356168 0.07965934 -0.03525468 0.025537275 0.07665348
0.09208513 0.0049588713 -0.093763344 -0.033375993 0.15823308 0.050284654 -0.08447439 -0.1758929
0.080372006 0.026387494 0.13680242 0.14829649 -0.10647007 -0.044110864 -0.09145624 0.04747893
-0.051549416 0.1339334 -0.11845848 -0.124158725 0.098317586 -0.04517325 -0.06489388 0.024185697
-0.01287244 -0.17824362 -0.05217164 -0.13050932 0.13476928 0.045685228 0.10497203 -0.099512905
0.064887464 0.025548337 -0.02333934 -0.1115011 0.13422804 -0.0042700847 0.12591487 0.0068239057
0.034067173 -0.0391475 0.08768201 0.07987409 -0.020792319 -0.23203112 0.08406369 0.0015881489
0.05365291 -0.039686218 -0.05748287 0.04130295 -0.04986461 -0.006342821 0.07839724 -0.060309846
-0.14270371 -0.18786648 0.14028008 -0.039076094 0.067462966 0.10913894 -0.021336453 0.20684072
0.13918988 -0.15493219 0.12067867 0.14182469 -0.028314004 -0.010009826 -0.030037338 -0.12411004
0.014754849 0.013436958 0.1645699 -0.028171645 0.04717098 0.052479696 0.0021645043 0.032084387
0.019302178 -0.04871795 0.026939299 0.044255413 0.22552642 -0.1786344 0.072120115 0.070586756
-0.029379398 -0.14927225 0.026919937 0.13612103 0.07331137 0.14137127 0.028574783 -0.04534045
00000000: 669e 3dbd 8005 23bc c96e ffbd 22f1 abbd
00000010: 2783 05be ccc0 8fbd 8894 0b3a 8d7a cf3d
00000020: 3710 71be 5a66 e33c 283f 24bd 61ae b23c
00000030: ef84 eb3d a420 413d 9879 e6bd caf3 43be
00000040: 66fe dcbd 882b 503e 9441 973b 9510 62bd
00000050: 840a 143e dfab 103c 6284 17bd 0fbe 57bc
00000060: b1bb 033d a3a0 17be b93d 0a3d 4190 223b
00000070: ad11 04be ff3a 3f3d 0c76 313e f333 96bd
00000080: baff abbd 3c7a 1ebc 2108 01be 623f 323d
00000090: e36b 30be 0a4f ad3d da0c 1d3e 455a 25be
000000a0: e1f4 02bd 9ac0 69bd a26a f43d b9ca c53b
000000b0: ecc1 993d b97f c83d d305 953d 3dc3 49be
000000c0: 7882 37be 1c0a 9fbc 1386 1fbd b1a7 8cbe
000000d0: 5097 58bd 847b ba3d aa3c 863d 5eba 043b
000000e0: f0cf 76bd d502 f5bd 5b57 edbd 182d 31bd
000000f0: c66f 943d 8a4f 823c 13cc d9bc c5f4 1bbd
00000100: 94ed 423c c4ad b5bc 6dea 92bd 6358 c13d
00000110: daae a9ba 2a43 7c3c e0b0 733d b6e2 13bd
00000120: 35b5 6ebb 6d2c 7e3d 4316 4f3d 1d4e e53d
00000130: db91 ec3d 93e6 0c3e b206 7c3b a14b 9d3d
00000140: 9f57 093e e1a6 f9bd 0a9b 6ebd b30c 083d
00000150: d97a fc3d 2ebd 223d 57fd 68bc 7115 0a3c
00000160: 4633 d33c cf6f e1bc ac30 30be 052d 9a3d
00000170: 908a 04be 79d1 103d a0ce e33d b9bd 5abe
00000180: 8560 12be f78f f2b8 0394 003e 82af f5bd
00000190: 6ca4 063e 8556 b0bc a123 913d fd37 b83b
000001a0: bff5 f53d 56b1 21ba f6ad 053e 4e7b 25bd
000001b0: b862 7f3d d4af 8a3d 4af0 1f3b d1c0 123e
000001c0: 2845 8fbc 8dbb 383d 6ec3 e3bd bf92 5ebd
000001d0: cb3e dcbd 152d 933d c9a8 bdbc ddf8 0e3d
000001e0: e2ef 623c 1b8d 873b 2efc 9e3c 4d1d 3c3c
000001f0: 6086 99bd 2b21 653d b980 2ebc 3cc8 fdba
00000200: 2798 4f3e bc0b 9dbd cc98 333d 4b09 14bd
00000210: 2c1b 393e 4743 a2bd 6081 0fbd f5bb c73d
00000220: 6490 243d 5ad2 75bd 5442 04be 3651 b2bd
00000230: a21f 803e b21d 4dbd db3b 92bd 724c 623d
00000240: 71ed e93d 94ae 9abd ecfd 753d f157 e03d
00000250: 3dcc b2bd 9161 333e 56ce 8dbd f828 4cbd
00000260: 2b40 b93d b8c3 2c3d bafd 9fbc 449d bfbd
00000270: 7024 a33d 3667 10bd 8c33 d13c 80fc 9c3d
00000280: 2197 bc3d 077e a23b ff06 c0bd 44b5 08bd
00000290: da07 223e 48f7 4d3d e900 adbd 451d 34be
000002a0: 149a a43d 962a d83c ef15 0c3e 09db 173e
000002b0: fb0c dabd 98ad 34bd 694d bbbd 4479 423d
000002c0: 7b25 53bd d625 093e 5c9a f2bd ee46 febd
000002d0: bb5a c93d 9607 39bd 15e7 84bd 1521 c63c
000002e0: ede6 52bc 7f85 36be eeb1 55bd 3ca4 05be
000002f0: f500 0a3e 6f20 3b3d 93fb d63d 6ccd cbbd
00000300: b8e3 843d bf4a d13c 2532 bfbc b05a e4bd
00000310: 1373 093e 11ec 8bbb d4ef 003e 129b df3b
00000320: 058a 0b3d 2159 20bd a092 b33d 0795 a33d
00000330: a754 aabc 9199 6dbe 9529 ac3d 6f29 d03a
00000340: 27c3 5b3d 048e 22bd 2873 6bbd 482d 293d
00000350: d53e 4cbd 70d7 cfbb bb8e a03d 7507 77bd
00000360: ec20 12be 1260 40be 95a5 0f3e 410e 20bd
00000370: 062a 8a3d 3d84 df3d c9c9 aebc 0ece 533e
00000380: cb87 0e3e 8ba6 1ebe 6126 f73d 7e3a 113e
00000390: c5f2 e7bc 4100 24bc dd10 f6bc 682d febd
000003a0: 52be 713c b026 5c3c 0385 283e 39c8 e6bc
000003b0: 5c36 413d f3f4 563d 5bda 0d3b eb6a 033d
000003c0: 9a1f 9e3c 798c 47bd ceaf dc3c 2a45 353d
000003d0: 66f0 663e f0eb 36be b6b3 933d ca8f 903d
000003e0: 10ad f0bc d3da 18be 3387 dc3c 5063 0b3e
000003f0: 4624 963d a1c3 103e aa15 ea3c e8b6 39bd

network_body._body_endoder.seq_layers.0.bias f4 [256]
0.01189124 0.004335673 0.008094519 -0.004323733 0.01709779 0.011340698 0.013004251 0.0006081032
0.012797623 0.0070217787 0.009648108 0.0041686674 0.007651345 0.021212403 0.008215164 0.009218394
0.010332939 -0.0043563335 0.015523846 -0.0015363685 0.0066402447 0.009416915 0.010612834 0.0008576874
-0.0054576523 0.0037795452 0.0012332888 0.005319281 -0.00046122778 0.0033424073 0.0040994138 0.0044093425
0.004692451 0.0104565555 0.015015099 -0.0017065156 0.005040837 0.0050859908 0.013769104 0.0037905872
0.008035188 0.014643147 0.0053364304 0.0066616116 0.010051735 0.0056154956 0.008976346 0.0064217425
0.015162549 0.0116610695 0.010785427 0.0011552816 -0.0006572707 0.014117143 0.0036208772 0.011554631
0.007790482 0.001938098 0.015700703 0.0040357625 0.003998917 -0.007932644 0.007481268 0.0019914478
-0.008617106 0.008848764 0.015760317 -0.0005960798 0.0029501652 0.012046574 0.0053575817 0.017290475
0.009400699 0.009553132 0.014908553 -0.0008204874 0.00070254615 0.0048860093 0.012773558 0.0009366758
0.014724221 0.0027929354 0.010183468 0.004216692 -0.002089273 0.0058363345 -0.0018245287 0.0056106597
-0.005533672 0.0005817825 -0.009049091 -0.0034362932 0.016250368 0.0029969106 -0.011246727 -0.0053299735
-0.011449386 0.010325678 0.012696957 0.020771898 0.003616065 -0.00230457 0.0064205467 0.00015708209
0.013792506 0.0092977015 0.014998133 0.00072475034 0.0086486405 0.011285142 0.020120608 0.018762516
-0.0020153234 0.0017562199 0.011600664 0.00056307256 -0.00813827 0.01032511 0.0052705817 0.013524993
-0.0024208073 0.010807784 0.004251609 -0.01516526 0.01069789 0.014307487 -0.0051999036 0.0026642806
0.0044683167 -2.5832473e-05 -0.008558202 0.003755052 -0.003058396 0.0004727527 0.0025036545 0.004479558
0.006423426 -0.0046719112 0.0142330425 -0.0076357555 0.018544119 0.017912218 0.013489436 -0.0022313977
0.012037383 0.027891718 0.011531541 0.0037791934 0.006548384 0.004184508 0.006253846 0.009573711
0.012444591 0.00480961 0.014813392 0.009430763 0.017599938 0.003529294 -7.14414e-05 0.010971468
0.009694585 0.008794103 -0.0037001765 0.0024489784 0.008926059 -0.004052681 0.020479571 0.009266084
0.011445938 0.0066590863 -0.009462418 0.003008416 0.00673667 0.008267052 0.005372769 0.0056274706
0.0079881735 0.020311119 0.006690469 0.005861923 0.0026017397 0.012801294 -0.00035389245 0.015195965
-0.0025519764 -0.0021511407 0.007165552 0.011351484 -0.0055745193 -0.007197005 -0.01013434 0.0051806266
-0.00027871682 -0.0075948876 0.0053695748 0.010948292 0.025224488 0.00080572953 0.009273424 -0.0009449751
-0.0014335493 0.002737017 0.018509949 -0.019773865 0.006910731 0.001936248 0.0036372903 -0.0035560974
0.02478643 -0.0034408786 -0.00034635593 0.006024186 -0.0062940717 0.007180718 -0.0048765703 0.0044413307
0.015858246 0.0077769235 0.0018831375 -0.0013896375 0.020868422 0.0100344345 0.00091602706 0.015439431
0.01217346 0.00434081 -0.0058847084 0.011512205 0.01389061 -0.0016853317 0.011741752 0.0086462265
0.020601453 0.0053152693 0.0036849717 0.0043277973 0.026782405 -0.009715929 0.0102739865 0.013042971
0.0012778597 0.01784457 0.009398119 0.005222019 -0.0036092913 -0.003669038 0.004541194 0.021173045
0.014188982 0.0014497231 -0.0020028248 0.006227193 0.020192014 0.0011817295 -0.00040283415 -0.00081803085
00000000: 7ad3 423c 4312 8e3b e09e 043c 1aae 8dbb
00000010: aa10 8c3c 56ce 393c c80f 553c 1d69 1f3a
00000020: 1fad 513c f316 e63b 1913 1e3c 5199 883b
00000030: 22b8 fa3b a2c5 ad3c e598 063c bf08 173c
00000040: 7d4b 293c 93bf 8ebb bb57 7e3c f95f c9ba
00000050: 6996 d93b 6749 1a3c 74e1 2d3c 6dd6 603a
00000060: 1bd6 b2bb 3fb2 773b 4ea6 a13a 5d4d ae3b
00000070: f2d0 f1b9 4a0c 5b3b 6054 863b 3f7c 903b
00000080: 22c3 993b f951 2b3c e401 763c 29ad dfba
00000090: 9b2d a53b 62a8 a63b cf97 613c 806b 783b
000000a0: 05a6 033c cfe9 6f3c 39dd ae3b a649 da3b
000000b0: 08b0 243c 3102 b83b 8611 133c 7b6d d23b
000000c0: 576c 783c 120e 3f3c 5cb5 303c d16c 973a
000000d0: b14c 2cba 974b 673c 3d4c 6d3b a34f 3d3c
000000e0: 4d47 ff3b c707 fe3a c39e 803c 6e3e 843b
000000f0: 5909 833b ecf7 01bc 6d25 f53b f382 023b
00000100: c32e 0dbc 68fa 103c c81b 813c 3d42 1cba
00000110: 8f57 413b fe5e 453c a78e af3b c1a4 8d3c
00000120: 6405 1a3c bd84 1c3c 0143 743c fa15 57ba
00000130: 132b 383a d11a a03b 2f48 513c 408b 753a
00000140: dc3d 713c ae09 373b 90d8 263c 2d2c 8a3b
00000150: 2fec 08bb b93e bf3b 0625 efba a0d9 b73b
00000160: ce53 b5bb c382 183a a342 14bc 6f33 61bb
00000170: 7e1f 853c d167 443b 3144 38bc 0fa7 aebb
00000180: 3596 3bbc 082d 293c e606 503c d429 aa3c
00000190: 81fb 6c3b 4508 17bb 7363 d23b 67b6 2439
000001a0: f7f9 613c 6355 183c bbba 753c 2cfd 3d3a
000001b0: 07b3 0d3c 51e5 383c f9d3 a43c d9b3 993c
000001c0: 8413 04bb f630 e63a b610 3e3c 299b 133a
000001d0: 6156 05bc a62a 293c d8b4 ac3b ef97 5d3c
000001e0: 68a6 1ebb 2213 313c 1551 8b3b b677 78bc
000001f0: 3446 2f3c f369 6a3c f463 aabb 369b 2e3b
00000200: f56a 923b d0b2 d8b7 b337 0cbc 5217 763b
00000210: 5f6f 48bb cbdb f739 5a14 243b 42c9 923b
00000220: 9a7b d23b d516 99bb b531 693c 5c35 fabb
00000230: d6e9 973c a5bc 923c cc02 5d3c a43c 12bb
00000240: 7238 453c 2c7d e43c caee 3c3c 58ac 773b
00000250: d493 d63b 331e 893b 10ed cc3b 0edb 1c3c
00000260: 66e4 4b3c ef99 9d3b dfb3 723c 7d83 1a3c
00000270: bf2d 903c ba4b 673b cfd2 95b8 acc1 333c
00000280: 09d6 1e3c 2415 103c a97e 72bb 0a7f 203b
00000290: 9b3e 123c 5acc 84bb c6c4 a73c c6d0 173c
000002a0: be87 3b3c 7734 da3b 4208 1bbc d828 453b
000002b0: 49bf dc3b 8772 073c 0e0e b03b a566 b83b
000002c0: d4e0 023c 8163 a63c b93b db3b 6015 c03b
000002d0: f381 2a3b 85bc 513c a48a b9b9 7ff8 783c
000002e0: 0f3f 27bb 27fa 0cbb 02cd ea3b 93fb 393c
000002f0: 75aa b6bb dbd4 ebbb 810a 26bc 3fc2 a93b
00000300: bd20 92b9 89de f8bb 42f3 af3b 7760 333c
00000310: 96a3 ce3c 9837 533a 8fef 173c 35b8 77ba
00000320: efe5 bbba 875f 333b 2da2 973c cdfc a1bc
00000330: 6a73 e23b b4c9 fd3a 9b5f 6e3b 6a0d 69bb
00000340: e90c cb3c 5d80 61bb 1b97 b5b9 8966 c53b
00000350: 803e cebb 3a4c eb3b a3cb 9fbb 9588 913b
00000360: 27e9 813c 90d5 fe3b 9cd3 f63a 7f24 b6ba
00000370: 41f4 aa3c 7867 243c 8921 703a abf5 7c3c
00000380: 3173 473c 5a3d 8e3b 83d4 c0bb b09d 3c3c
00000390: 7195 633c 59e6 dcba 7a60 403c e7a8 0d3c
000003a0: 61c4 a83c b62b ae3b 917f 713b 32d0 8d3b
000003b0: c666 db3c 8f2f 1fbc 3954 283c 2fb2 553c
000003c0: db7d a73a c72e 923c 91fa 193c 781d ab3b
000003d0: dc89 6cbb 3e74 70bb 4cce 943b 1873 ad3c
000003e0: e778 683c a304 be3a d341 03bb 7b0d cc3b
000003f0: b969 a53c 43e4 9a3a 7c33 d3b9 1f71 56ba

network_body._body_endoder.seq_layers.2.weight f4 [256, 256]
0.0010152323 0.048202917 -0.0053851344 -0.005282788 -0.116852954 0.023160664 -0.070134535 0.06414163
0.0074292882 -0.06281646 -0.03828048 -0.0024948595 0.00023506852 -0.07440791 0.035914358 0.045722008
0.093908556 0.09934064 0.07622069 0.046016745 0.060718104 -0.08443834 0.02369265 -0.020317242
0.053118475 -0.008916592 -0.03668823 0.078814216 -0.020230645 -0.018786784 0.040880784 -0.022954736
0.10951921 -0.040189896 0.009915656 0.123669 0.12032623 0.08069255 -0.062087853 0.0914018
0.029269455 -0.05064221 -0.062845126 -0.052142847 -0.061445996 -0.1010285 -0.015034563 -0.02912836
0.07665819 0.17438105 -0.05537759 -0.054073382 -0.015474563 0.12924285 -0.10045206 -0.06387964
-0.005621849 -0.015124411 -0.007101546 -0.0058739875 -0.0046234485 0.012248307 0.04288802 0.07633183
0.040162187 -0.0075864694 0.030815747 0.06126226 -0.043603744 0.006688041 -0.056246635 -0.019276906
0.039885793 0.112840034 0.045102406 0.11449695 0.038618036 0.004531629 0.06329441 -0.0532127
0.12927516 0.015341758 0.088616945 -0.1619314 -0.12031802 -0.12552184 0.10732945 0.04999472
-0.051835578 0.0014894543 -0.024110202 0.029972222 0.023033805 -0.029575065 0.08798283 0.09389122
-0.11754305 -0.06795133 -0.08761848 -0.03020701 0.18959491 -0.09425984 -0.09638706 -0.07484099
0.10396899 0.0600125 0.009941112 0.082375586 -0.0646409 -0.050289072 -0.06687708 -0.07619019
-0.008186168 0.03283926 0.011629738 -0.0041758986 -0.09175817 0.011747273 -0.057193626 -0.09588311
-0.04316546 -0.049238473 0.061033696 0.04373731 -0.00992802 -0.063453786 0.081403725 -0.035279255
0.08185593 0.06425464 0.03637262 -0.048634257 -0.026491158 0.025067396 0.048897598 0.036073025
-0.065450855 0.028640157 -0.051851016 0.030152041 -0.042567868 -0.01122185 0.011180515 -0.032839198
-0.05749947 -0.013583902 -0.09964134 0.0031292657 -0.02681185 -0.09319956 -0.012862326 0.13843368
0.14971848 0.033577092 0.012787685 0.052199014 0.045704313 -0.02347797 -0.035835687 -0.09336808
0.0072016926 0.11494166 -0.12320123 -0.06562442 0.073295414 0.0713933 -0.03403943 -0.021213993
0.0055285553 0.08138106 0.056705683 -0.058276407 -0.03590006 0.09533896 -0.008113567 0.09140608
0.054430053 0.0092365565 -0.06491031 0.035639897 -0.10193262 0.064655915 -0.02715561 -0.020331996
0.013472392 -0.030913865 0.115339376 0.0021615347 -0.0035081194 0.01770027 0.08332083 -0.07847839
0.003439026 0.033751056 0.034907993 -0.10682514 -0.076766945 0.15728323 0.052084297 -0.03719373
-0.01856719 0.023439076 0.019850288 -0.086622104 0.04189381 0.06967646 0.032977823 -0.02474984
-0.08978463 -0.02538442 0.027429638 -0.019724062 0.06860328 -0.015703311 -0.051695555 -0.0038566913
-0.038985834 0.036921684 0.011409776 -0.078522004 -0.1171993 -0.10902283 0.0431122 -0.07216441
0.06016328 0.03074875 -0.042379476 0.055007186 -0.04751166 -0.030061718 0.059718847 -0.004670913
-0.10451746 0.028773967 -0.071690604 0.05492839 -0.013253866 -0.091128126 -0.11246443 0.033913232
0.016734624 0.016397513 0.048099056 0.09475802 -0.0221077 -0.13373451 -0.08521998 -0.012401257
0.0054598483 -0.11973889 -0.04420328 0.065856 0.0945409 0.06360733 0.02812935 0.070683666
00000000: 8b11 853a 6c70 453d c875 b0bb 3d1b adbb
00000010: 9a50 efbd 6fbb bd3c b2a2 8fbd b05c 833d
00000020: 6371 f33b eba5 80bd fecb 1cbd cc80 23bb
00000030: ba7c 7639 2d63 98bd ef1a 133d 0047 3b3d
00000040: 2153 c03d 1b73 cb3d 9819 9c3d 0e7c 3c3d
00000050: 8cb3 783d 02ee acbd 1717 c23c 5870 a6bc
00000060: c292 593d e616 12bc 6646 16bd 5969 a13d
00000070: bdba a5bc bee6 99bc 9c72 273d 920b bcbc
00000080: 9c4b e03d 299e 24bd 4775 223c 2c46 fd3d
00000090: 996d f63d 2342 a53d d54f 7ebd de30 bb3d
000000a0: 7fc6 ef3c 356e 4fbd f2b4 80bd bd93 55bd
000000b0: ccae 7bbd 08e8 cebd 8753 76bc 999e eebc
000000c0: f8fe 9c3d f290 323e 9dd3 62bd 0d7c 5dbd
000000d0: 0689 7dbc 3d58 043e cfb9 cdbd 54d3 82bd
000000e0: 7d37 b8bb 61cc 77bc 16b4 e8bb 947a c0bb
000000f0: 4c80 97bb 1fad 483c 59ab 2f3d dd53 9c3d
00000100: 1b81 243d eb97 f8bb 4e71 fc3c 23ee 7a3d
00000110: d799 32bd 5b27 db3b df62 66bd 9aea 9dbc
00000120: 495f 233d ad18 e73d 4dbd 383d 607d ea3d
00000130: f22d 1e3d 0f7e 943b 80a0 813d 8ff5 59bd
00000140: b560 043e ff5b 7b3c cd7c b53d 58d1 25be
00000150: 4b69 f6bd cc88 00be 8bcf db3d 43c7 4c3d
00000160: 8b51 54bd cb39 c33a c282 c5bc 4e88 f53c
00000170: 64b1 bc3c 6847 f2bc 5830 b43d 0a4a c03d
00000180: 69ba f0bd 112a 8bbd 5171 b3bd b174 f7bc
00000190: 2b25 423e 4e0b c1bd 9466 c5bd 3c46 99bd
000001a0: b2ed d43d abcf 753d 0ce0 223c 88b4 a83d
000001b0: 7362 84bd eafb 4dbd daf6 88bd 9a09 9cbd
000001c0: 471f 06bc 7682 063d a88a 3e3c fad5 88bb
000001d0: b5eb bbbd a277 403c dd43 6abd 5d5e c4bd
000001e0: 44ce 30bd 48ae 49bd 78fe 793d e525 333d
000001f0: 22a9 22bc 0ff4 81bd ffb6 a63d fb80 10bd
00000200: 15a4 a73d f097 833d 75fb 143d b734 47bd
00000210: fc03 d9bc 245a cd3c d948 483d 4fc1 133d
00000220: 190b 86bd c39e ea3c bb61 54bd 6a01 f73c
00000230: a55b 2ebd dadb 37bc 7b2e 373c 6582 06bd
00000240: 9084 6bbd 048f 5ebc c210 ccbd 5e14 4d3b
00000250: 86a4 dbbc 69df bebd 81bc 52bc 8fc1 0d3e
00000260: cd4f 193e 2288 093d 7083 513c a2ce 553d
00000270: 7234 3b3d df54 c0bc 71c8 12bd c437 bfbd
00000280: 2dfc eb3b 8866 eb3d ed50 fcbd 1966 86bd
00000290: e81b 963d a736 923d ee6c 0bbd f8c8 adbc
000002a0: e228 b53b 1dab a63d 3844 683d 3eb3 6ebd
000002b0: f10b 13bd 1341 c33d c4ee 04bc 1c33 bb3d
000002c0: 0cf2 5e3d ed54 173c b2ef 84bd 24fb 113d
000002d0: 0dc2 d0bd 526a 843d 7175 debc 498f a6bc
000002e0: 4fbb 5c3c 133f fdbc 0d37 ec3d 89a8 0d3b
000002f0: 7ae8 65bb 2800 913c 1ca4 aa3d 47b9 a0bd
00000300: 4861 613b 8c3e 0a3d affb 0e3d 24c7 dabd
00000310: fd37 9dbd db0e 213e 5856 553d 7458 18bd
00000320: 381a 98bc 4e03 c03c 129d a23c ee66 b1bd
00000330: d898 2b3d 88b2 8e3d c113 073d 2dc0 cabc
00000340: 01e1 b7bd fdf2 cfbc 1fb4 e03c 5b94 a1bc
00000350: e07f 8c3d 3ba4 80bc b8be 53bd 8bc0 7cbb
00000360: 9caf 1fbd 313b 173d 12f0 3a3c 25d0 a0bd
00000370: 3006 f0bd 5d47 dfbd 6b96 303d efca 93bd
00000380: c66d 763d cde4 fb3c 1a96 2dbd 374f 613d
00000390: 969b 42bd fe43 f6bc c09b 743d 750e 99bb
000003a0: 400d d6bd 62b7 eb3c 86d2 92bd 97fc 603d
000003b0: be26 59bc 62a1 babd c053 e6bd 9ae8 0a3d
000003c0: 0d17 893c 1454 863c 8403 453d 7e10 c23d
000003d0: 351b b5bc b3f1 08be d087 aebd a42e 4bbc
000003e0: 87e8 b23b aa39 f5bd 800e 35bd 83df 863d
000003f0: a99e c13d 8f44 823d 866f e63c 99c2 903d

network_body._body_endoder.seq_layers.2.bias f4 [256]
0.0032453057 -0.003058644 -0.00010506562 0.020110644 0.017664196 -5.410533e-05 0.009102946 0.008620016
0.0070943986 0.013196512 0.0021705776 -0.0015123587 -0.0059669646 0.0024402617 -0.00012638648 0.009353167
0.0031667799 0.007002547 -0.00066250906 0.008831915 0.007260517 0.0035500943 0.014478735 0.006433449
-0.0017431645 0.010178417 0.0029255175 0.006015523 0.004779759 0.0036901443 0.008971874 0.009352262
-0.00013595133 0.0016267962 0.012280216 0.0071875704 -0.009954843 0.012437877 -0.0072164712 -0.00094257615
0.004370375 0.0038979675 -0.003284687 0.003967991 0.002734664 0.005953727 0.008736279 0.011995357
0.0013742726 0.01371718 -0.0067626988 0.0033178625 0.011685403 0.0012752969 0.0010661248 0.0035156976
0.009512627 0.003007873 0.0034362138 0.009462829 0.009827136 -0.008027233 -0.00085925893 0.013419487
0.008327521 -0.0033239943 0.0094302 0.012117988 -0.0026461494 -0.004087329 0.013619581 -0.0009636524
0.0028097553 0.004598336 0.009258914 -0.009800597 0.008954601 0.00077714305 0.009995952 0.0027489038
-0.0064662057 0.017133232 -0.00668769 0.0033167535 -4.502966e-05 0.0018539715 -0.008008361 -0.005561186
0.0044232593 0.01774746 0.008119811 -0.0016045001 -0.0035631277 0.0057117892 0.023573246 0.009619171
0.009511841 0.009168827 0.008471425 0.0013601648 -0.0040919054 -0.013407272 0.0013920486 0.0050137355
0.009658078 0.0018520297 0.0063213953 -0.0032018668 0.0046774517 0.007316718 0.004993553 -0.0020855446
0.004609412 0.014735145 0.002398764 0.0064567104 -0.009895971 0.011495851 0.008329851 0.009256849
0.015533697 0.009411551 0.0052113533 0.0029920565 0.0011621338 0.0056135943 0.0034537136 0.006106124
0.006220863 0.016627613 0.010199729 -0.0034616953 0.00081801275 -0.0021695015 -0.0032298823 0.017548278
0.00930605 -0.0066198045 0.00979566 0.0023142966 -0.002768673 -0.0011913506 0.006968669 0.006664791
0.012128072 -0.002563723 0.012346706 0.015620136 0.008219152 0.012803786 -0.0041796956 0.0015339882
-0.00097627245 0.0021882514 0.0056243436 0.016243469 0.0068809036 -0.0018289405 0.008107141 0.0011655499
0.0018117819 0.0028938497 0.0009828855 0.006827604 0.0073675774 -0.0047351085 0.0011004847 0.002716482
0.002833301 0.0021782175 0.010492066 0.0019369118 0.00858673 0.0045570456 0.008749985 0.007204398
0.008452361 0.009372959 0.010705097 0.008356544 -0.0041613434 0.0008609192 0.0041906643 0.0058382344
-0.002963517 0.0021337224 0.010629417 -0.005490601 0.015329769 0.0048101777 0.0095484 0.0011409504
0.008890415 -0.0010517117 0.006981355 0.00580102 0.013022843 -0.0050041983 -0.007611915 0.010140601
0.0007496261 0.014582243 0.007141443 0.008077426 0.0015006496 0.0028010225 0.015263575 0.0051846267
0.008965981 0.004669261 0.006681544 0.0061033685 0.004735853 0.009585404 0.014167423 0.0037860759
0.00500997 0.0028301242 0.014338561 0.006406269 0.009062112 0.022481907 0.009990135 0.0058715465
0.00903705 -0.005760049 0.003425304 0.005472437 0.015599721 -0.00020711473 0.011041185 -0.0031159534
0.009830908 0.013705864 0.0061815544 0.014093327 -0.004566399 -0.0073941257 0.008651942 0.013702124
0.014386166 0.005494856 0.005851586 0.006772758 0.016376976 0.010831424 0.014442629 -0.00045441606
0.0023388267 -0.00034031298 0.014449194 0.008259258 0.0037201452 -0.00015332433 0.008341378 0.005863142
00000000: 32af 543b 8873 48bb ad56 dcb8 14bf a43c
00000010: 81b4 903c 28ef 62b8 8624 153c f83a 0d3c
00000020: 2178 e83b 2f36 583c 4040 0e3b 563a c6ba
00000030: 8786 c3bb ccec 1f3b 9d86 04b9 073e 193c
00000040: c089 4f3b 9f75 e53b 3bac 2dba bdb3 103c
00000050: a2e9 ed3b b3a8 683b 3738 6d3c afcf d23b
00000060: e57a e4ba 60c3 263c 0aba 3f3b dd1d c53b
00000070: 869f 9c3b 59d6 713b c4fe 123c 3b3a 193c
00000080: 288e 0eb9 393a d53a f632 493c b685 eb3b
00000090: a319 23bc 3dc8 4b3c 2678 ecbb 3717 77ba
000000a0: 5d35 8f3b 0b75 7f3b e743 57bb ec05 823b
000000b0: 0c38 333b 7b17 c33b 9c22 0f3c 2d88 443c
000000c0: f020 b43a 06be 603c a199 ddbb 7f70 593b
000000d0: 2274 3f3c dd27 a73a 36bd 8b3a 9e67 663b
000000e0: d9da 1b3c bc1f 453b 1a32 613b fb09 1b3c
000000f0: ff01 213c a884 03bc e43f 61ba 68dd 5b3c
00000100: 2870 083c 5fd7 59bb 2081 1a3c 878a 463c
00000110: 056b 2dbb 00ef 85bb aa24 5f3c 9e9d 7cba
00000120: df23 383b a3ad 963b b3b2 173c af92 20bc
00000130: 52b6 123c 30b9 4b3a 10c6 233c f426 343b
00000140: 77e2 d3bb fe5a 8c3c 6924 dbbb e45d 593b
00000150: 3bde 3cb8 f600 f33a 8035 03bc 9c3a b6bb
00000160: fdf0 903b 1f63 913c f508 053c 174e d2ba
00000170: 5d83 69bb f629 bb3b ae1c c13c ba99 1d3c
00000180: 8ed7 1b3c d938 163c bbcb 0a3c 8f47 b23a
00000190: 6415 86bb 2daa 5bbc 6675 b63a 434a a43b
000001a0: ea3c 1e3c cebf f23a b523 cf3b 69d6 51bb
000001b0: 4f45 993b 14c1 ef3b f5a0 a33b a2ad 08bb
000001c0: 8d0a 973b ad6b 713c 9534 1d3b d092 d33b
000001d0: b622 22bc 1859 3c3c ed79 083c 0aaa 173c
000001e0: 0c81 7e3c e832 1a3c 00c4 aa3b 6116 443b
000001f0: bd52 983a 3ef2 b73b b357 623b e115 c83b
00000200: 62d8 cb3b a236 883c c41c 273c 9cdd 62bb
00000210: e86f 563a 322e 0ebb 6fac 53bb 68c1 8f3c
00000220: 6778 183c f2ea d8bb fa7d 203c 74ab 173b
00000230: a072 35bb 1827 9cba 6f59 e43b 5264 da3b
00000240: d2b4 463c 2204 28bb d749 4a3c 99eb 7f3c
00000250: 9fa9 063c f9c6 513c d4f5 88bb 1a10 c93a
00000260: 89ec 7fba c468 0f3b 6a4c b83b 0611 853c
00000270: 3479 e13b 0fb9 efba d0d3 043c 5dc5 983a
00000280: 5079 ed3a bea6 3d3b 2ad4 803a 18ba df3b
00000290: b86b f13b f828 9bbb 243e 903a 0107 323b
000002a0: e7ae 393b 6dc0 0e3b eae6 2b3c fadf fd3a
000002b0: 5baf 0c3c 4553 953b 195c 0f3c df12 ec3b
000002c0: c67b 0a3c 0a91 193c 6e64 2f3c e3e9 083c
000002d0: e15b 88bb 4faf 613a d751 893b a94e bf3b
000002e0: 9137 42bb ecd5 0b3b 0227 2e3c 80ea b3bb
000002f0: b629 7b3c b29e 9d3b e470 1c3c f18b 953a
00000300: 1aa9 113c 97d9 89ba dac3 e43b 7c16 be3b
00000310: c35d 553c 42fa a3bb 5f6d f9bb c324 263c
00000320: 8e82 443a 5cea 6e3c c402 ea3b 2e57 043c
00000330: 72b1 c43a 5c91 373b 1314 7a3c cde3 a93b
00000340: 0de6 123c 9a00 993b daf0 da3b c4fe c73b
00000350: 372f 9b3b 190c 1d3c 7b1e 683c d01f 783b
00000360: ad2a a43b 9b79 393b 49ec 6a3c aeeb d13b
00000370: 4179 143c fa2b b83c aaad 233c 1a66 c03b
00000380: 2310 143c cbbe bcbb 117b 603b 2152 b33b
00000390: f995 7f3c f02c 59b9 16e6 343c 0635 4cbb
000003a0: d111 213c 8f8e 603c a38e ca3b b3e7 663c
000003b0: bba1 95bb 6c4a f2bb e0c0 0d3c e07e 603c
000003c0: f4b3 6b3c 310e b43b a9be bf3b 03ee dd3b
000003d0: 0229 863c 4976 313c c7a0 6c3c b13e eeb9
000003e0: 0047 193b 096c b2b9 50bc 6c3c d751 073c
000003f0: aecd 733b b0c5 20b9 46aa 083c 9a1f c03b

network_body._body_endoder.seq_layers.4.weight f4 [256, 256]
-0.0060346555 0.02321311 0.018475618 0.04802113 -0.08956876 0.0345869 0.026235994 -0.116658166
0.013469506 -0.07512881 0.07865134 -0.0718616 -0.04582527 -0.01621884 0.043971483 0.14106533
-0.0678804 0.06018191 -0.05171722 -0.07318963 0.04858219 -0.04788281 0.028396862 -0.17193337
-0.051037468 -0.02943336 -0.0002428952 -0.026382113 -0.039229665 0.024922088 -0.013521166 0.020933649
0.07721628 0.039081473 0.027049955 -0.006330684 -0.027871715 -0.084753774 0.010233107 0.120825626
0.15210745 -0.12851149 -0.09538009 -0.1487637 -0.00050336536 -0.014554274 0.015478388 0.15454048
-0.069614254 0.054459717 0.033180207 -0.053583484 -0.03999144 0.16387223 0.02611415 0.016783169
-0.0878663 -0.049202763 -0.10068573 0.021959983 0.023240907 -0.010397804 0.06861221 0.1212145
-0.011283832 0.0041231317 0.026240174 -0.016636817 0.07604572 -0.10160907 0.048809253 0.022152763
-0.07725337 0.09371535 -0.11617681 0.05608706 0.019128643 -0.078513145 0.11183025 -0.02228285
0.067050956 0.06952662 0.07573087 0.022005122 0.025829393 0.05473353 0.011124721 0.07339261
0.14657143 0.036412895 -0.05459247 -0.12291952 0.0071970555 0.0376905 -0.025619013 -0.03509244
0.0049975445 0.048241813 0.023453139 -0.002615273 0.10290231 0.020465326 0.02049416 0.030798856
0.0120792175 -0.026440552 0.0744496 0.056140482 0.0029830514 -0.09965423 -0.028330721 0.04337011
0.040738452 -0.08002548 0.01780279 -0.0071703554 0.073468536 -0.027706502 0.02638734 -0.0407896
0.07330422 -0.03888807 -0.024649486 0.043098625 0.06398602 0.07876607 0.018311689 -0.093336225
0.08772426 0.049173646 -0.005635485 -0.005891412 -0.12379225 -0.10824935 -0.048628584 0.04867967
-0.04844086 -0.05459986 -0.12620844 -0.008631302 -0.013559098 -0.030080095 -0.014931606 -0.08573621
0.10093516 0.048360556 -0.010602473 0.14467162 -0.09610993 0.041942675 -0.10388801 -0.08249671
0.017046105 0.046809547 -0.020892227 0.0121543985 0.0069637164 0.0046513993 0.0073959194 0.10402529
0.053404596 -0.081476115 -0.048014533 -0.081117555 -0.07531243 0.054166283 -0.002665912 0.0038690828
-0.028525855 -0.0471857 -0.13559689 0.04107665 0.042629763 0.19357488 0.06890722 -0.04660883
-0.055968672 -0.05140526 -0.026772171 -0.030491255 0.01676176 -0.07184502 0.019561153 -0.019297145
0.013951498 0.034048937 -0.08294261 -0.008717631 0.0985521 0.021679545 -0.010013325 0.026293162
0.09286703 0.021007292 0.14328445 -0.02975318 -0.0020074723 -0.030765042 0.05150215 -0.0695804
-0.1240348 0.08820846 0.0745971 -0.0066994806 0.11263098 0.02288699 -0.10297257 -0.027402503
0.006794182 -0.0021001946 -0.059430804 -0.14756362 -0.08251453 0.060619 -0.016478708 0.01401388
0.0015102092 -0.0355161 0.05935942 -0.028937653 -0.033875726 -0.0892059 0.017369995 0.065017104
-0.015373288 0.024244592 0.08691557 0.12972187 -0.0044076685 -0.08247377 -0.084969595 0.07245636
-0.10067304 -0.1269949 -0.018518323 -0.048433293 -0.030779714 -0.012825289 0.08286696 -0.08081079
-0.011669551 0.049292482 0.07062306 0.014368843 -0.008942359 -0.0230418 -0.006235694 -0.030525347
0.072704755 0.115012966 -0.053949945 -0.17684647 -0.0044351798 -0.028057378 0.071007244 -0.158749
00000000: 5cbe c5bb 6c29 be3c 2e5a 973c ceb1 443d
00000010: d36f b7bd feaa 0d3d deec d63c 7aea eebd
00000020: 34af 5c3c 22dd 99bd f413 a13d 2d2c 93bd
00000030: 47b3 3bbd 5fdd 84bc 711b 343d 6e73 103e
00000040: e104 8bbd 4e81 763d 70d5 53bd 72e4 95bd
00000050: 1efe 463d c420 44bd 89a0 e83c 4d0f 30be
00000060: aa0c 51bd 3b1e f1bc afb1 7eb9 4d1f d8bc
00000070: 49af 20bd 6829 cc3c e187 5dbc 0b7d ab3c
00000080: 9223 9e3d e513 203d de97 dd3c a071 cfbb
00000090: 3953 e4bc 6393 adbd c3a8 273c 6d73 f73d
000000a0: 0ec2 1b3e 8498 03be a356 c3bd 8355 18be
000000b0: 47f4 03ba 0d75 6ebc 1199 7d3c dc3f 1e3e
000000c0: eb91 8ebd 2711 5f3d f8e7 073d 5b7a 5bbd
000000d0: 10ce 23bd 1fce 273e 58ed d53c db7c 893c
000000e0: 3ff3 b3bd d688 49bd 5234 cebd 6ce5 b33c
000000f0: b763 be3c 8d5b 2abc 8f84 8c3d 4f3f f83d
00000100: d2df 38bc 561b 873b a2f5 d63c ef49 88bc
00000110: dcbd 9b3d 6b18 d0bd 36ec 473d b679 b53c
00000120: 0437 9ebd d5ed bf3d 1bee edbd 8cbb 653d
00000130: acb3 9c3c 80cb a0bd 4207 e53d 868a b6bc
00000140: 0352 893d f963 8e3d c918 9b3d 1644 b43c
00000150: 2a98 d33c 4430 603d 7644 363c dd4e 963d
00000160: d216 163e b025 153d 5b9c 5fbd 3bbd fbbd
00000170: 47d5 eb3b 5b61 1a3d f7de d1bc 17bd 0fbd
00000180: 71c2 a33b 3599 453d cc20 c03c 0065 2bbb
00000190: 72be d23d e6a6 a73c 5ee3 a73c e24d fc3c
000001a0: e9e7 453c db99 d8bc 0879 983d 90f3 653d
000001b0: 4c7f 433b 8417 ccbd d415 e8bc dba4 313d
000001c0: 5ddd 263d 66e4 a3bd 28d7 913c 4df5 eabb
000001d0: ac76 963d bff8 e2bc 432a d83c ff12 27bd
000001e0: 8620 963d 1949 1fbd b8ed c9bc 2f88 303d
000001f0: 1a0b 833d 1b50 a13d 6502 963c 1027 bfbd
00000200: c7a8 b33d 4e6a 493d e0a9 b8bb bf0c c1bb
00000210: cb86 fdbd d6b1 ddbd c42e 47bd 5564 473d
00000220: ec69 46bd 1aa4 5fbd c93c 01be 4e6a 0dbc
00000230: fb26 5ebc 886a f6bc b2a3 74bc 7796 afbd
00000240: 18b7 ce3d b815 463d ffb5 2dbc cc24 143e
00000250: 48d5 c4bd 15cc 2b3d 3dc3 d4bd 09f4 a8bd
00000260: 46a4 8b3c 5ebb 3f3d 2d26 abbc 3e23 473c
00000270: e32f e43b c46a 983b 7859 f23b 360b d53d
00000280: c7be 5a3d f3dc a6bd e3aa 44bd f620 a6bd
00000290: 673d 9abd 77dd 5d3d 95b6 2ebb 7090 7d3b
000002a0: 0eaf e9bc cb45 41bd e9d9 0abe fd3f 283d
000002b0: 8c9c 2e3d 7e38 463e 3b1f 8d3d e7e8 3ebd
000002c0: 683f 65bd 528e 52bd 5051 dbbc ccc8 f9bc
000002d0: f54f 893c 7b23 93bd b63e a03c 0c15 9ebc
000002e0: d394 643c e676 0b3d d1dd a9bd 65d4 0ebc
000002f0: afd5 c93d 4d99 b13c ee0e 24bc c264 d73c
00000300: 1231 be3d 7c17 ac3c 29b9 123e f1bc f3bc
00000310: cc8f 03bb f806 fcbc ebf3 523d 2b80 8ebd
00000320: f505 febd a3a6 b43d 5dc6 983d 5187 dbbb
00000330: 12ab e63d 7f7d bb3c 48e3 d2bd 377b e0bc
00000340: bba1 de3b 6ba3 09bb b76d 73bd eb1a 17be
00000350: 61fd a8bd a14b 783d 5bfe 86bc 799a 653c
00000360: 36f2 c53a 5479 11bd dd22 733d a80e edbc
00000370: 46c1 0abd 95b1 b6bd 854b 8e3c b027 853d
00000380: 3ee0 7bbc 989c c63c ca00 b23d cfd5 043e
00000390: 346e 90bb 02e8 a8bd 8a04 aebd 0064 943d
000003a0: ab2d cebd f30a 02be bdb3 97bc fd61 46bd
000003b0: bd25 fcbc 2921 52bc 27b6 a93d 2180 a5bd
000003c0: a531 3fbc eae6 493d d3a2 903d 4c6b 6b3c
000003d0: f982 12bc 28c2 bcbc cb54 ccbb 4b10 fabc
000003e0: 3be6 943d eb8b eb3d 9efa 5cbd 3e17 35be
000003f0: fc54 91bb 96d8 e5bc 3f6c 913d 198f 22be

network_body._body_endoder.seq_layers.4.bias f4 [256]
0.0029648817 0.014068913 -0.012479011 0.011005604 -0.00020107954 0.003070556 -0.00038919054 0.007860442
0.009994134 0.004261191 0.007923771 0.0065076617 -0.002036654 0.0095216 0.011137099 0.010673192
-0.0021450669 0.008707199 0.010213055 0.008014457 -0.0018500835 0.006487717 -0.00285786 0.012686369
0.0025061378 0.0029747218 0.0105525805 -0.012691797 0.0086844815 0.0033925204 0.0052447002 0.013083886
0.0133954305 0.01173427 0.0023076579 0.0042620073 -0.0030275558 -0.0038142162 0.0043973443 -0.0048778453
0.0026817054 0.0053958874 0.005886111 -0.004512166 0.0059215985 0.010685338 0.0037012284 -0.000903174
0.0035880646 -0.0051771025 -0.0061261724 0.0030179147 -0.00734179 -0.0049336404 0.011798192 -0.007807716
0.0026185429 0.014582599 0.007085201 0.0041288887 0.012684241 0.0053714034 0.0006965185 0.0023540016
0.0045328704 0.0071265833 0.0071192 0.014700969 -0.0011955468 0.001543125 0.008574236 -4.460801e-05
0.011393939 -0.004325067 0.0068727024 0.0015804354 0.005978843 8.6300824e-05 -0.00026712776 0.0061168694
0.0041493736 0.00972286 0.0077993954 0.014458254 0.0019090129 0.0063846684 -0.0029912496 0.0027690788
0.003347015 0.010905311 0.006066347 0.002188007 0.0021881498 0.009871018 0.013283057 -0.0049898266
0.0108511485 0.0019337696 0.01132489 0.0010253937 0.006682798 0.008886889 0.00026388266 0.0015664699
0.003384184 0.0009498786 0.009660806 0.016757488 0.0074483994 0.0039757225 0.007677408 0.0073994095
-0.0028406428 0.00074089196 -0.00011919511 0.008652319 0.008185579 -0.0042370986 0.007746935 0.0019049786
0.01078561 -0.002283564 0.0132765565 0.0016183469 -0.012511833 0.010456322 -0.0006424947 0.01857671
-0.005599346 -0.0095010605 0.014008599 0.0023479061 -0.0023014557 0.002294113 0.003827505 -0.0048489696
-0.0044034664 0.0016100765 0.0059294133 -0.00012710424 0.0053535593 0.006416109 0.0071506533 0.005320214
0.0049924348 0.009020416 0.005209949 -0.00090991857 0.012323792 0.009483558 0.009099511 0.0071320734
-0.0020893728 0.0021268162 0.001366334 0.00857277 0.005648483 -0.0063786106 -0.009026842 0.012682778
0.010844359 0.00042489643 0.011065666 0.0059024747 0.0014933909 0.0056221182 0.004189282 0.010197448
0.012104621 -0.0025805875 0.0061153374 0.01020564 0.0068910522 0.011093008 0.0046070735 -0.007884425
0.002189969 0.008362211 0.00878018 0.0057748538 0.006391288 -0.0032540658 -0.00029122183 0.013176074
0.0026597567 0.008773202 0.0011799352 0.0033205068 0.0052721845 0.011956413 0.011888021 0.0033260714
-0.0009046876 0.003218367 0.007047138 0.00632142 0.011824873 0.017767267 0.008171704 -0.00014048122
0.0019322338 0.011567158 0.009280121 0.004323633 0.01308115 0.0028630097 0.008575261 0.006113597
-0.003774352 0.0025796897 0.0031733473 0.0033084012 0.00304679 0.0047129216 0.0049720337 0.0077903653
0.0011971866 0.004827385 -0.005154944 -0.010895521 0.002546941 0.011556582 -0.00805242 0.0051690023
-0.00020241874 -0.013347341 0.0034063216 -0.00975354 0.011154717 0.0049150432 0.0018934341 0.0048138974
0.010002834 -0.0026072687 0.0025599906 -0.0094098365 0.007870209 0.01215388 -0.00077303173 -0.008195515
0.0051282947 -0.0018381976 8.288963e-05 0.0018150419 0.0041279686 0.009950886 0.006079347 0.0032249775
0.012628931 -0.0018870985 0.0018697478 0.0042158933 0.0031793334 0.0039118105 -0.0056219357 0.007563688
00000000: 764e 423b 4c81 663c c474 4cbc d950 343c
00000010: e1d8 52b9 623b 493b 450c ccb9 15c9 003c
00000020: 70be 233c 76a1 8b3b b4d2 013c 393e d53b
00000030: 6279 05bb 7c00 1c3c 6178 363c 9dde 2e3c
00000040: 4094 0cbb a4a8 0e3c a854 273c 124f 033c
00000050: 807e f2ba ea96 d43b ef4a 3bbb 7dda 4f3c
00000060: 043e 243b 8df3 423b bbe4 2c3c 41f1 4fbc
00000070: 5b49 0e3c 0c55 5e3b bcdb ab3b cc5d 563c
00000080: 8278 5b3c 1841 403c 133c 173b 4fa8 8b3b
00000090: f569 46bb eef7 79bb 9917 903b 55d6 9fbb
000000a0: 8dbf 2f3b fccf b03b 47e0 c03b cbda 93bb
000000b0: f809 c23b 8e11 2f3c 4f90 723b fbc2 6cba
000000c0: bc25 6b3b afa4 a9bb 0fbe c8bb 35c8 453b
000000d0: 6693 f0bb 60aa a1bb 344d 413c ded7 ffbb
000000e0: dc9b 2b3b daeb 6e3c f92a e83b a14b 873b
000000f0: 90d1 4f3c 9902 b03b 9196 363a 9845 1a3b
00000100: 7988 943b 1d86 e93b 2e48 e93b 55dc 703c
00000110: e5b3 9cba af42 ca3a f47a 0c3c 7c19 3bb8
00000120: a5ad 3a3c 4bb9 8dbb 6834 e13b 9d26 cf3a
00000130: 2cea c33b 67fc b438 480d 8cb9 0570 c83b
00000140: 78f7 873b a14c 1f3c 1292 ff3b 50e2 6c3c
00000150: d837 fa3a 7b36 d13b d708 44bb 6f79 353b
00000160: 9859 5b3b 31ac 323c 35c8 c63b ab64 0f3b
00000170: 1067 0f3b 0dba 213c 2ea1 593c b381 a3bb
00000180: 04c9 313c 8a76 fd3a 088c 393c 8166 863a
00000190: 5ffb da3b 509a 113c bb59 8a39 0252 cd3a
000001a0: 30c9 5d3b 4601 793a 5b48 1e3c 0047 893c
000001b0: b411 f43b c746 823b c492 fb3b bf76 f23b
000001c0: 142a 3abb 6b38 423a 63f8 f9b8 75c2 0d3c
000001d0: cf1c 063c 5cd7 8abb 00da fd3b 7ab0 f93a
000001e0: 21b6 303c d9a7 15bb ea85 593c b61e d43a
000001f0: 6efe 4cbc fe50 2b3c 176d 28ba 2f2e 983c
00000200: b87a b7bb 56aa 1bbc 5384 653c 54df 193b
00000210: 05d4 16bb d458 163b e1d6 7a3b 1be4 9ebb
00000220: f44a 90bb 3409 d33a 864b c23b 4947 05b9
00000230: e96c af3b 393e d23b 0750 ea3b 3155 ae3b
00000240: 9497 a33b 5eca 133c 38b8 aa3b 9a87 6eba
00000250: bbe9 493c ed60 1b3c 1e16 153c 2bb4 e93b
00000260: dced 08bb 0e62 0b3b 9016 b33a ce74 0c3c
00000270: e916 b93b aa03 d1bb 52e5 13bc 6dcb 4f3c
00000280: 8aac 313c a2c4 de39 c44c 353c 8c69 c13b
00000290: e2bd c33a bf39 b83b 3f46 893b 3213 273c
000002a0: 7652 463c 131f 29bb 2b63 c83b 8f35 273c
000002b0: 56ce e13b 73bf 353c eff6 963b ad2d 01bc
000002c0: 9585 0f3b a801 093c beda 0f3c fc3a bd3b
000002d0: 026e d13b 2a42 55bb 22af 98b9 76e0 573c
000002e0: 504f 2e3b 7abd 0f3c 0ea8 9a3a dc9c 593b
000002f0: 4ac2 ac3b d5e4 433c f9c5 423c 38fa 593b
00000300: 8f28 6dba 3deb 523b aeeb e63b ea23 cf3b
00000310: 1dbd 413c a98c 913c 9ce2 053c 244e 13b9
00000320: 0243 fd3a 2d84 3d3c a60b 183c 43ad 8d3b
00000330: 5252 563c 55a1 3b3b 407f 0c3c 9254 c83b
00000340: 1e5b 77bb 0310 293b eff7 4f3b c3d1 583b
00000350: a7ac 473b da6e 9a3b 71ec a23b 5246 ff3b
00000360: ebea 9c3a 0a2f 9e3b ceea a8bb 2183 32bc
00000370: 94ea 263b d157 3d3c 4cee 03bc bc60 a93b
00000380: 5e40 54b9 ceae 5abc 983c 5f3b 50cd 1fbc
00000390: 46c2 363c 5f0e a13b 1b2d f83a e6bd 9d3b
000003a0: ede2 233c b6de 2abb 84c5 273b b72b 1abc
000003b0: 0df2 003c 1121 473c 48a5 4aba 7b46 06bc
000003c0: 410b a83b adef f0ba 08d5 ad38 b3e6 ed3a
000003d0: e943 873b 0a09 233c 4235 c73b 255a 533b
000003e0: 93e9 4e3c 8558 f7ba 5312 f53a 7a25 8a3b
000003f0: 5d5c 503b a52e 803b 3738 b8bb d0d8 f73b

action_model._continuous_distribution.log_sigma f4 [1, 2]
-0.12441365 0.01869572
00000000: 95cc febd c427 993c

action_model._continuous_distribution.mu.weight f4 [2, 256]
0.035421018 0.030171987 -0.010550841 0.030238338 -0.03708773 0.014006262 -0.017225513 -0.06301054
0.015520714 0.010055352 0.020069063 -0.0012721865 -0.031532146 -0.004360825 0.052864783 0.015841471
0.014676285 0.053626038 0.033895925 0.0307236 -0.032003745 0.01500118 -0.012527215 -0.03451476
-0.01414121 -0.00010716303 0.001300013 0.010031341 0.028372504 0.017035786 0.02844101 0.03197056
0.0020875176 0.0021630344 0.012763487 -0.008024562 -0.038882043 0.0049565574 0.0058566527 -0.017760154
0.009922831 0.027532574 0.03575899 -0.019495305 0.023360614 0.008416052 0.038903486 -0.052382264
0.001804149 -0.018096453 -0.02628745 0.006734208 -0.03655417 -0.036326487 0.04411109 -0.0019386488
0.0005339221 0.046245933 0.0018257577 -0.023369571 0.019324498 0.017194062 -0.026211817 0.0005846593
0.029542148 0.01723247 0.0320919 -0.006069019 -0.03613558 0.011274229 0.027926613 -0.018656926
-0.004359961 -0.018432915 0.020818572 -0.039098214 0.025040973 0.005199515 0.018986806 0.028039142
0.005077168 0.012030352 0.011439067 0.014876027 -0.01843681 -0.014583539 0.014960743 -0.027411982
0.0077984566 -0.0005220952 -0.037653457 -0.024455752 -0.032819927 -0.016958285 0.0436033 -0.034870178
0.012562181 0.00453681 0.0079134125 0.024911117 -0.013287089 -0.0007533001 -0.035049148 -0.003141336
0.011931609 -0.0038882054 -0.029626211 0.003514472 0.010818 -0.046656217 0.020041171 -0.063981
-0.044502962 -0.010636292 -0.025077438 0.014794281 0.014633663 -0.0059936433 0.019727081 -0.028693467
-0.06798133 0.0052137575 -0.022666948 -0.035440765 -0.01347716 0.051092528 -0.047974717 0.028982697
-0.0068243486 -0.015285974 0.020139687 -0.04739256 -0.023395214 -0.058382023 0.028547356 -0.020578235
-0.041405935 0.024115933 0.019083476 -0.005914203 -0.018415267 -0.013608044 -0.05351352 0.033271622
-0.033441156 0.001575146 -0.0024199446 -0.000997509 0.037518278 -0.0065522543 0.011943497 0.0341393
-0.0330844 0.04058525 -0.009273852 -0.0023106858 0.027538374 -0.026288504 0.0036290695 0.041653086
0.026396645 -0.02990019 0.00419436 -0.00066123036 0.041517302 0.023295412 -0.005761526 -0.0117444685
0.041055545 -0.030647943 0.0010305133 0.014997676 0.03515485 0.006042225 -0.012708914 0.008323241
-0.04184975 0.005184006 0.016099675 0.035074178 -0.024896558 -0.0022968869 -0.04587371 -0.026983373
-0.0026690096 0.033978324 -0.02839755 0.0050091045 0.027691063 0.025097165 -0.043829497 0.009654928
-0.02498095 0.012592618 0.012298299 -0.050542757 0.053308453 0.025958862 -0.017958397 -0.0021135015
-0.0142794615 0.0028570604 0.017842224 -0.034252204 -0.0057153963 -0.006900671 0.0024598995 0.00062349136
-0.016369734 -0.0007580693 0.002881779 -0.020038087 0.032311853 0.03807422 -0.009144312 0.038500678
0.010986585 0.022131324 -0.0106630325 0.012330804 -0.016715342 0.0064251157 0.0020636434 0.01935705
0.012399314 -0.0047168233 0.026095474 -0.02518952 -0.032658625 0.020872764 -0.036421392 0.0011513444
-0.025103828 0.020682145 -0.022222888 -0.015984172 0.019676723 0.047562994 0.004525582 -0.0153888585
0.0085353535 -0.024802156 -0.017169872 -0.025684897 -0.04137761 0.036839597 0.00877181 -0.0114579
0.01160126 -0.0051186224 -0.010851683 0.017913043 0.017262494 -0.013652812 -0.017051838 -0.025444394
00000000: a115 113d 3e2b f73c 6fdd 2cbc 64b6 f73c
00000010: 4ee9 17bd 857a 653c 851c 8dbc ac0b 81bd
00000020: 984a 7e3c 34bf 243c e067 a43c 7fbf a6ba
00000030: da27 01bd 40e5 8ebb be88 583d f9c5 813c
00000040: cd74 703c faa6 5b3d 74d6 0a3d 0fb0 fb3c
00000050: 5c16 03bd 82c7 753c f33e 4dbc 595f 0dbd
00000060: 89b0 67bc b7bc e0b8 3365 aa3a 7e5a 243c
00000070: 746d e83c a28e 8b3c 1ffd e83c 90f3 023d
00000080: bcce 083b b2c1 0d3b f21d 513c 7479 03bc
00000090: c742 1fbd 9e6a a23b 2ae9 bf3b be7d 91bc
000000a0: 5f93 223c fe8b e13c 0578 123d 9eb4 9fbc
000000b0: c25e bf3c 7be3 093c 4359 1f3d c98e 56bd
000000c0: 3279 ec3a 033f 94bc c758 d7bc a2aa dc3b
000000d0: d3b9 15bd 15cb 14bd d5ad 343d 421a feba
000000e0: e8f6 0b3a 606c 3d3d 434e ef3a 8b71 bfbc
000000f0: 694e 9e3c 90da 8c3c 2aba d6bc d243 193a
00000100: 6002 f23c 1c2b 8d3c cc72 033d 9fde c6bb
00000110: e702 14bd 8bb7 383c 5ac6 e43c 69d6 98bc
00000120: 01de 8ebb a000 97bc b68b aa3c 7325 20bd
00000130: ba22 cd3c b160 aa3b 388a 9b3c 58b2 e53c
00000140: 5f5e a63b f41a 453c ed6a 3b3c 94ba 733c
00000150: cb08 97bc ccef 6ebc e71d 753c 188f e0bc
00000160: 328a ff3b 37dd 08ba 833a 1abd 6e57 c8bc
00000170: 306e 06bd 1aec 8abc 6099 323d 08d4 0ebd
00000180: 9bd1 4d3c 85a9 943b 42a7 013c 6612 cc3c
00000190: 17b2 59bc 1d79 45ba b28f 0fbd dfde 4dbb
000001a0: cc7c 433c 43d1 7ebb abb2 f2bc 0e53 663b
000001b0: fb3d 313c 971a 3fbd 622d a43c 7808 83bd
000001c0: bd48 36bd d843 2ebc 336f cdbc b663 723c
000001d0: 08c2 6f3c 5366 c4bb b09a a13c 900e ebbc
000001e0: cc39 8bbd 2bd8 aa3b 09b0 b9bc 562a 11bd
000001f0: 4ecf 5cbc 6646 513d 2381 44bd 1f6d ed3c
00000200: c99e dfbb 0672 7abc fcfb a43c b31e 42bd
00000210: 52a7 bfbc fd21 6fbd 25dc e93c b093 a8bc
00000220: 4599 29bd c78e c53c f354 9c3c eecb c1bb
00000230: 9ddb 96bc 46f4 5ebc fe30 5bbd d347 083d
00000240: 98f9 08bd 2175 ce3a ef97 1ebb d9be 82ba
00000250: c4ac 193d 4bb4 d6bb a8ae 433c a7d5 0b3d
00000260: 8283 07bd b83c 263d 5bf1 17bc e06e 17bb
00000270: 2898 e13c fd5a d7bc afd5 6d3b 6d9c 2a3d
00000280: c73d d83c 3ef1 f4bc d870 893b 6b56 2dba
00000290: 0c0e 2a3d 05d6 be3c 2fcb bcbb df6b 40bc
000002a0: dc29 283d 6511 fbbc 4a12 873a d0b8 753c
000002b0: 88fe 0f3d dbfd c53b 0c39 50bc 345e 083c
000002c0: a56a 2bbd 98de a93b 77e3 833c f1a9 0f3d
000002d0: def3 cbbc 5e87 16bb 12e6 3bbd 3c0c ddbc
000002e0: 8dea 2ebb db2c 0b3d fba1 e8bc 6a23 a43b
000002f0: 5ed8 e23c 9298 cd3c 8f86 33bd b42f 1e3c
00000300: d9a4 ccbc 4551 4e3c ce7e 493c ec05 4fbd
00000310: f759 5a3d aea7 d43c 7d1d 93bc ac82 0abb
00000320: 67f4 69bc 853d 3b3b db29 923c 0a4c 0cbd
00000330: 3848 bbbb 061f e2bb 4436 213b cc71 233a
00000340: d219 86bc 2bb9 46ba 3bdc 3c3b ea26 a4bc
00000350: 6f59 043d b7f3 1b3d 06d2 15bc e3b2 1d3d
00000360: 1401 343c c04c b53c 00b4 2ebc 2407 4a3c
00000370: 9dee 88bc c789 d23b 313e 073b ad92 9e3c
00000380: 7e26 4b3c 958f 9abb 2dc6 d53c 415a cebc
00000390: 0dc5 05bd 5cfd aa3c 992e 15bd b5e8 963a
000003a0: 8ba6 cdbc 9a6d a93c c60c b6bc 3df1 82bc
000003b0: 1431 a13c 6ad1 423d 554b 943b 8d21 7cbc
000003c0: ded7 0b3c e42d cbbc d5a7 8cbc 2269 d2bc
000003d0: 927b 29bd 1ee5 163d a3b7 0f3c eab9 3bbc
000003e0: 3613 3e3c 1eba a7bb 42cb 31bc 60be 923c
000003f0: 136a 8d3c 0bb0 5fbc 4cb0 8bbc c370 d0bc

action_model._continuous_distribution.mu.bias f4 [2]
0.0055548577 0.011733324
00000000: 8605 b63b 213d 403c
