Assets/Training/results/zombiekiller/AgentController/AgentController-999931.onnx (onnx, 670568 bytes, 11 tensors)

network_body._body_endoder.seq_layers.0.weight f4 [256, 128]
-0.047062997 -0.013620422 -0.12280191 -0.08022084 -0.13047801 -0.06976153 0.0021620595 0.10329847
-0.23719388 0.027239233 -0.037992213 0.017907271 0.11534734 0.04833648 -0.11113454 -0.18891087
-0.10352829 0.2031548 0.0006274874 -0.0547047 0.14487037 0.0087714195 -0.03153854 -0.017282154
0.031516865 -0.14582215 0.038494747 0.002681383 -0.13453373 0.047646504 0.17471024 -0.06936464
-0.07878121 -0.014840079 -0.12513162 0.046221852 -0.16802451 0.08048111 0.1505489 -0.15848677
-0.033135936 -0.050522458 0.12562211 0.0027406807 0.077416666 0.10113998 0.07355061 -0.2010723
-0.18148038 -0.017913358 -0.039717536 -0.27361733 -0.048676755 0.09309299 0.0673455 0.0044378736
-0.06034954 -0.121160574 -0.11650757 -0.041773427 0.073259465 0.01479367 -0.01696495 -0.0415226
0.011758529 -0.020565707 -0.07039002 0.09289123 -0.0025547885 0.016810192 0.06116322 -0.038604036
0.0014248923 0.06147875 0.052182514 0.11351732 0.117069066 0.13207425 0.0050068335 0.078437716
0.13760155 -0.121865705 -0.05986319 0.030283002 0.12601332 0.039955046 -0.013178329 0.014144306
0.024894664 -0.026808977 -0.16754816 0.07303521 -0.12967902 0.03001866 0.11246592 -0.21423507
-0.13955581 0.0008900665 0.12609567 -0.11856193 0.13775592 -0.021868542 0.067272276 -0.005375314
0.12135861 -0.0014419997 0.13527064 -0.03818396 0.062347196 0.06834242 0.0066507077 0.1417637
-0.014820539 0.039169785 -0.10992142 -0.054037876 -0.105297066 0.07250302 -0.022118632 0.036688183
0.0182921 0.004400978 0.020553377 0.002223805 -0.072970115 0.054535188 -0.017299373 -0.0038641086
0.19819078 -0.06983269 0.04238868 -0.03241313 0.17997232 -0.081073634 -0.03366161 0.09422822
0.04325208 -0.059644282 -0.13359715 -0.078261174 0.24760608 -0.04623616 -0.0709896 0.052691802
0.10142492 -0.07082477 0.0651698 0.10783504 -0.09220169 0.1801713 -0.06387203 -0.052571703
0.089302965 0.041410375 -0.026608698 -0.08739012 0.080066465 -0.03713583 0.022763163 0.080355294
0.088297814 0.0055724783 -0.094732136 -0.034526967 0.15248442 0.057233106 -0.08404744 -0.17784825
0.08106099 0.022527982 0.13012171 0.1494481 -0.10894463 -0.045909815 -0.09545963 0.054544996
-0.051129945 0.132804 -0.118998125 -0.1256071 0.09667469 -0.047444914 -0.06654529 0.023657853
-0.015421193 -0.17412464 -0.05400596 -0.13204509 0.13341908 0.04567713 0.09511574 -0.09487182
0.06531854 0.025205424 -0.024400182 -0.10758043 0.1311921 -0.0057411445 0.12386311 0.0070023094
0.026974851 -0.03463277 0.08782712 0.07911096 -0.024255887 -0.22509187 0.08323487 0.0004705596
0.051886775 -0.043055523 -0.059339926 0.045739606 -0.05143305 -0.006344471 0.07683281 -0.06236225
-0.14392404 -0.18872762 0.13792299 -0.039367896 0.06607391 0.11299382 -0.022017183 0.20590277
0.13569778 -0.15029609 0.1216124 0.14107797 -0.029934047 -0.010128831 -0.02952936 -0.12472552
0.013361307 0.015416771 0.1602201 -0.026464442 0.043185934 0.051350813 0.0024581547 0.029800689
0.010020996 -0.04943171 0.024849942 0.04469582 0.22361982 -0.17613319 0.068928555 0.06900952
-0.029059676 -0.15383685 0.02448231 0.13630186 0.07083054 0.14269246 0.03278583 -0.044470605
00000000: 21c5 40bd 3128 5fbc 917f fbbd d34a a4bd
00000010: 079c 05be 22df 8ebd 57b1 0d3b 268e d33d
00000020: f4e2 72be d024 df3c b99d 1bbd 45b2 923c
00000030: 3a3b ec3d 79fc 453d 819a e3bd da71 41be
00000040: a406 d4bd d007 503e f77d 243a 0912 60bd
00000050: e658 143e 00b6 0f3c 8e2e 01bd 4e93 8dbc
00000060: d417 013d 6752 15be abac 1d3d 24ba 2f3b
00000070: 36c3 09be fb28 433d 3ee7 323e 0c0f 8ebd
00000080: 0b58 a1bd cd23 73bc 8122 00be 2053 3d3d
00000090: 9e0e 2cbe 48d3 a43d 7e29 1a3e 5b4a 22be
000000a0: 8cb9 07bd a3f0 4ebd 15a3 003e fe9c 333b
000000b0: a18c 9e3d 7a22 cf3d b4a1 963d e6e5 4dbe
000000c0: fed5 39be 09bf 92bc dbae 22bd 9217 8cbe
000000d0: 4761 47bd 8aa7 be3d 70ec 893d 956b 913b
000000e0: 1431 77bd 0923 f8bd 859b eebd 9d1a 2bbd
000000f0: 0f09 963d 2661 723c 14fa 8abc 9a13 2abd
00000100: d8a6 403c 6a79 a8bc a528 90bd c23d be3d
00000110: 3d6e 27bb 87b5 893c 4986 7a3d 441f 1ebd
00000120: 74c3 ba3a 24d1 7b3d 55bd 553d c57b e83d
00000130: e8c1 ef3d 793e 073e 5d10 a43b f4a3 a03d
00000140: 6ce7 0c3e ba94 f9bd 1b33 75bd 0f14 f83c
00000150: a309 013e e7a7 233d ebe9 57bc 85bd 673c
00000160: e5ef cb3c 809e dbbc bf91 2bbe 7c93 953d
00000170: 94ca 04be b1e9 f53c 8854 e63d 7060 5bbe
00000180: b8e7 0ebe 5a53 693a 391f 013e 99d0 f2bd
00000190: e30f 0d3e a825 b3bc 0cc6 893d 6723 b0bb
000001a0: dd8a f83d 7b01 bdba 6384 0a3e c966 1cbd
000001b0: c65f 7f3d 1cf7 8b3d 2eee d93b 812a 113e
000001c0: d9d1 72bc 7f70 203d 7b1e e1bd d256 5dbd
000001d0: fda5 d7bd 777c 943d 2232 b5bc 5946 163d
000001e0: 50d9 953c 1436 903b 8e5f a83c 42bd 113b
000001f0: 5b71 95bd 4a60 5f3d 6ab7 8dbc fc3c 7dbb
00000200: 86f2 4a3e 7104 8fbd c19f 2d3d a1c3 04bd
00000210: aa4a 383e ef09 a6bd c2e0 09bd bafa c03d
00000220: 1829 313d 904d 74bd b1cd 08be 6547 a0bd
00000230: 738c 7d3e 2162 3dbd ff62 91bd 5cd3 573d
00000240: deb7 cf3d 940c 91bd be77 853d 9ed8 dc3d
00000250: 3dd4 bcbd d37e 383e 57cf 82bd 6d55 57bd
00000260: 79e4 b63d ed9d 293d 7cfa d9bc 97f9 b2bd
00000270: e3f9 a33d bd1b 18bd d079 ba3c 5191 a43d
00000280: 7cd5 b43d 5699 b63b ec02 c2bd 266c 0dbd
00000290: e024 1c3e 436d 6a3d 1021 acbd da1d 36be
000002a0: 4e03 a63d 9a8c b83c a03e 053e ec08 193e
000002b0: 5d1e dfbd ee0b 3cbd 5780 c3bd 936a 5f3d
000002c0: a26d 51bd c6fd 073e 4ab5 f3bd 269f 00be
000002d0: 61fd c53d 9955 42bd e648 88bd 1dce c13c
000002e0: 2ca9 7cbc bb4d 32be 5a35 5dbd d436 07be
000002f0: 039f 083e f117 3b3d 0bcc c23d 284c c2bd
00000300: bac5 853d 9b7b ce3c e4e2 c7bc 2153 dcbd
00000310: 3957 063e 3620 bcbb f1ab fd3d a173 e53b
00000320: 5dfa dc3c 17db 0dbd b5de b33d ed04 a23d
00000330: 48b4 c6bc 7c7e 66be 0b77 aa3d 71b5 f639
00000340: 3a87 543d fd5a 30bd 6c0e 73bd 7459 3b3d
00000350: 76ab 52bd 48e5 cfbb 855a 9d3d 8f6f 7fbd
00000360: d360 13be d041 41be af3b 0d3e 3b40 21bd
00000370: c251 873d 4e69 e73d 615d b4bc 2dd8 523e
00000380: 5cf4 0a3e 38e7 19be ec0f f93d be76 103e
00000390: 3f38 f5bc 65f3 25bc 8ee7 f1bc 1870 ffbd
000003a0: 62e9 5a3c a096 7c3c bd10 243e f5cb d8bc
000003b0: bce3 303d 3b55 523d fe18 213b 9320 f43c
000003c0: 1b2f 243c e878 4abd 1b92 cb3c f712 373d
000003d0: 98fc 643e 425c 34be 6a2a 8d3d dd54 8d3d
000003e0: 8f0e eebc 6887 1dbe 208f c83c b792 0b3e
000003f0: 9a0f 913d f91d 123e 6f4a 063d cf26 36bd

network_body._body_endoder.seq_layers.0.bias f4 [256]
0.013928305 0.0029360217 0.007123062 -0.0015989769 0.016267622 0.011042963 0.01258196 0.00049586577
0.013334499 0.0068292394 0.009226181 0.004931971 0.0069072708 0.021261323 0.0069377385 0.008732432
0.010052182 -0.0037057183 0.01572542 -0.0015587464 0.006748106 0.009795133 0.010284252 0.002802142
-0.0056253895 0.0026863427 0.00111755 0.0035445064 0.0017762263 0.0030771366 0.005538291 0.0043195277
0.0047082924 0.011000543 0.014792287 -0.0026082108 0.0052787364 0.006448759 0.014323129 0.0043485174
0.008085977 0.014588887 0.0050831386 0.0056104125 0.010607821 0.006758649 0.008044098 0.0061034732
0.011983864 0.011834692 0.009962914 -0.0003627123 -0.0005905747 0.013735752 0.0042012017 0.008911965
0.0073742266 0.0020247428 0.015483765 0.0044348217 0.0013052326 -0.008121999 0.008004656 0.0023027724
-0.008274862 0.008993485 0.013748258 7.4859345e-05 0.0039244 0.011546783 0.005434854 0.01729108
0.00960348 0.009450115 0.014445681 -0.0008499108 0.002248461 0.005186655 0.011832218 0.00020306619
0.013577745 0.0024798885 0.0107126795 0.0038143394 -0.0013182112 0.004545643 -0.003855122 0.004706335
-0.0036260842 0.00036836226 -0.009112123 -0.0024775404 0.015962018 0.002898231 -0.011096355 -0.0059791836
-0.010334282 0.010765492 0.010594833 0.01949274 0.0029294586 -0.0023765904 0.008008436 0.0013949197
0.013746116 0.009481479 0.014621391 0.0020962479 0.012475618 0.009921299 0.01689595 0.017999243
-0.0018892367 0.00155344 0.011182002 0.0013331157 -0.0060233013 0.0097147785 0.0025514113 0.013224372
-0.00405898 0.011880769 0.004561399 -0.01326598 0.0102626905 0.014818043 -0.0038709638 0.003403222
0.0032539933 -0.0004003448 -0.009257908 0.003175427 -0.002457924 0.00022176589 -0.001998095 0.005212109
0.0052333456 -0.0035348162 0.013970259 -0.0069563044 0.01853063 0.0171811 0.0137131745 -0.0025865342
0.01177865 0.027349621 0.01111025 0.0029678582 0.00709102 0.0057944926 0.0054944945 0.009450688
0.012963365 0.005205209 0.0141793275 0.010271652 0.017054621 0.0038953342 0.0008830852 0.011420521
0.01066871 0.008504477 -0.0043461407 0.0022918421 0.008956489 -0.0036908651 0.020136656 0.010041292
0.011733075 0.005984101 -0.008918583 0.0029590866 0.007556243 0.0086766565 0.005327972 0.0067086257
0.0065595475 0.018724328 0.007017522 0.005499112 0.002011211 0.013638992 -0.0013837843 0.015527993
-0.00065826334 -0.00022514824 0.007065845 0.011722297 -0.0040549124 -0.007740064 -0.008221469 0.0040131016
8.67321e-05 -0.00704978 0.0061274935 0.011132571 0.02390353 -0.00066720974 0.00882771 -0.0014306288
-0.0011615934 0.0031922883 0.019254431 -0.017723246 0.005947072 0.0020483946 0.004105798 -0.0030095223
0.024685834 -0.0033419083 -3.0927928e-05 0.006832604 -0.005647149 0.006855973 -0.004327414 0.0038666734
0.01608408 0.008547007 0.0024925782 -0.00079220295 0.01928309 0.0093062045 -0.0024122412 0.013802766
0.012529566 0.0041671507 -0.006894265 0.013605613 0.012578442 -0.0013032629 0.010259646 0.008417903
0.020520497 0.0059401453 0.0042793714 0.0035416952 0.026546229 -0.00888593 0.0111962 0.013180478
0.003786329 0.018098965 0.00812562 0.0053319843 -0.0032172163 -0.0061095273 0.0029569336 0.020288922
0.012163712 -0.00077747734 -0.001080969 0.0052029267 0.019894693 0.0013249619 -0.00087785587 -0.0019433401
00000000: 8c33 643c 456a 403b 9368 e93b c394 d1ba
00000010: ad43 853c 8bed 343c 9124 4e3c fdfc 013a
00000020: f178 5a3c d0c7 df3b 6829 173c 5f9c a13b
00000030: 6356 e23b 3a2c ae3c f855 e33b 7912 0f3c
00000040: e8b1 243c a3db 72bb 99d2 803c da4e ccba
00000050: 371f dd3b c47b 203c 487f 283c 24a4 373b
00000060: 3055 b8bb 5a0d 303b c17a 923a f34a 683b
00000070: 44d0 e83a c9a9 493b 8d7a b53b d38a 8d3b
00000080: 0548 9a3b 9f3b 343c 595b 723c 84ee 2abb
00000090: 40f9 ac3b 1d50 d33b 8fab 6a3c 027e 8e3b
000000a0: 0c7b 043c 3a06 6f3c 7590 a63b 8dd7 b73b
000000b0: 6dcc 2d3c a877 dd3b 64cb 033c a5ff c73b
000000c0: f857 443c 4ce6 413c 7d3b 233c 6c2a beb9
000000d0: ccd0 1aba eb0b 613c 3caa 893b 7e03 123c
000000e0: 7fa3 f13b 8cb1 043b 9eaf 7d3c fb51 913b
000000f0: 5714 ab3a 2212 05bc f625 033c 1cea 163b
00000100: 4993 07bc 6959 133c 6040 613c cefd 9c38
00000110: 4198 803b b82e 3d3c dc16 b23b 06a6 8d3c
00000120: ea57 1d3c a8d4 1a3c 94ad 6c3c 8ccc 5eba
00000130: ea5a 133b d1f4 a93b ebdb 413c 2aee 5439
00000140: 3175 5e3c a085 223b 3c84 2f3c fff9 793b
00000150: d4c7 acba 9ef3 943b 37a6 7cbb 9937 9a3b
00000160: 99a3 6dbb bf20 c139 044b 15bc 3b5e 22bb
00000170: c7c2 823c 3ff0 3d3b 7ccd 35bc 07ed c3bb
00000180: 1f51 29bc bf61 303c f395 2d3c 3daf 9f3c
00000190: 29fc 3f3b 92c0 1bbb d135 033c bdd5 b63a
000001a0: 6437 613c 3558 1b3c 8f8e 6f3c 3461 093b
000001b0: 8966 4c3c f28c 223c 6069 8a3c 2673 933c
000001c0: 44a0 f7ba cc9c cb3a b734 373c f1bb ae3a
000001d0: 1d5f c5bb bc2a 1f3c 9435 273b 09ab 583c
000001e0: 3101 85bb 8fa7 423c ca77 953b 8e59 59bc
000001f0: d824 283c 61c7 723c ffaf 7dbb 9708 5f3b
00000200: f340 553b 5fe5 d1b9 7bae 17bc d31a 503b
00000210: 1f15 21bb d489 6839 79f2 02bb 57ca aa3b
00000220: 7c7c ab3b 60a8 67bb 83e3 643c b6f1 e3bb
00000230: 8ccd 973c 61bf 8c3c 39ad 603c d882 29bb
00000240: 3dfb 403c 500c e03c c407 363c 6680 423b
00000250: c95b e83b badf bd3b 290b b43b 0fd7 1a3c
00000260: 4b64 543c 7590 aa3b 6950 683c 6e4a 283c
00000270: 22b6 8b3c dd48 7f3b d87e 673a 231d 3b3c
00000280: d0cb 2e3c 5d56 0b3c 126a 8ebb bb32 163b
00000290: 3dbe 123c 71e2 71bb a1f5 a43c 3b84 243c
000002a0: 153c 403c 4716 c43b 401f 12bc 3ced 413b
000002b0: 5c9a f73b 8928 0e3c 4596 ae3b 08d4 db3b
000002c0: 79f1 d63b c363 993c 3ef3 e53b e531 b43b
000002d0: 85ce 033b 1476 5f3c 1960 b5ba 2069 7e3c
000002e0: 4e8f 2cba c515 6cb9 9b88 e73b e10e 403c
000002f0: 12df 84bb 5da0 fdbb 57b3 06bc 5680 833b
00000300: f1e3 b538 d701 e7bb 24c9 c83b 6365 363c
00000310: 56d1 c33c b0e7 2eba 19a2 103c f083 bbba
00000320: 9b40 98ba b635 513b 78bb 9d3c 5730 91bc
00000330: a8df c23b 5c3e 063b ee89 863b 683b 45bb
00000340: f239 ca3c eb03 5bbb 9cb8 01b8 09e4 df3b
00000350: b80b b9bb 12a8 e03b fbcc 8dbb 0468 7d3b
00000360: c3c2 833c bf08 0c3c 865a 233b d7ab 4fba
00000370: 92f7 9d3c 0d79 183c b116 1ebb ff24 623c
00000380: cf48 4d3c 988c 883b 49e9 e1bb 14ea 5e3c
00000390: cf15 4e3c 3fd2 aaba 1318 283c 3feb 093c
000003a0: 9a1a a83c 8da5 c23b f839 8c3b c91b 683b
000003b0: 7a77 d93c 4b96 11bc 4470 373c eef2 573c
000003c0: 0f24 783b 4844 943c 5221 053c edb7 ae3b
000003d0: efd7 52bb 6e32 c8bb 1dc9 413b f434 a63c
000003e0: 4e4a 473c 9fcf 4bba 4daf 8dba 507d aa3b
000003f0: 32fa a23c 58aa ad3a e91f 66ba acb7 feba

network_body._body_endoder.seq_layers.2.weight f4 [256, 256]
0.00034036697 0.049180076 -0.0050351303 -0.0077400273 -0.11480444 0.02237146 -0.0681368 0.064072326
0.0043654395 -0.06088132 -0.037287887 -0.0075975643 0.00032407854 -0.07438944 0.035993543 0.047454875
0.094455644 0.098890625 0.076709874 0.0445067 0.06476086 -0.087515086 0.024354203 -0.024197293
0.05466754 -0.007838305 -0.03925009 0.08256613 -0.019662926 -0.01987651 0.040690113 -0.022028187
0.10931875 -0.040381648 0.009405477 0.12311451 0.120071135 0.08386391 -0.06072664 0.09978135
0.029043473 -0.051539898 -0.062903255 -0.052322224 -0.06225796 -0.10159234 -0.015194059 -0.026850263
0.07487285 0.17428628 -0.05582684 -0.05302333 -0.0146799795 0.12941024 -0.10211305 -0.06408975
-0.0056774784 -0.014093647 -0.0063768406 -0.004281418 -0.0056635696 0.012771682 0.044562135 0.07640453
0.04031291 -0.006493172 0.028481513 0.061388683 -0.04286685 0.004528798 -0.058419354 -0.019234978
0.03695896 0.11079955 0.044786826 0.11361742 0.0385208 0.0054146363 0.062473945 -0.05335834
0.124713376 0.018700154 0.08937502 -0.16285962 -0.11979512 -0.12458246 0.10524778 0.04979264
-0.051888052 0.001589355 -0.024245923 0.030798323 0.023120008 -0.029740345 0.08730467 0.092606634
-0.11702573 -0.068265446 -0.08553684 -0.027824543 0.19243212 -0.09362423 -0.09676491 -0.074491285
0.10165959 0.057786707 0.01166131 0.08404878 -0.067221664 -0.048351143 -0.06771091 -0.07690693
-0.008255677 0.032991603 0.0142659675 -0.0050599887 -0.090812504 0.011693703 -0.058915623 -0.09470602
-0.03964279 -0.04818751 0.060718045 0.04420147 -0.0077157603 -0.066625915 0.08025333 -0.035572324
0.08314386 0.06534061 0.036869574 -0.04822281 -0.028520903 0.026409736 0.048408575 0.037326295
-0.06371216 0.031006487 -0.05048979 0.031505603 -0.0441414 -0.0139547605 0.010663271 -0.03592681
-0.057093482 -0.014022958 -0.098468445 0.0042336667 -0.027183093 -0.09422526 -0.010651742 0.14050336
0.14966838 0.03394853 0.012668199 0.051579367 0.045534037 -0.023368856 -0.035858754 -0.093339644
0.009097655 0.11482381 -0.12340204 -0.06583614 0.07340343 0.07114999 -0.03389213 -0.020138953
0.006291651 0.08138203 0.055942923 -0.059958715 -0.037511826 0.09552509 -0.006662473 0.08989112
0.051287342 0.009566926 -0.065067805 0.03513956 -0.100806154 0.06588823 -0.025996886 -0.019436441
0.013136619 -0.029957628 0.11529539 6.9413436e-05 -0.004077492 0.014778437 0.08224156 -0.07885935
0.0044997185 0.032279443 0.0381874 -0.10593835 -0.07630649 0.15825444 0.053339884 -0.038035862
-0.016620915 0.023394624 0.019024776 -0.08838031 0.043731526 0.0694945 0.032966074 -0.02239689
-0.089686304 -0.025396131 0.026763368 -0.018835688 0.067758895 -0.020209923 -0.05161943 -0.0045850766
-0.039618697 0.036636885 0.011952167 -0.07954147 -0.113585174 -0.10816315 0.041065536 -0.06928205
0.0585772 0.030696863 -0.04027699 0.053822935 -0.047214642 -0.030899365 0.059297 -0.0039380207
-0.103300765 0.0311783 -0.07098469 0.055506587 -0.012465727 -0.09124784 -0.11614263 0.03523207
0.016955964 0.01329922 0.046357803 0.095048405 -0.021853952 -0.13480961 -0.08805882 -0.011015187
0.004625984 -0.11821501 -0.044193882 0.06569389 0.09391084 0.06436079 0.02898567 0.06965816
00000000: 4873 b239 0c71 493d bcfd a4bb 0ea0 fdbb
00000010: 971e ebbd 5a44 b73c 4e8b 8bbd 5a38 833d
00000020: f60b 8f3b b15e 79bd 2fbb 18bd fdf4 f8bb
00000030: 16e9 a939 7e59 98bd f76d 133d 0b60 423d
00000040: f671 c13d 2b87 ca3d 111a 9d3d a84c 363d
00000050: 57a1 843d 1c3b b3bd 7782 c73c 6739 c6bc
00000060: 12eb 5f3d 3c6c 00bc b4c4 20bd 6e18 a93d
00000070: 2514 a1bc 10d4 a2bc adaa 263d 7574 b4bc
00000080: 82e2 df3d 3a67 25bd 6e19 1a3c 7623 fc3d
00000090: dbe7 f53d d7c0 ab3d 7fbc 78bd 2a5a cc3d
000000a0: 94ec ed3c 801b 53bd 6cd3 80bd d44f 56bd
000000b0: 3402 7fbd a50f d0bd 81f0 78bc 15f5 dbbc
000000c0: f056 993d 1a78 323e afaa 64bd fe2e 59bd
000000d0: 4c84 70bc 1e84 043e a620 d1bd 7d41 83bd
000000e0: 240a babb 0ae9 66bc d1f4 d0bb 234b 8cbb
000000f0: 7795 b9bb 5140 513c c986 363d fa79 9c3d
00000100: 261f 253d adc4 d4bb 1052 e93c b372 7b3d
00000110: 2695 2fbd 5066 943b 2249 6fbd ac92 9dbc
00000120: 4762 173d e0ea e23d 6472 373d 40b0 e83d
00000130: fdc7 1d3d 436d b13b aee4 7f3d 468e 5abd
00000140: ba69 ff3d 1131 993c 400a b73d acc4 26be
00000150: 2557 f5bd 1725 ffbd 268c d73d 5ef3 4b3d
00000160: 9188 54bd e751 d03a 639f c6bc c44c fc3c
00000170: 2c66 bd3c 06a2 f3bc cacc b23d 8ca8 bd3d
00000180: 30ab efbd c1ce 8bbd f02d afbd 4cf0 e3bc
00000190: ed0c 453e 0fbe bfbd ae2c c6bd e38e 98bd
000001a0: e732 d03d c1b1 6c3d 140f 3f3c c421 ac3d
000001b0: 83ab 89bd d90b 46bd 05ac 8abd 6181 9dbd
000001c0: d242 07bc 3422 073d cebb 693c 43ce a5bb
000001d0: e8fb b9bd f296 3f3c 8251 71bd 3bf5 c1bd
000001e0: 7a60 22bd 4460 45bd 7cb3 783d 9a0c 353d
000001f0: 7dd4 fcbb 2b73 88bd dc5b a43d 49b4 11bd
00000200: 5447 aa3d 4cd1 853d 8d04 173d 4885 45bd
00000210: aba4 e9bc 3b59 d83c 1248 463d 75e3 183d
00000220: 857b 82bd 5101 fe3c 62ce 4ebd 050c 013d
00000230: 9dcd 34bd 82a2 64bc 00b5 2e3c fe27 13bd
00000240: dbda 69bd 8dc0 65bc d3a9 c9bd 92ba 8a3b
00000250: 14af debc 2cf9 c0bd a584 2ebc 1de0 0f3e
00000260: ab42 193e 9d0d 0b3d 478e 4f3c e344 533d
00000270: e681 3a3d 0b70 bfbc a1e0 12bd db28 bfbd
00000280: 550e 153c bf28 eb3d 35ba fcbd 19d5 86bd
00000290: 8a54 963d 16b7 913d 79d2 0abd 72fa a4bc
000002a0: 322a ce3b 9fab a63d 6824 653d 4597 75bd
000002b0: 00a6 19bd a9a2 c33d e050 dabb d618 b83d
000002c0: ad12 523d 99be 1c3c 4542 85bd 80ee 0f3d
000002d0: 7573 cebd 69f0 863d 6cf7 d4bc 2c39 9fbc
000002e0: f93a 573c b369 f5bc fd1f ec3d 0e92 9138
000002f0: 7b9c 85bb 4221 723c 436e a83d 0381 a1bd
00000300: 6072 933b 7337 043d 646a 1c3d 35f6 d8bd
00000310: 9446 9cbd 740d 223e ec7a 5a3d 7ecb 1bbd
00000320: 9628 88bc 15a6 bf3c d9d9 9b3c bc00 b5bd
00000330: d41f 333d 2253 8e3d 6f07 073d af79 b7bc
00000340: 74ad b7bd 8c0b d0bc da3e db3c 4d4d 9abc
00000350: 2dc5 8a3d 488f a5bc e56e 53bd 693e 96bb
00000360: 3747 22bd 8f10 163d 06d3 433c a3e6 a2bd
00000370: 589f e8bd a484 ddbd 5634 283d bfe3 8dbd
00000380: a5ee 6f3d fd77 fb3c 7cf9 24bd 7075 5c3d
00000390: 2464 41bd aa20 fdbc 69e1 723d 830a 81bb
000003a0: 5a8f d3bd a269 ff3c 6c60 91bd e05a 633d
000003b0: 0c3d 4cbc 26e0 babd 30dc edbd 814f 103d
000003c0: 3ce7 8a3c f9e4 593c aee1 3d3d bda8 c23d
000003d0: 0f07 b3bc 880b 0abe 2f58 b4bd 0b79 34bc
000003e0: 9195 973b b61a f2bd a504 35bd 858a 863d
000003f0: 5454 c03d 97cf 833d 5b73 ed3c f0a8 8e3d

network_body._body_endoder.seq_layers.2.bias f4 [256]
0.0035923654 -0.0027294469 0.00042684545 0.019531636 0.015120322 -0.00024124235 0.008633092 0.007987936
0.006686045 0.014123381 0.0012154664 -0.0020989324 -0.005920419 4.5869456e-05 0.00060884585 0.0094396
0.0033573648 0.007066441 -0.001215235 0.007361424 0.0074376795 0.002960228 0.013909674 0.006060591
-0.0011393167 0.009909068 0.0036169023 0.007399932 0.004783916 0.0038493194 0.008765043 0.008996533
-0.0010782809 0.0015294579 0.0121158175 0.006871672 -0.00989631 0.012597138 -0.0068484372 0.00023409598
0.0050391904 0.003722432 -0.0034239676 0.0014832638 0.003065433 0.005763033 0.008291144 0.011700281
0.0021719201 0.014287851 -0.0068416493 0.0025798485 0.010177587 0.00018250766 0.0012540305 0.0006375209
0.008762736 0.0026690084 0.0024728242 0.009624035 0.0090201525 -0.005558547 -0.0024764058 0.012904464
0.008603302 -0.0034502607 0.009011167 0.011617183 -0.0015751345 -0.0036002835 0.012558223 -0.0011585655
0.0031836508 0.0038722418 0.008244635 -0.0100571485 0.008167873 0.0001125379 0.00941115 0.0025950249
-0.0044266563 0.017801795 -0.006771796 0.0006372363 0.000947192 0.0019072697 -0.0075088097 -0.007207127
0.0046096137 0.017999427 0.007292362 -0.0016382759 -0.0056476532 0.005775664 0.02404027 0.011082138
0.008989327 0.009061532 0.0074146185 0.00089806435 -0.0047433367 -0.014116974 0.0003508909 0.0054248697
0.00860114 0.001874083 0.0053310385 -0.0029895555 0.004336329 0.007059663 0.0052171354 -0.0026034364
0.0044397856 0.014499918 0.0010371582 0.0057678646 -0.009998897 0.011978103 0.007937623 0.008855039
0.01517091 0.0071975053 0.005232487 0.0032730876 0.001983168 0.005454856 0.0040371506 0.0057036714
0.005736412 0.015445635 0.009860133 -0.0036492075 -0.00012656889 -0.0035901933 -0.0009346888 0.016586788
0.009177878 -0.0051867687 0.008911983 0.002695229 -0.003264948 -0.00031985666 0.006243363 0.0050526354
0.011594313 -0.0020402477 0.011523427 0.014860611 0.0077920775 0.011749581 -0.0037083386 0.00079554226
-0.0018755328 0.0024818948 0.004706245 0.017255075 0.007171613 0.0007238431 0.008645916 0.0007404682
0.001672656 0.0041691447 0.0013926887 0.005982139 0.0068335803 -0.004296508 0.000105786676 0.003136995
0.0028676991 0.0033738082 0.009745234 0.002405043 0.009338816 0.004097459 0.009556865 0.0065431395
0.008455188 0.008736495 0.011174428 0.007555829 -0.0033333823 0.0018588759 0.005024847 0.004620539
0.00029705098 0.003900065 0.009957878 -0.006954514 0.015281323 0.0036404028 0.009052659 0.0010985666
0.009095133 -0.0020570713 0.006028976 0.0056491666 0.010697239 -0.004900943 -0.007544054 0.0087490715
0.0019426557 0.014448335 0.007392944 0.007154078 0.0015204559 0.0032973425 0.015459349 0.005146927
0.007957907 0.0042180796 0.0057280255 0.0069192946 0.004685923 0.008803137 0.01412739 0.003130425
0.0047768513 0.003059529 0.01346096 0.0060960106 0.007778348 0.022116562 0.011204387 0.0068341014
0.009309457 -0.005393669 0.0013760681 0.0064670374 0.016182005 -0.0025022149 0.009886314 -0.0006819658
0.008990157 0.0136495 0.005604672 0.013336964 -0.005048671 -0.0070032445 0.0075312126 0.014742968
0.014102725 0.0047903764 0.004615453 0.006111721 0.016893702 0.009791189 0.0134612825 0.0022861324
0.0020610243 -0.0030592424 0.011967885 0.008166226 0.0044811917 -0.000648188 0.0076151183 0.005692104
00000000: e46d 6b3b 85e0 32bb 3aca df39 cf00 a03c
00000010: 3abb 773c 00f6 7cb9 d071 0d3c d5df 023c
00000020: 9c16 db3b c165 673c 4950 9f3a 3e8e 09bb
00000030: 1300 c2bb f463 4038 f49a 1f3a 8da8 1a3c
00000040: 3c07 5c3b 9a8d e73b 8548 9fba 1a38 f13b
00000050: c7b7 f33b 6200 423b 67e5 633c ec97 c63b
00000060: 2055 95ba a559 223c 8d09 6d3b 217b f23b
00000070: 65c2 9c3b dd44 7c3b 419b 0f3c 3266 133c
00000080: 1a55 8dba 1778 c83a 6c81 463c c32b e13b
00000090: 2224 22bc 3a64 4e3c db68 e0bb a977 7539
000000a0: cb1f a53b 0cf4 733b a564 60bb 136a c23a
000000b0: 6ee5 483b d3d7 bc3b 94d7 073c 89b2 3f3c
000000c0: c656 0e3b 9717 6a3c ea2f e0bb ad12 293b
000000d0: e5bf 263c 875f 3f39 485e a43a 4e1f 273a
000000e0: 9491 0f3c 88ea 2e3b 1b0f 223b 21ae 1d3c
000000f0: 43c9 133c 7924 b6bb 324b 22bb 3f6d 533c
00000100: ddf4 0c3c c51d 62bb 93a3 133c ff55 3e3c
00000110: be74 ceba bcf2 6bbb 01c1 4d3c 02db 97ba
00000120: cca4 503b 70c5 7d3b 8114 073c bdc6 24bc
00000130: 8bd2 053c 5302 ec38 3931 1a3c 4b11 2a3b
00000140: 7c0d 91bb 12d5 913c f1e5 ddbb 340c 273a
00000150: fb4c 783a 5afd f93a 760c f6bb c329 ecbb
00000160: 3e0c 973b 8973 933c c4f4 ee3b 6bbb d6ba
00000170: f30f b9bb c841 bd3b 1af0 c43c db91 353c
00000180: f847 133c d276 143c 54f6 f23b 146c 6b3a
00000190: fe6d 9bbb e14a 67bc c8f7 b739 1bc3 b13b
000001a0: cceb 0c3c caa3 f53a feaf ae3b 6bec 43bb
000001b0: c417 8e3b bf54 e73b 81f4 aa3b 6a9e 2abb
000001c0: 9f7b 913b 1091 6d3c 41f1 873a 5b00 bd3b
000001d0: 6ad2 23bc ce3f 443c ce0c 023c ba14 113c
000001e0: 698f 783c 0dd9 eb3b 4875 ab3b 4c81 563b
000001f0: 0af8 013b a6be b23b 134a 843b dde5 ba3b
00000200: 83f8 bb3b b00f 7d3c 658c 213c 8b27 6fbb
00000210: 94b7 04b9 7349 6bbb e705 75ba 04e1 873c
00000220: cf5e 163c c5f5 a9bb 9103 123c 70a2 303b
00000230: bdf8 55bb 6fb2 a7b9 2095 cc3b 9490 a53b
00000240: 13f6 3d3c adb5 05bb c2cc 3c3c ec79 733c
00000250: af54 ff3b 5181 403c 9907 73bb f08b 503a
00000260: 70d4 f5ba 49a7 223b d836 9a3b 845a 8d3c
00000270: daff ea3b 4ac0 3d3a 9aa7 0d3c fb1b 423a
00000280: 063d db3a 529d 883b e18a b63a d205 c43b
00000290: 3aec df3b b9c9 8cbb cad9 dd38 0b96 4d3b
000002a0: 02f0 3b3b 1c1b 5d3b 79aa 1f3c ed9d 1d3b
000002b0: d501 193c fa43 863b 6694 1c3c d567 d63b
000002c0: a187 0a3c 8423 0f3c f314 373c e396 f73b
000002d0: e074 5abb 86a5 f33a 79a7 a43b e467 973b
000002e0: 82bd 9b39 3c98 7f3b 5e26 233c b1e2 e3bb
000002f0: 845e 7a3c d393 6e3b 9b51 143c c7fd 8f3a
00000300: c103 153c eecf 06bb b78e c53b a51c b93b
00000310: 7943 2f3c 1798 a0bb 1d34 f7bb 4458 0f3c
00000320: b5a0 fe3a b6b8 6c3c 8240 f23b c26c ea3b
00000330: 094a c73a 3a18 583b 3649 7d3c 8ea7 a83b
00000340: e261 023c d137 8a3b 29b2 bb3b 40bb e23b
00000350: 5f8c 993b 083b 103c 9276 673c d127 4d3b
00000360: 2287 9c3b 6182 483b 5c8b 5c3c 0bc1 c73b
00000370: 83e1 fe3b cb2d b53c 9b92 373c 99f0 df3b
00000380: b186 183c 60bd b0bb 2f5d b43a 71e9 d33b
00000390: 2090 843c 33fc 23bb 35fa 213c f3c5 32ba
000003a0: 744b 133c 27a2 5f3c 65a7 b73b 4883 5a3c
000003b0: 526f a5bb 797b e5bb 64c8 f63b 7d8c 713c
000003c0: 1e0f 673c 97f8 9c3b 3a3d 973b d544 c83b
000003d0: a964 8a3c 396b 203c b68c 5c3c f0d2 153b
000003e0: 4012 073b 927d 48bb f314 443c a2cb 053c
000003f0: f6d6 923b 29eb 29ba 3e88 f93b d484 ba3b

network_body._body_endoder.seq_layers.4.weight f4 [256, 256]
-0.0066262693 0.024463592 0.018321414 0.047174115 -0.09032356 0.039547246 0.027010782 -0.11700841
0.010239037 -0.074720174 0.08087365 -0.06889077 -0.05200023 -0.020438658 0.045107555 0.13952203
-0.06809651 0.061000817 -0.05164486 -0.07096035 0.049489386 -0.04674223 0.025278695 -0.1712284
-0.049224056 -0.029785873 -0.0016258189 -0.022493387 -0.039362412 0.024298644 -0.013852611 0.015112609
0.077756904 0.04001322 0.029785233 -0.003971689 -0.025543628 -0.08149253 0.010937347 0.12549976
0.15094505 -0.12810153 -0.09631278 -0.1482905 -0.0025743737 -0.014510625 0.010703563 0.15393375
-0.068108946 0.053822428 0.031912196 -0.053761378 -0.035794366 0.15991196 0.023301477 0.015923578
-0.084365204 -0.052082215 -0.09990167 0.021926124 0.023927985 -0.013994198 0.06893715 0.12242802
-0.012234151 0.0056102527 0.027227882 -0.013079185 0.077565 -0.10235883 0.046320282 0.020128109
-0.078538835 0.094195746 -0.115882844 0.056649867 0.020849805 -0.08036823 0.110206984 -0.022471549
0.06585827 0.069384426 0.07738809 0.018301923 0.025494887 0.053309597 0.005845018 0.07073296
0.14935373 0.034880705 -0.050004065 -0.12415589 0.0038960592 0.041398067 -0.026138451 -0.037062947
0.0061377534 0.047830746 0.021088306 -0.0067405463 0.10574498 0.022306206 0.01782799 0.031792033
0.015262939 -0.02482363 0.07775609 0.059937805 0.0010612598 -0.098889545 -0.033733804 0.042427965
0.041861124 -0.07699385 0.017792178 -0.0049435827 0.0712126 -0.026647834 0.025807856 -0.03850231
0.07397867 -0.041006435 -0.029390335 0.04074058 0.06464212 0.07787095 0.017430227 -0.094313554
0.0863561 0.04714762 -0.0051289946 -0.011586917 -0.124049746 -0.10663964 -0.05516451 0.048567403
-0.048304934 -0.054258887 -0.12481799 -0.006051366 -0.008454641 -0.032863457 -0.011035493 -0.0866326
0.10025423 0.0519788 -0.009961447 0.1454824 -0.09735401 0.044045374 -0.106659815 -0.082436904
0.015899291 0.045830697 -0.02144983 0.014128159 0.0076837535 0.0037674229 0.003882216 0.10284019
0.05334019 -0.08485992 -0.05001768 -0.080168925 -0.072769836 0.05658873 0.0008824127 0.0025758543
-0.027495878 -0.044658195 -0.13973603 0.035060648 0.04479238 0.19373308 0.06561324 -0.044167656
-0.055733893 -0.047358986 -0.029628439 -0.031108672 0.01833623 -0.076834306 0.01736756 -0.016621506
0.01188947 0.03262615 -0.080576144 -0.011290471 0.09577166 0.019900616 -0.012037175 0.025334544
0.093979985 0.021114515 0.14198272 -0.03247065 -0.003680308 -0.030515289 0.053285707 -0.0669042
-0.12372283 0.083110966 0.07603264 -0.007127389 0.1116114 0.017847523 -0.10068615 -0.026392553
0.0058115404 0.0014372048 -0.057192884 -0.14877698 -0.081377245 0.06328965 -0.019043468 0.014281454
0.0010359645 -0.033565145 0.060872536 -0.028053796 -0.03417489 -0.08720731 0.016035309 0.062393088
-0.012655184 0.02075867 0.08530813 0.12699036 -0.0026363034 -0.08088766 -0.080639884 0.069906585
-0.09711173 -0.12370949 -0.014468281 -0.041524615 -0.03155244 -0.014528899 0.08290765 -0.07651082
-0.009094684 0.05012145 0.072896495 0.014496049 -0.011229391 -0.025100075 -0.008223263 -0.032334883
0.07116631 0.11397163 -0.05518332 -0.17485502 -0.003767005 -0.031481046 0.07023193 -0.16101205
00000000: 2d21 d9bb df67 c83c ca16 963c a539 413d
00000010: 8ffb b8bd 4bfc 213d b745 dd3c 1ba2 efbd
00000020: a2c1 273c e406 99bd 16a1 a53d 9b16 8dbd
00000030: 31fe 54bd f96e a7bc b3c2 383d ddde 0e3e
00000040: 2f76 8bbd fedb 793d 9089 53bd a953 91bd
00000050: 62b5 4a3d c874 3fbd 4415 cf3c 7f56 2fbe
00000060: 2a9f 49bd 8101 f4bc 6e19 d5ba 0d44 b8bc
00000070: 7b3a 21bd f30d c73c 10f6 62bc e09a 773c
00000080: 033f 9f3d e7e4 233d 2900 f43c f124 82bb
00000090: df40 d1bc 8ee5 a6bd 8f32 333c 0283 003e
000000a0: 5791 1a3e 0c2d 03be a33f c5bd 77d9 17be
000000b0: d3b6 28bb f9bd 6dbc ff5d 2f3c cfa0 1d3e
000000c0: b47c 8bbd e874 5c3d 5db6 023d e434 5cbd
000000d0: 1d9d 12bd f6bf 233e bde2 be3c 2a72 823c
000000e0: aac7 acbd 2954 55bd 3f99 ccbd 6a9e b33c
000000f0: 9f04 c43c ec47 65bc ec2e 8d3d 8bbb fa3d
00000100: c071 48bc 36d6 b73b 020d df3c 144a 56bc
00000110: 66da 9e3d 82a1 d1bd 56ba 3d3d b4e3 a43c
00000120: f8d8 a0bd b3e9 c03d fc53 edbd b109 683d
00000130: 36cd aa3c 1998 a4bd 33b4 e13d 4116 b8bc
00000140: b3e0 863d 6c19 8e3d a67d 9e3d eaed 953c
00000150: a7da d03c 2a5b 5a3d 9187 bf3b 71dc 903d
00000160: 2ff0 183e 12df 0e3d 10d1 4cbd 7145 febd
00000170: 0755 7f3b 0591 293d 4e20 d6bc 51cf 17bd
00000180: 351f c93b 2cea 433d 62c1 ac3c cddf dcbb
00000190: d390 d83d 81bb b63c 010c 923c 5d38 023d
000001a0: 6811 7a3c ed5a cbbc 963e 9f3d 5881 753d
000001b0: f819 8b3a 9a86 cabd 752c 0abd f2c8 2d3d
000001c0: 9276 2b3d f4ae 9dbd e7c0 913c c7fd a1bb
000001d0: e9d7 913d 8f4c dabc ff6a d33c 99b4 1dbd
000001e0: 2182 973d 5df6 27bd 00c4 f0bc 98df 263d
000001f0: 1663 843d ce7a 9f3d d6c9 8e3c 7727 c1bd
00000200: 78db b03d dd1d 413d 2011 a8bb 0dd7 3dbc
00000210: cb0d febd e265 dabd 2ef4 61bd 9dee 463d
00000220: 65db 45bd 913e 5ebd 93a0 ffbd 8a4a c6bb
00000230: 5685 0abc d59b 06bd 36ce 34bc 6f6c b1bd
00000240: 1752 cd3d b9e7 543d 5635 23bc 57f9 143e
00000250: 8a61 c7bd ec68 343d 7670 dabd aed4 a8bd
00000260: 3b3f 823c f8b8 3b3d 8eb7 afbc cb79 673c
00000270: ffc7 fb3b dee6 763b c76c 7e3b e19d d23d
00000280: 3e7b 5a3d 0acb adbd 57df 4cbd 9b2f a4bd
00000290: 5a08 95bd 96c9 673d b751 673a aacf 283b
000002a0: 093f e1bc 83eb 36bd f616 0fbe c19b 0f3d
000002b0: 3778 373d f761 463e 3c60 863d 25e9 34bd
000002c0: 3949 64bd 7ffb 41bd 57b7 f2bc 9dd7 febc
000002d0: dd35 963c 4e5b 9dbd 6a46 8e3c d329 88bc
000002e0: 0dcc 423c ffa2 053d 1b05 a5bd abfb 38bc
000002f0: ef23 c43d 9e06 a33c 9237 45bc 648a cf3c
00000300: 9478 c03d 59f8 ac3c eb63 113e f2ff 04bd
00000310: 5231 71bb 33fb f9bc 1d42 5a3d 1205 89bd
00000320: 6562 fdbd 1536 aa3d 00b7 9b3d df8c e9bb
00000330: 8594 e43d f834 923c 8a34 cebd 3235 d8bc
00000340: bc6e be3b 9760 bc3a 1643 6abd fe58 18be
00000350: 1da9 a6bd 019e 813d 0c01 9cbc c2fc 693c
00000360: 33c9 873a 9b7b 09bd 7b55 793d 13d1 e5bc
00000370: f8fa 0bbd bf99 b2bd 7b5c 833c e58f 7f3d
00000380: b057 4fbc 160e aa3c 07b6 ae3d c309 023e
00000390: d5c5 2cbb 6ea8 a5bd 8626 a5bd 2f2b 8f3d
000003a0: 84e2 c6bd 675b fdbd 5e0c 6dbc b715 2abd
000003b0: 223d 01bd 9f0a 6ebc 7ccb a93d b4b1 9cbd
000003c0: df01 15bc 264c 4d3d c24a 953d d680 6d3c
000003d0: 7bfb 37bc ac9e cdbc ddba 06bc 9571 04bd
000003e0: a4bf 913d f569 e93d e807 62bd 320d 33be
000003f0: dbdf 76bb 45f2 00bd c2d5 8f3d 58e0 24be

network_body._body_endoder.seq_layers.4.bias f4 [256]
0.0038129468 0.013039663 -0.0058074165 0.010592591 -0.0010917742 0.003489167 0.0006723037 0.007285483
0.0076717837 0.0039989613 0.0070124087 0.008936237 -0.0010654627 0.007433651 0.010284231 0.009529037
0.0010399205 0.008641941 0.010937716 0.008296844 -0.00039767715 0.0044225357 -0.002108083 0.01285285
0.002903186 0.005842323 0.0100681875 -0.007852119 0.008391556 0.0035264478 0.0054297643 0.015423579
0.012534213 0.010610048 0.003932267 0.004731434 -0.0019804633 0.000772553 0.006076993 -0.0040268404
0.004038562 0.0052345954 0.0075278846 -0.0046354337 0.006250225 0.009826646 0.005845243 -0.0017570498
0.004644849 -0.0046074456 -0.0056302818 0.0030895846 -0.0063530644 -0.0046932655 0.010385187 -0.0069369837
0.0038389852 0.013470697 0.008420592 0.003629278 0.012395176 0.009004686 0.0020451692 0.004704853
0.0053545344 0.0071933186 0.008129296 0.012838744 -0.0010806349 0.0030262996 0.007621261 0.0011965418
0.015919218 -0.0020996868 0.0066085877 0.00025646016 0.0064832103 0.0021104093 0.00069757656 0.0066172634
0.0066922107 0.008992574 0.008876554 0.014117391 0.00095329504 0.006564729 -0.00020137728 0.00430327
0.0046596904 0.009807506 0.0049156547 0.002512238 0.0028157216 0.0081118895 0.01345818 -0.0045361505
0.009105941 0.0029097653 0.010022216 0.0010159692 0.008273228 0.007865971 0.0009261005 0.0022250055
0.0031970777 -0.0007484549 0.009365646 0.015462332 0.0061076577 0.0032097388 0.008555933 0.005848381
-0.00355601 0.0012893556 0.00048023256 0.0075946474 0.009454843 -0.0032137537 0.008409248 0.0022119787
0.0090972185 -0.00090872945 0.011946629 0.0022993353 -0.010824521 0.011944769 -0.0013185695 0.018728416
-0.0047665797 -0.007864144 0.012688763 0.0008425917 -0.0019226352 0.0021055355 0.004707896 -0.003852525
-0.001383045 0.004810017 0.0104752695 0.00023942131 0.00480111 0.006281244 0.0055440944 0.006242718
0.0052347714 0.007961094 0.005570566 0.0033168993 0.012147391 0.01035148 0.007401469 0.006673934
-0.002504278 0.0051321336 0.0006560554 0.010512944 0.0056433124 -0.004166995 -0.004842604 0.013548341
0.009640335 -0.0005509579 0.011048062 0.0058928253 0.0040702196 0.006212419 0.0028562585 0.008987862
0.011933904 -0.0024314644 0.0059844707 0.011013576 0.008978648 0.009557677 0.0056986865 -0.0059493193
0.001978828 0.008740896 0.008603464 0.00849817 0.004572043 -4.4938956e-06 -0.001191472 0.011958441
0.00053482386 0.008786394 0.0010732709 0.0057220487 0.0072741797 0.011995634 0.011008864 0.008237184
0.00058329327 0.003022811 0.0059957015 0.0056672497 0.011908632 0.01720017 0.006822428 -0.0008295842
0.0017244058 0.01025709 0.008455911 0.0037782276 0.012600713 0.0033798097 0.007919216 0.0052325884
-0.003756934 0.0035609608 0.002664685 0.0012561294 0.0034118746 0.0077839554 0.0041094795 0.0070331767
0.0022642813 0.0049219467 -0.0039748745 -0.008371069 0.0015720918 0.012539888 -0.005817514 0.005751174
0.00095925137 -0.011464033 0.0037255825 -0.0067711477 0.009871537 0.0039316737 0.0016218706 0.0066530355
0.007640134 -0.00051426206 0.0035592967 -0.0077156397 0.008178486 0.011639628 -0.0008605701 -0.007727728
0.005609242 -0.0010331816 -1.02859e-05 0.002792456 0.0038815406 0.009760121 0.0054974845 0.0023793327
0.011649921 -0.0022309993 0.0012670235 0.0046956055 0.00392945 0.005644303 -0.00080682116 0.006257478
00000000: a2e2 793b 50a4 553c 244c bebb 8c8c 2d3c
00000010: dd19 8fba 82aa 643b 8a3d 303a 10bb ee3b
00000020: 9663 fb3b b809 833b 59c8 e53b 4b69 123c
00000030: ffa6 8bba fc95 f33b 317f 283c ae1f 1c3c
00000040: f14d 883a ed96 0d3c 1b34 333c 7cef 073c
00000050: 537f d0b9 ebea 903b c427 0abb c394 523c
00000060: 6143 3e3b f570 bf3b 0af5 243c 2da6 00bc
00000070: bd7c 093c fa1b 673b 2aec b13b 2eb3 7c3c
00000080: 4d5c 4d3c c4d5 2d3c 3fda 803b 250a 9b3b
00000090: a9ca 01bb 2785 4a3a 8321 c73b 96f3 83bb
000000a0: ea55 843b f886 ab3b 79ac f63b d6e4 97bb
000000b0: b0ce cc3b f1ff 203c 7489 bf3b cf4c e6ba
000000c0: d133 983b 0efa 96bb 3a7e b8bb a17a 4a3b
000000d0: 5e2d d0bb f7c9 99bb a226 2a3c a34f e3bb
000000e0: 7c97 7b3b 33b4 5c3c 86f6 093c 2ed9 6d3b
000000f0: 2315 4b3c 6488 133c 3f08 063b 2b2b 9a3b
00000100: 1775 af3b eeb5 eb3b bd30 053c 9859 523c
00000110: 17a4 8dba e254 463b c5bb f93b 48d5 9c3a
00000120: 0569 823c e69a 09bb da8c d83b 8075 8639
00000130: 1c71 d43b cb4e 0a3b 92dd 363a a1d5 d83b
00000140: 554a db3b 9755 133c f76e 113c a14c 673c
00000150: 8ce6 793a f01c d73b cd28 53b9 7202 8d3b
00000160: 51b0 983b a9af 203c 8013 a13b 5ca4 243b
00000170: f887 383b bbe7 043c b37f 5c3c fda3 94bb
00000180: 1631 153c c3b1 3e3b 3834 243c 452a 853a
00000190: 6f8c 073c 46e0 003c 8dc5 723a 66d1 113b
000001a0: 1086 513b f533 44ba 5e72 193c b955 7d3c
000001b0: bf22 c83b 7b5a 523b 2f2e 0c3c c7a3 bf3b
000001c0: f30b 69bb 98ff a83a b9c7 fb39 85dc f83b
000001d0: 7ce8 1a3c d79d 52bb f1c6 093c d8f6 103b
000001e0: 800c 153c cd37 6eba cbbb 433c 72b0 163b
000001f0: 5559 31bc feb3 433c dad3 acba 566c 993c
00000200: f830 9cbb 9cd8 00bc 88e4 4f3c 5fe1 5c3a
00000210: ef00 fcba 06fd 093b b244 9a3b a57a 7cbb
00000220: 4a47 b5ba 599d 9d3b 77a0 2b3c 2b0d 7b39
00000230: a152 9d3b e5d2 cd3b 3cab b53b b78f cc3b
00000240: 7288 ab3b 406f 023c 4b89 b63b 5660 593b
00000250: da05 473c 4199 293c 0688 f23b 04b1 da3b
00000260: d01e 24bb 752b a83b 22fb 2b3a 7c3e 2c3c
00000270: 89eb b83b 4a8b 88bb b5ae 9ebb dcf9 5d3c
00000280: 7ff2 1d3c 296e 10ba ee02 353c 9a18 c13b
00000290: 7a5f 853b 8c91 cb3b 1130 3b3b d341 133c
000002a0: 6c86 433c 3459 1fbb 6119 c43b 4972 343c
000002b0: 2e1b 133c ce97 1c3c 0cbc ba3b 82f2 c2bb
000002c0: 3aaf 013b fa35 0f3c 8bf5 0c3c e93b 0b3c
000002d0: 14d1 953b 45ca 96b6 2b2b 9cba 56ed 433c
000002e0: 6c33 0c3a cff4 0f3c ffac 8c3a 0680 bb3b
000002f0: 3e5c ee3b 5689 443c 865e 343c 41f5 063c
00000300: 26e8 183a 5a1a 463b 9777 c43b 56b4 b93b
00000310: 6c1c 433c 5fe7 8c3c ad8e df3b 7478 59ba
00000320: 7505 e23a 5b0d 283c a98a 0a3c 249c 773b
00000330: 3973 4e3c cc7f 5d3b 99bf 013c 2276 ab3b
00000340: e536 76bb 025f 693b ffa1 2e3b b5a4 a43a
00000350: c299 5f3b 8d10 ff3b d0a8 863b 9076 e63b
00000360: 5664 143b 4848 a13b aa3f 82bb cf26 09bc
00000370: a60e ce3a 1a74 4d3c d8a0 bebb 5874 bc3b
00000380: 4576 7b3a a4d3 3bbc e728 743b 81e0 ddbb
00000390: 3abc 213c 45d5 803b f294 d43a b501 da3b
000003a0: 175a fa3b 8bcf 06ba 1743 693b 7ad3 fcbb
000003b0: 0eff 053c 23b4 3e3c e297 61ba e238 fdbb
000003c0: bbcd b73b d26b 87ba 9b91 2cb7 a301 373b
000003d0: 7261 7e3b eae8 1f3c 3e24 b43b 94ee 1b3b
000003e0: 4fdf 3e3c f535 12bb 4112 a63a 98dd 993b
000003f0: 9ec2 803b d8f3 b83b da80 53ba 880b cd3b

action_model._continuous_distribution.log_sigma f4 [1, 2]
-0.11100628 0.024049148
00000000: 4357 e3bd b802 c53c

action_model._continuous_distribution.mu.weight f4 [2, 256]
0.03536258 0.030144818 -0.011846602 0.030137168 -0.036104534 0.015001406 -0.018200569 -0.06239098
0.014127673 0.01020971 0.01989385 -0.0020342835 -0.033572033 -0.0028039417 0.053432688 0.015834074
0.0143693825 0.05381877 0.033626374 0.028466608 -0.032685157 0.016677262 -0.01336779 -0.037078705
-0.013645788 -0.0007683176 0.0012148112 0.008033693 0.028063195 0.01625102 0.025468938 0.027591731
0.003268197 0.00026372285 0.011873617 -0.009368494 -0.04055664 0.0032748063 0.0035585563 -0.020723525
0.0060265437 0.028059244 0.036203336 -0.019460963 0.023468161 0.0071153743 0.036579475 -0.054709435
-9.9125115e-05 -0.01880843 -0.028674247 0.0067018145 -0.03993358 -0.03657905 0.044420756 -0.0028162298
-0.00080894004 0.045727637 -0.0001462258 -0.024107387 0.020139197 0.011572406 -0.028649826 -0.0030532747
0.027243525 0.01661144 0.034081884 -0.0041640713 -0.04018669 0.009116644 0.029920723 -0.020956945
-0.0064337016 -0.02072498 0.02273232 -0.038606916 0.023144213 0.0010736241 0.016707977 0.026741616
0.005800816 0.010521573 0.009489387 0.01500267 -0.016806073 -0.014766771 0.010714762 -0.030211346
0.007276903 0.00012197197 -0.037500907 -0.025510693 -0.038029917 -0.015035635 0.041686077 -0.036587056
0.013274203 0.004325772 0.0076710745 0.026490487 -0.014276736 -0.00013209313 -0.035854824 -0.0076102866
0.012170763 -0.0029727146 -0.029302336 0.00434606 0.011604838 -0.048695438 0.018182548 -0.06349975
-0.045413643 -0.0109417075 -0.024822498 0.015462841 0.0131519325 -0.00872156 0.01983286 -0.029080069
-0.06680498 0.0048630326 -0.020421274 -0.03817276 -0.014489424 0.051938802 -0.04810115 0.027051143
-0.008258496 -0.015366799 0.021691646 -0.046225477 -0.0236238 -0.060793918 0.031762406 -0.021818815
-0.04469694 0.020183824 0.017932404 -0.006838713 -0.0195686 -0.012584932 -0.052284986 0.030929625
-0.035361942 0.0012919956 -0.0022115945 -0.0020931496 0.036402296 -0.008763641 0.012868246 0.03431165
-0.03598076 0.036883797 -0.010115136 -0.0036952915 0.02244931 -0.026852721 -0.00059536716 0.034780394
0.025538515 -0.028136585 0.0032939706 -0.0020248597 0.03687554 0.023969786 -0.0062071164 -0.01316666
0.040764406 -0.030501535 -0.00039704764 0.015160611 0.028961113 0.0063708527 -0.013488414 0.0077358056
-0.042187773 0.0051434813 0.016581733 0.03455889 -0.022691403 -0.0048499675 -0.04638192 -0.026069848
-0.0020156342 0.029517846 -0.028313272 0.0039725075 0.027149102 0.025623651 -0.04203247 0.007247323
-0.025540795 0.011257652 0.010828476 -0.05018112 0.05146481 0.025727915 -0.017325744 -0.0016898325
-0.01341592 0.0037061195 0.019165874 -0.033701457 -0.0062171137 -0.007454119 0.0018471442 0.0011959772
-0.018172221 0.0034272429 0.0045157815 -0.019504616 0.027750196 0.036621787 -0.009278886 0.036719926
0.008611593 0.019648032 -0.011077149 0.011892009 -0.016671613 0.009464486 0.0019365818 0.017255256
0.011029888 -0.006672226 0.02242265 -0.028730499 -0.0293189 0.018531902 -0.03616482 0.0025190033
-0.023167858 0.019627593 -0.022977417 -0.018338194 0.019894587 0.046182726 0.0037418827 -0.015638663
0.0068455003 -0.027676228 -0.018057719 -0.025804553 -0.044559255 0.034729682 0.007670351 -0.011901145
0.012819743 -0.0070247757 -0.010312655 0.017301122 0.013495593 -0.015931813 -0.017326744 -0.02257649
00000000: 5ad8 103d 44f2 f63c 4018 42bc 39e2 f63c
00000010: 59e2 13bd 75c8 753c 5c19 95bc af8d 7fbd
00000020: c177 673c a146 273c 6df8 a23c 9d51 05bb
00000030: d482 09bd 56c2 37bb 3cdc 5a3d 76b6 813c
00000040: 8f6d 6b3c 1271 5c3d cfbb 093d ce32 e93c
00000050: dfe0 05bd c19e 883c 9304 5bbc d7df 17bd
00000060: 9592 5fbc ec68 49ba 4d3a 9f3a c09f 033c
00000070: c9e4 e53c dc20 853c 3ca4 d03c 0e08 e23c
00000080: 3f2f 563b 4844 8a39 8f89 423c 507e 19bc
00000090: b81e 26bd 229e 563b ab36 693b 62c4 a9bc
000000a0: 507a c53b 80dc e53c f349 143d 996c 9fbc
000000b0: 4d40 c03c 1628 e93b 5cd4 153d 0017 60bd
000000c0: 64e1 cfb8 2314 9abc 41e6 eabc e59a db3b
000000d0: 6591 23bd ead3 15bd 8af2 353d 7f90 38bb
000000e0: 0c0f 54ba e74c 3b3d 3054 19b9 db7c c5bc
000000f0: f5fa a43c 309a 3d3c 0ab3 eabc 7319 48bb
00000100: d02d df3c b714 883c 7299 0b3d c372 88bb
00000110: cc9a 24bd fa5d 153c 4e1c f53c e6ad abbc
00000120: cdd1 d2bb 6fc7 a9bc 2139 ba3c 4922 1ebd
00000130: ef98 bd3c d9b8 8c3a 2bdf 883c 3c11 db3c
00000140: c614 be3b ad62 2c3c 6079 1b3c c2cd 753c
00000150: e4ac 89bc 54f0 71bc f88c 2f3c c97d f7bc
00000160: 1673 ee3b 34cb ff38 8d9a 19bd cdfb d0bc
00000170: 42c5 1bbd 0658 76bc 05bf 2a3d 4fdc 15bd
00000180: 0b7c 593c 35bf 8d3b a35d fb3b 9402 d93c
00000190: f9e8 69bc 7b82 0ab9 82dc 12bd b65f f9bb
000001a0: e167 473c e0d1 42bb 740b f0bc 6569 8e3b
000001b0: 3822 3e3c de74 47bd 91f3 943c 280c 82bd
000001c0: a803 3abd d944 33bc 8d58 cbbc db57 7d3c
000001d0: 347b 573c e0e4 0ebc 8678 a23c 5339 eebc
000001e0: 0dd1 88bd 135a 9f3b 844a a7bc 0a5b 1cbd
000001f0: 0d65 6dbc c8bd 543d b605 45bd 5c9a dd3c
00000200: a54e 07bc 07c5 7bbc aeb2 b13c ed56 3dbd
00000210: b386 c1bc 0b03 79bd 4c19 023d 5fbd b2bc
00000220: 2314 37bd 8c58 a53c fae6 923c 4817 e0bb
00000230: 544e a0bc 0831 4ebc c828 56bd 2060 fd3c
00000240: afd7 10bd 2e58 a93a 66f0 10bb 392d 09bb
00000250: 931a 153d 6095 0fbc 56d5 523c 5f8a 0c3d
00000260: 9060 13bd 7713 173d f5b9 25bc b42c 72bb
00000270: 9ee7 b73c 3dfa dbbc 6a12 1cba e375 0e3d
00000280: 2636 d13c b27e e6bc a8df 573b 82b3 04bb
00000290: ce0a 173d 495c c43c 1165 cbbb fab8 57bc
000002a0: 94f8 263d 5bde f9bc d52a d0b9 3664 783c
000002b0: db3f ed3c 96c2 d03b 82fe 5cbc a47c fd3b
000002c0: 16cd 2cbd a68a a83b 6ad6 873c 9f8d 0d3d
000002d0: 52e3 b9bc 7aec 9ebb f8fa 3dbd 6f90 d5bc
000002e0: bb18 04bb 69cf f13c 3cf1 e7bc cf2b 823b
000002f0: cb67 de3c b1e8 d13c 3d2a 2cbd f47a ed3b
00000300: ee3a d1bc 0472 383c ec69 313c b88a 4dbd
00000310: c4cc 523d 59c3 d23c b8ee 8dbc 5f7d ddba
00000320: 72ce 5bbc 5ee2 723b c001 9d3c 8a0a 0abd
00000330: eeb8 cbbb af41 f4bb e01b f23a 56c2 9c3a
00000340: e9dd 94bc 989b 603b 1ff9 933b 25c8 9fbc
00000350: 6154 e33c ba00 163d 7806 18bc a267 163d
00000360: a417 0d3c e9f4 a03c ee7c 35bc b3d6 423c
00000370: e892 88bc ee10 1b3c e7d4 fd3a e55a 8d3c
00000380: b4b6 343c b0a2 dabb b5af b73c 395c ebbc
00000390: 312e f0bc 37d0 973c 9021 14bd dd15 253b
000003a0: 85ca bdbc 0cca a03c 233b bcbc fb39 96bc
000003b0: f9f9 a23c 192a 3d3d 603a 753b a71c 80bc
000003c0: 3850 e03b 42b9 e2bc c8ed 93bc 1264 d3bc
000003d0: c483 36bd b640 0e3d 9157 fb3b 05fd 42bc
000003e0: e609 523c 1730 e6bb 69f6 28bc 15bb 8d3c
000003f0: 9f1c 5d3c 6f83 82bc d1f0 8dbc 55f2 b8bc

action_model._continuous_distribution.mu.bias f4 [2]
0.0056418823 0.008831609
00000000: 8adf b83b 74b2 103c
