Assets/Training/results/zombiekiller/AgentController/AgentController-499960.onnx (onnx, 670568 bytes, 11 tensors)

network_body._body_endoder.seq_layers.0.weight f4 [256, 128]
-0.05605704 0.0008804577 -0.12505281 -0.07860641 -0.1320259 -0.0618772 0.024848105 0.080959
-0.21953134 0.031938985 -0.049284533 0.02573482 0.11812799 0.043113537 -0.116695106 -0.19076858
-0.0830925 0.19685303 -0.004774495 -0.056009848 0.13610448 0.013334217 -0.034024097 -0.012941532
0.03159441 -0.14354506 0.04533829 -0.009995477 -0.1433806 0.045046225 0.17132285 -0.07302437
-0.08971239 -0.008940366 -0.121958345 0.04386287 -0.1569166 0.06686398 0.14661379 -0.16029078
-0.035061598 -0.06607039 0.12284608 0.0021981495 0.07388413 0.09378609 0.07063693 -0.20621815
-0.17398801 -0.018587569 -0.037500244 -0.2883525 -0.049960095 0.08490519 0.06337219 -0.0030637407
-0.0536876 -0.1313674 -0.10304752 -0.03925209 0.07102741 -0.0017626719 -0.006563894 -0.04775728
0.005004939 -0.025820466 -0.072252676 0.074022494 0.009701049 0.019249164 0.05917587 -0.04775448
0.005991293 0.056024667 0.045590132 0.1074883 0.120872475 0.11498083 0.014165976 0.08029073
0.13345271 -0.13000572 -0.05592687 0.029278101 0.11867182 0.03638218 -0.02347824 0.005497018
0.024351742 -0.027842825 -0.17085545 0.06547333 -0.12870118 0.030347338 0.10599978 -0.22311017
-0.1282231 -0.010002299 0.13685901 -0.11979685 0.13491704 -0.031505775 0.06758562 -0.004827522
0.11507882 -0.0067786453 0.14111209 -0.047902014 0.062754996 0.06637133 0.0030440034 0.14275011
-0.007977188 0.028674157 -0.11780571 -0.057750463 -0.113367386 0.060034346 -0.018485034 0.03609434
0.015719198 0.006835924 0.016078517 -0.008508203 -0.081598826 0.056314357 -0.020803098 -0.005262718
0.1989866 -0.037052862 0.029203655 -0.022048526 0.17994383 -0.087501094 -0.014736702 0.0962349
0.037429504 -0.063787445 -0.14042728 -0.05408478 0.23983563 -0.033228315 -0.068511754 0.049000468
0.111056425 -0.0617496 0.058615737 0.10300342 -0.10009919 0.20697176 -0.061699405 -0.054204233
0.08674906 0.03613203 -0.026422534 -0.08106072 0.083995454 -0.038635544 0.017427232 0.10603924
0.084423535 0.0045961495 -0.09858808 -0.036498595 0.14013454 0.06352583 -0.081829615 -0.18121536
0.07634082 0.0409693 0.1261629 0.14755327 -0.1120286 -0.047238547 -0.09599655 0.06016257
-0.05415234 0.12918438 -0.12030224 -0.11410515 0.081820205 -0.043999087 -0.07043473 0.02491834
-0.024486683 -0.17085561 -0.060053453 -0.13653296 0.13425952 0.051741354 0.078306355 -0.09592682
0.062695146 0.028058782 -0.033057265 -0.10018956 0.1119174 -0.012312323 0.12195069 0.009901723
0.009632287 -0.027142862 0.08678917 0.0806625 -0.042406917 -0.21196659 0.070119016 -0.0051755137
0.04974127 -0.03737572 -0.07467053 0.052061763 -0.052436892 -0.008421336 0.069840446 -0.053489573
-0.14421976 -0.19079746 0.13540274 -0.028914252 0.050702263 0.1178895 -0.023768503 0.20690891
0.1203593 -0.13462515 0.11086283 0.13871454 -0.030629857 0.0009790172 -0.047035024 -0.12924038
0.011023435 0.01613468 0.14912425 -0.01402011 0.03782183 0.048720278 0.0021185467 0.033867944
-0.0055521047 -0.049026825 0.02219671 0.044185307 0.21388566 -0.16341583 0.066055804 0.06574127
-0.03123667 -0.14946939 0.010271337 0.14106315 0.06953377 0.14787365 0.0377122 -0.04420698
00000000: 119c 65bd 84ce 663a d80d 00be 66fc a0bd
00000010: cc31 07be f272 7dbd 418e cb3c d5cd a53d
00000020: d3cc 60be 74d2 023d 94de 49bd d4d1 d23c
00000030: 16ed f13d d297 303d d8fd eebd d758 43be
00000040: 672c aabd d793 493e 5e73 9cbb 956a 65bd
00000050: f95e 0b3e c277 5a3c da5c 0bbd b808 54bc
00000060: 2469 013d 7afd 12be a5b4 393d 12c4 23bc
00000070: 5dd2 12be 6482 383d 426f 2f3e cd8d 95bd
00000080: 21bb b7bd 9d7a 12bc 4cc5 f9bd 8ea9 333d
00000090: bfae 20be fbef 883d ed21 163e 4423 24be
000000a0: c09c 0fbd ea4f 87bd ba96 fb3d d40e 103b
000000b0: 9050 973d ec12 c03d 18aa 903d da2a 53be
000000c0: ea29 32be f544 98bc db99 19bd f0a2 93be
000000d0: f5a2 4cbd c6e2 ad3d 47c9 813d 0ac9 48bb
000000e0: 87e7 5bbd 2d85 06be 940a d3bd cdc6 20bd
000000f0: d276 913d 7409 e7ba ef15 d7bb 239d 43bd
00000100: 7900 a43b 7185 d3bc 36f9 93bd 1b99 973d
00000110: 26f1 1e3c 6cb0 9d3c 6662 723d 349a 43bd
00000120: 9c52 c43b 1f7a 653d b8bc 3a3d d322 dc3d
00000130: fd8b f73d 127b eb3d 6918 683c 776f a43d
00000140: d4a7 083e 3820 05be 9313 65bd a1d8 ef3c
00000150: 360a f33d 7b05 153d 7055 c0bc 5420 b43b
00000160: 4e7d c73c a316 e4bc bbf4 2ebe e216 863d
00000170: 3eca 03be fb9a f83c 6a16 d93d fe76 64be
00000180: eb4c 03be afe0 23bc c524 0c3e 0d58 f5bd
00000190: b127 0a3e 330c 01bd 546a 8a3d 3130 9ebb
000001a0: 72ae eb3d 661f debb b07f 103e e734 44bd
000001b0: b185 803d b1ed 873d e77d 473b 162d 123e
000001c0: c0b2 02bc 11e6 ea3c 1f44 f1bd c08b 6cbd
000001d0: 292d e8bd 93e6 753d ed6d 97bc a9d7 133d
000001e0: 8cc5 803c e3ff df3b 18b7 833c fd65 0bbc
000001f0: 491d a7bd e2a9 663d 426b aabc e172 acbb
00000200: 25c3 4b3e bec4 17bd 813c ef3c 1c9f b4bc
00000210: 3243 383e c633 b3bd 3572 71bc ce16 c53d
00000220: ae4f 193d fea2 82bd 2bcc 0fbe 0188 5dbd
00000230: 7997 753e 6a1a 08bd e44f 8cbd b7b4 483d
00000240: 8d71 e33d 26ed 7cbd 0e17 703d 75f3 d23d
00000250: ce00 cdbd 68f0 533e 84b8 7cbd 4205 5ebd
00000260: 7ea9 b13d 2eff 133d 1274 d8bc 2a03 a6bd
00000270: cf05 ac3d 4e40 1ebd 8ec3 8e3c 1a2b d93d
00000280: 3fe6 ac3d 4c9b 963b 8ce8 c9bd 8d7f 15bd
00000290: 6e7f 0f3e d519 823d 4996 a7bd 8590 39be
000002a0: 9358 9c3d 6dcf 273d d930 013e 3418 173e
000002b0: 406f e5bd 357d 41bd d799 c4bd 076d 763d
000002c0: d8ce 5dbd e948 043e 0561 f6bd f6af e9bd
000002d0: 5a91 a73d 6338 34bd 1540 90bd 8c21 cc3c
000002e0: 4c98 c8bc c6f4 2ebe 9cfa 75bd 4ccf 0bbe
000002f0: 547b 093e beee 533d 155f a03d 4875 c4bd
00000300: 5066 803d 88db e53c 0e67 07bd 2f30 cdbd
00000310: f334 e53d a0b9 49bc 49c1 f93d d63a 223c
00000320: bdd0 1d3c b55a debc 85be b13d 6132 a53d
00000330: e0b2 2dbd c50d 59be 8f9a 8f3d 5b97 a9bb
00000340: 80bd 4b3d 4817 19bd ddec 98bd b73e 553d
00000350: 11c8 56bd a5f9 09bc 8208 8f3d e217 5bbd
00000360: 58ae 13be 6960 43be 04a7 0a3e 95dd ecbc
00000370: 2dad 4f3d 0d70 f13d 2ab6 c2bc eedf 533e
00000380: f07e f63d 2ddb 09be 0d0c e33d 2f0b 0e3e
00000390: 77eb fabc 5e52 803a cca7 40bd 9757 04be
000003a0: a39b 343c e02c 843c 07b4 183e 9ab4 65bc
000003b0: 10eb 1a3d ea8e 473d 51d7 0a3b 1db9 0a3d
000003c0: 6eee b5bb 5ad0 48bd e0d5 b53c a7fb 343d
000003d0: d804 5b3e 7b56 27be 4448 873d 5ca3 863d
000003e0: 0ce4 ffbc 810e 19be 1c49 283c dc72 103e
000003f0: b967 8e3d 316c 173e 1c78 1a3d 6112 35bd

network_body._body_endoder.seq_layers.0.bias f4 [256]
0.008021152 0.0012774469 0.0097728735 -0.0010196705 0.01055837 0.012254858 0.010764567 0.0028247312
0.012191293 0.0036033066 0.008242305 0.00033337026 0.0077319397 0.01831357 0.009197528 0.008640676
0.009953116 0.0006440814 0.0083134845 -0.0074320263 0.002208767 0.007155143 0.0060298187 0.0042704255
-0.0045282827 0.0013159263 0.004852447 -0.00087713223 0.0019272595 0.0007399258 0.008985964 0.0032281918
0.004691444 0.008937558 0.00949491 -0.002275169 0.0063090804 0.005229945 0.014932012 0.0033934603
0.008313909 0.013276354 0.0059168274 0.0006414319 0.01006623 0.004562493 0.0058071027 0.0035668039
0.008750203 0.0106639145 0.010450525 -0.0025722762 -0.0009436912 0.012932779 0.0023305772 0.0051309443
0.0070839953 0.004117151 0.0136627825 0.002829765 -0.002727811 -0.0086909225 0.006668258 0.0014010067
-0.0057306304 0.0071788034 0.014282846 0.0016077851 0.00411416 0.008438067 0.008767185 0.013257879
0.0061530005 0.008533323 0.01247008 -0.002820409 0.0028405203 0.006627832 0.00935104 -0.0018036404
0.011796705 0.002230089 0.01019498 0.003607139 0.0009419944 0.0014565317 -0.005337922 0.003671377
-0.0014917846 -0.00014900499 -0.005547288 -0.0017493957 0.014356273 0.0041809552 -0.007450066 -0.0068554995
-0.008051996 0.0084429765 0.00776962 0.017160362 0.0010549806 -0.0023021372 0.0071391263 0.0033446562
0.01007625 0.005965931 0.011006204 0.0037501026 0.0063439687 0.007946582 0.011429561 0.016359793
0.0017655594 0.0037362669 0.01133671 0.003719828 -0.0052923136 0.0077820253 -0.0019211218 0.009481525
-0.0023654301 0.010237329 0.0050877044 -0.006857662 0.006398558 0.010679563 6.588904e-05 0.002074848
0.0009694603 0.0002672848 -0.006490962 0.0015016217 -0.011039112 -0.0007967159 -0.0054630656 0.0050416873
0.0039724796 -0.0043480075 0.01163955 0.0010946097 0.015984425 0.0106410375 0.009846809 -0.0044273552
0.008582572 0.026636802 0.007196396 0.0013667314 0.005467045 0.005520981 0.0044806753 0.007883308
0.012563859 0.005462978 0.01160141 0.007698064 0.015166642 0.0062439623 0.003101957 0.010242662
0.009618992 0.006266307 -0.0074330755 0.0031072164 0.009762965 -0.003602891 0.013920428 0.010045571
0.009716087 0.006198968 -0.0021442103 0.0030682976 0.0075955745 0.009335041 0.0027304536 0.005788564
0.0017646049 0.015566816 0.0049104006 0.00415986 -0.0005280123 0.01079452 -0.0023143867 0.013201479
0.0026004866 0.0026595937 0.007060384 0.009919609 -0.0012240455 -0.010786943 -0.009193561 0.00093879615
-0.003519635 -0.005374013 0.005995604 0.010322223 0.020150723 -0.0010459247 0.0091126915 0.0003391243
-0.00087375136 0.0024990956 0.016832195 -0.021325642 0.0009055071 0.00018717971 0.005591278 -0.0021498539
0.021278992 -0.0023551718 0.0016076608 0.00639426 -0.0059539545 0.0036198043 -0.009790383 0.007284042
0.014907129 0.0077640973 0.0002922519 -0.0017161444 0.012359214 0.006355687 -0.0022584265 0.00899096
0.011015181 -0.00034990156 -0.009068898 0.010600542 0.007033707 0.0016625917 0.0062539214 0.0060123885
0.016637051 0.006317444 0.000985647 0.005082498 0.023611214 -0.006112525 0.0098779835 0.012772627
0.003977039 0.008690331 0.008596928 0.0077620307 -0.0028986936 -0.01081234 0.0050542057 0.016169854
0.0081275245 -0.0035161702 0.0011564725 0.00356953 0.017238142 0.00062574726 -0.00080290623 -0.0028995879
00000000: 266b 033c 0170 a73a 671e 203c 77a6 85ba
00000010: 03fd 2c3c 9ac8 483c de5d 303c 201f 393b
00000020: fdbd 473c 7425 6c3b bc0a 073c 33c8 ae39
00000030: 365c fd3b 5706 963c 3ab1 163c 9f91 0d3c
00000040: 6512 233c 92d7 283a 4835 083c 5b88 f3bb
00000050: f6c0 103b b175 ea3b c995 c53b edee 8b3b
00000060: fd61 94bb 297b ac3a 4701 9f3b 59ef 65ba
00000070: 199c fc3a 94f7 413a dd39 133c 1290 533b
00000080: afba 993b d66e 123c 8a90 1b3c 001b 15bb
00000090: 67bc ce3b f55f ab3b 66a5 743c d164 5e3b
000000a0: 1037 083c 1185 593c f2e1 c13b c425 283a
000000b0: d4ec 243c f780 953b 8249 be3b 0ac1 693b
000000c0: 035d 0f3c b3b7 2e3c ae38 2b3c a293 28bb
000000d0: 0b62 77ba 02e4 533c 99bc 183b 7b21 a83b
000000e0: dc20 e83b 2ae9 863b ddd9 5f3c 9473 393b
000000f0: 13c5 32bb 5f64 0ebc 6781 da3b fca1 b73a
00000100: 03c8 bbbb 2b3c eb3b 9902 6a3c 51bc d23a
00000110: 13d0 863b d13f 0a3c 3da4 0f3c 9337 593c
00000120: 1c9f c93b 5acf 0b3c 4e4f 4c3c 9cd6 38bb
00000130: 0628 3a3b 492e d93b 1b35 193c 2168 ecba
00000140: f846 413c af26 123b d808 273c c065 6c3b
00000150: 2df0 763a 18e9 be3a bce9 aebb 7c9b 703b
00000160: fc87 c3ba 393e 1cb9 06c6 b5bb fb4b e5ba
00000170: 9336 6b3c 6500 893b af1f f4bb 19a4 e0bb
00000180: 85ec 03bc 6954 0a3c 4c98 fe3b e393 8c3c
00000190: 4647 8a3a 74df 16bb 55ef e93b 0532 5b3b
000001a0: db16 253c db7d c33b 5e53 343c 48c4 753b
000001b0: 11e1 cf3b 6132 023c 0e43 3b3c f904 863c
000001c0: 586a e73a 28dc 743b 9cbd 393c 5cc8 733b
000001d0: 256b adbb 5c00 ff3b 27ce fbba 6658 1b3c
000001e0: 5505 1bbb 78ba 273c c2b6 a63b 3db6 e0bb
000001f0: ffaa d13b 55f9 2e3c e92d 8a38 2cfa 073b
00000200: 6123 7e3a 5c22 8c39 23b2 d4bb 10d2 c43a
00000210: 64dd 34bc b3da 50ba 8403 b3bb bd34 a53b
00000220: 932b 823b bb79 8ebb d0b3 3e3c 0279 8f3a
00000230: c5f1 823c bf57 2e3c 8354 213c 5913 91bb
00000240: eb9d 0c3c 6c35 da3c bfcf eb3b e523 b33a
00000250: e624 b33b 58e9 b43b a1d2 923b fe28 013c
00000260: a5d8 4d3c c802 b33b d713 3e3c 0b40 fc3b
00000270: 827d 783c 279a cc3b 344a 4b3b d7d0 273c
00000280: fa98 1d3c 9855 cd3b 2891 f3bb 71a2 4b3b
00000290: d8f4 1f3c 7b1e 6cbb 8212 643c 2e96 243c
000002a0: 3930 1f3c b620 cb3b e185 0cbb 7e15 493b
000002b0: 4ce4 f83b 00f2 183c 69f1 323b ffad bd3b
000002c0: 514a e73a f50b 7f3c 6de7 a03b 6f4f 883b
000002d0: 4e6a 0aba 80db 303c f7ac 17bb 044b 583c
000002e0: ed6c 2a3b 944c 2e3b cb5a e73b db85 223c
000002f0: 2770 a0ba b8bb 30bc 97a0 16bc 8b19 763a
00000300: ada9 66bb 7d18 b0bb c676 c43b 8b1e 293c
00000310: 2113 a53c 6917 89ba 664d 153c 7ecc b139
00000320: 760c 65ba dec7 233b ace3 893c 1db3 aebc
00000330: 8e5f 6d3a ac45 4439 0a37 b73b 90e4 0cbb
00000340: 4851 ae3c 3a59 1abb 25b8 d23a f186 d13b
00000350: 6419 c3bb 3d3a 6d3b d867 20bc f9ae ee3b
00000360: 083d 743c f869 fe3b 6339 9939 40f0 e0ba
00000370: 4d7e 4a3c 5e43 d03b 1c02 14bb d24e 133c
00000380: 0579 343c fe72 b7b9 b795 14bc e5ad 2d3c
00000390: 037b e63b 52eb d93a b2ed cc3b 9203 c53b
000003a0: 6d4a 883c 9002 cf3b d330 813a 158b a63b
000003b0: 4e6c c13c 934b c8bb 44d7 213c 4844 513c
000003c0: d251 823b e461 0e3c 21da 0c3c a258 fe3b
000003d0: 02f8 3dbb 3e26 31bc c09d a53b a476 843c
000003e0: 4f29 053c 8c6f 66bb c794 973a c7ee 693b
000003f0: 0137 8d3c 3009 243a 207a 52ba 0307 3ebb

network_body._body_endoder.seq_layers.2.weight f4 [256, 256]
0.004404706 0.053273693 -0.00044240817 -0.007008815 -0.1118009 0.015615886 -0.06363151 0.060543176
0.010161565 -0.053530157 -0.03926647 -0.011415918 -0.0018898561 -0.07553509 0.03718623 0.047552228
0.09397623 0.09964674 0.07802495 0.040351305 0.07064087 -0.084214985 0.014859372 -0.026224561
0.057244025 -0.009632135 -0.04302708 0.085948244 -0.018031558 -0.02077497 0.042436257 -0.020086767
0.10761924 -0.035929304 0.011266316 0.11920323 0.12067839 0.08419305 -0.06111087 0.092178226
0.025604518 -0.050334014 -0.063855335 -0.057061363 -0.06281717 -0.09798778 -0.0098250685 -0.019635236
0.0717619 0.17181432 -0.05928204 -0.04633851 -0.015695937 0.12730569 -0.10257243 -0.07549838
-0.0064980052 -0.011220562 -0.000342034 0.0017309876 -0.0036999977 0.012119083 0.034441974 0.078493215
0.039828263 0.000477711 0.02526999 0.057042036 -0.039147113 -8.79128e-05 -0.05921329 -0.011215898
0.032390922 0.10523084 0.043196402 0.11319316 0.036502615 0.005919689 0.05863225 -0.05384395
0.11664663 0.020123653 0.08952334 -0.1669913 -0.11566825 -0.114435025 0.10976807 0.049041092
-0.049236786 0.003260886 -0.023907311 0.033007 0.024392532 -0.026624216 0.08496373 0.088844836
-0.11905248 -0.07372274 -0.08476323 -0.032591216 0.19843772 -0.094772056 -0.096444294 -0.06673381
0.10003154 0.055246696 0.017216967 0.086961195 -0.0681242 -0.04200157 -0.067878716 -0.07876124
-0.008463491 0.032794595 0.017766468 -0.0063897693 -0.08904849 0.0112834545 -0.060257412 -0.0941461
-0.03574196 -0.044548858 0.060218055 0.041080274 -0.011211792 -0.071597785 0.07698668 -0.037367146
0.083547376 0.06528841 0.03627312 -0.051172446 -0.031229978 0.027367182 0.04685636 0.042893644
-0.060377397 0.03565776 -0.050395533 0.03218211 -0.041958068 -0.011221158 0.00816903 -0.040554356
-0.055399608 -0.024085846 -0.10620884 0.0057056323 -0.03013921 -0.09523527 -0.007957364 0.14305954
0.15216589 0.034041394 0.0149944555 0.04409523 0.047276724 -0.022665298 -0.043630224 -0.09355389
0.0068896925 0.11415745 -0.121108115 -0.06947942 0.07039633 0.07227985 -0.025739653 -0.023142442
0.005539879 0.07860207 0.05326093 -0.065602295 -0.042440422 0.09106577 -0.0082992045 0.090783246
0.045299478 0.011794857 -0.068399176 0.04428136 -0.097086295 0.06744963 -0.027676148 -0.01071024
0.011197768 -0.029108878 0.11733322 -0.003548539 -0.0031582513 0.00883836 0.08388534 -0.080303274
0.0017032166 0.027892252 0.042846918 -0.099532515 -0.075858444 0.15675613 0.059105154 -0.04321157
-0.017025467 0.01828933 0.0185732 -0.09561582 0.041953556 0.067725584 0.034583908 -0.02531043
-0.08993272 -0.03469986 0.027034637 -0.01946803 0.069210224 -0.014860857 -0.05464266 -0.006393423
-0.034560002 0.04026003 0.014519755 -0.07825813 -0.108750105 -0.10765964 0.034463026 -0.05867511
0.053073697 0.026711255 -0.041690886 0.05222943 -0.04595959 -0.031985607 0.06077443 0.0006119954
-0.09084468 0.026045043 -0.07405821 0.050150912 -0.0046550725 -0.091162734 -0.1165579 0.039576147
0.020501332 0.010026139 0.04269747 0.09600779 -0.023223793 -0.13692066 -0.09346964 -0.018111175
-0.00060094334 -0.110914804 -0.04511134 0.06483195 0.091679014 0.06496636 0.03075226 0.072010815
00000000: 5a55 903b 8435 5a3d 05f3 e7b9 34aa e5bb
00000010: dff7 e4bd c6d9 7f3c 3d51 82bd 1ffc 773d
00000020: b17c 263c 7042 5bbd e1d5 20bd d509 3bbc
00000030: 0cb5 f7ba 24b2 9abd 9750 183d 20c6 423d
00000040: 9c76 c03d 9713 cc3d 8ccb 9f3d 6947 253d
00000050: 29ac 903d e878 acbd b974 733c e4d4 d6bc
00000060: b678 6a3d 1ad0 1dbc 2a3d 30bd a205 b03d
00000070: ebb6 93bc 4530 aabc a4d1 2d3d 018d a4bc
00000080: 7a67 dc3d 9b2a 13bd 5b96 383c d320 f43d
00000090: 3b26 f73d 686d ac3d 644f 7abd f0c7 bc3d
000000a0: 91c0 d13c 0a2b 4ebd 96c6 82bd 2db9 69bd
000000b0: 4aa6 80bd d1ad c8bd 53f9 20bc 13da a0bc
000000c0: e7f7 923d 18f0 2f3e b9d1 72bd 73cd 3dbd
000000d0: c494 80bc 6c5c 023e 7f11 d2bd e59e 9abd
000000e0: 38ed d4bb 73d6 37bc 0753 b3b9 4ee2 e23a
000000f0: a97b 72bb 1e8f 463c 0713 0d3d 0dc1 a03d
00000100: f622 233d 4975 fa39 0303 cf3c e9a4 693d
00000110: b958 20bd d35d b8b8 a389 72bd e3c2 37bc
00000120: 58ac 043d 4483 d73d b6ee 303d d1d1 e73d
00000130: c483 153d f3f9 c13b 5f28 703d 798b 5cbd
00000140: 6ee4 ee3d 5cda a43c 0358 b73d c4ff 2abe
00000150: 7ae3 ecbd e95c eabd 15ce e03d 50df 483d
00000160: 83ac 49bd 97b4 553b 44d9 c3bc 5932 073d
00000170: d9d2 c73c 071b dabc 7701 ae3d 48f4 b53d
00000180: c9d1 f3bd f3fb 96bd 5898 adbd 5e7e 05bd
00000190: 4233 4b3e da17 c2bd 9684 c5bd bcab 88bd
000001a0: 56dd cc3d 5c4a 623d 990a 8d3c b618 b23d
000001b0: b384 8bbd d709 2cbd ff03 8bbd 934d a1bd
000001c0: 74aa 0abc a053 063d fc8a 913c 4561 d1bb
000001d0: 0e5f b6bd 3dde 383c 7ad0 76bd accf c0bd
000001e0: 2966 12bd dd78 36bd 35a7 763d ca43 283d
000001f0: aab1 37bc dca1 92bd 31ab 9d3d 4b0e 19bd
00000200: e31a ab3d eeb5 853d 2093 143d 339a 51bd
00000210: 03d6 ffbc 2431 e03c 74ec 3f3d 3fb1 2f3d
00000220: 4a4e 77bd df0d 123d 8c6b 4ebd 63d1 033d
00000230: 39dc 2bbd f3d8 37bc 65d7 053c 531c 26bd
00000240: b3ea 62bd ae4f c5bc 0584 d9bd 50f6 ba3b
00000250: 81e6 f6bc b60a c3bd 9b5f 02bc 337e 123e
00000260: 60d1 1b3e fd6e 0b3d 4eab 753c 339d 343d
00000270: 3da5 413d 93ac b9bc 9bb5 32bd 2f99 bfbd
00000280: eec2 e13b 62cb e93d 8807 f8bd 3a4b 8ebd
00000290: f32b 903d 7507 943d f7db d2bc 3895 bdbc
000002a0: e087 b53b 1ffa a03d 2228 5a3d 7f5a 86bd
000002b0: 02d6 2dbd b180 ba3d 63f9 07bc 91ec b93d
000002c0: f28b 393d 373f 413c de14 8cbd 5f60 353d
000002d0: 2ed5 c6bd 0823 8a3d 17b9 e2bc 017a 2fbc
000002e0: d876 373c be75 eebc 664c f03d 9b8e 68bb
000002f0: aafa 4ebb c5ce 103c 14cc ab3d 0b76 a4bd
00000300: 773e df3a 4b7e e43c 4080 2f3d b4d7 cbbd
00000310: ac5b 9bbd ae84 203e 3f18 723d 9dfe 30bd
00000320: fe78 8bbc 81d3 953c d326 983c 3ad2 c3bd
00000330: 7ed7 2b3d b6b3 8a3d dba7 0d3d d257 cfbc
00000340: a52e b8bd 7121 0ebd be77 dd3c 6b7b 9fbc
00000350: 17be 8d3d f47a 73bc fbd0 5fbd eb7f d1bb
00000360: ca8e 0dbd b4e7 243d 44e4 6d3c cc45 a0bd
00000370: 60b8 debd a87c dcbd 1a29 0d3d 5055 70bd
00000380: ce63 593d 90d1 da3c 10c4 2abd 87ee 553d
00000390: 1f40 3cbd 5703 03bd 9cee 783d 516e 203a
000003a0: c70c babd 6a5c d53c d5ab 97bd 0b6b 4d3d
000003b0: 9489 98bb 87b3 babd e9b5 eebd 991a 223d
000003c0: 69f2 a73c ad44 243c 8be3 2e3d bb9f c43d
000003d0: d33f bebc ee34 0cbe 036d bfbd e35d 94bc
000003e0: a088 1dba 4d27 e3bd abc6 38bd 9dc6 843d
000003f0: 35c2 bb3d 150d 853d 2aec fb3c 687a 933d

network_body._body_endoder.seq_layers.2.bias f4 [256]
0.0067882463 -0.00174398 0.002332041 0.013811005 0.013602013 -0.0004063469 0.00814739 0.005547273
0.0035635957 0.0088305725 0.0014049596 -0.002762058 -0.0027097526 0.00077507505 0.0022317541 0.0062163994
0.005014336 0.004325391 -0.00041162202 0.006391757 0.008507035 0.00083492266 0.010778269 0.005848469
-0.0008823589 0.01022996 0.0012507064 0.009092549 0.003131572 0.0022201927 0.0063252943 0.0068618446
-0.0028920877 0.0032083425 0.01089634 0.003487693 -0.0060131405 0.011339174 -0.003649945 0.0008679976
0.0029482902 0.0031275167 -0.0049833586 -0.0012861774 -0.002725984 0.0049542966 0.003994592 0.0094458535
0.0035638106 0.013427869 -0.0070615867 0.0009143379 0.008987148 -0.0033487256 -0.002153078 -0.00031600604
0.008630699 0.0018973498 0.000743111 0.007398987 0.008573709 -0.0065936814 -0.008093707 0.012651993
0.0074457754 -0.004293993 0.0067041293 0.011116649 0.0010457558 -0.001076886 0.008806255 0.00030928734
0.0017160396 0.0017853905 0.0072161746 -0.0063458933 0.0075807627 -0.0023452127 0.0073269815 0.0035611598
-0.0003758644 0.01371431 -0.0077166036 -0.0005568366 -0.0018759755 -0.007929827 -0.0063648787 -0.008062222
0.003608047 0.014239653 0.0049278913 -0.0018707305 -0.0053717922 0.005332016 0.020734759 0.005014629
0.0064094504 0.007941805 0.0029533603 0.0005687022 -0.0025606095 -0.012014747 0.0016096019 0.008076551
0.0059044515 0.0045830295 0.004757616 -0.0020505227 -0.002243785 0.0063280077 0.0022927623 -0.0026252067
0.004389595 0.010174363 -0.0013456502 0.0050778184 -0.0038382642 0.010617248 0.0042696795 0.008061683
0.013289505 0.0072777965 0.0024640034 0.003582063 0.002765929 0.0030503175 0.004844968 0.005343746
0.0014566198 0.01324033 0.009591485 -0.007698118 -0.0027294494 -0.0028179795 -0.0009127744 0.013469551
0.007644243 -0.006034509 0.0068771634 0.0033322247 -0.0028206357 -0.002324759 0.005760205 0.0047851983
0.009614475 -6.601353e-05 0.010357775 0.012095183 0.0067152795 0.008815179 -0.004540723 2.1419462e-05
-0.0035813518 0.002853708 0.0042196885 0.018328616 0.0064729005 -0.00037549788 0.0057447352 0.0012677216
-0.0015582085 0.0033964443 0.00010686382 0.0062367464 0.005919694 -0.0021503735 0.0003965435 0.0018906548
0.0038717068 0.003861717 0.0060064113 0.0034648122 0.0074621052 0.0027937565 0.0013474362 0.005068011
0.009115185 0.0074030655 0.011317278 0.0045495713 0.00067029026 0.002802287 0.0052484367 0.0019924555
-0.005928982 0.0006579243 0.0075821066 -0.009580455 0.009751274 0.0029586672 0.007114611 -0.0024732773
0.0092856595 -0.0022053446 -0.00485693 0.0011074096 0.0055061704 -0.0019198277 -0.0031787367 0.006803395
0.0012447832 0.009984041 0.006870289 0.006265279 0.001365281 0.00221527 0.015531771 0.0049981754
0.004607085 0.0053931596 0.003916212 0.0054557854 0.001743951 0.004992956 0.0119889835 0.0011105825
0.0023163315 4.0376977e-05 0.00983943 0.007988009 0.002909377 0.019540882 0.0057050684 0.004796131
0.009051362 -0.0036644922 -0.0029003134 0.0028951766 0.013928655 -0.0048950845 0.009056655 0.00059771514
0.009258107 0.011256341 0.0042096977 0.011254902 -0.0036895962 -0.005978247 0.005152332 0.013400774
0.011698967 0.004132828 0.0017853078 0.0057658055 0.0144465 0.005574004 0.010287303 0.00058616546
0.0010291014 -0.0035905433 0.0033207745 0.0069561573 0.0041977502 -0.00035878576 0.0051760403 0.0044441395
00000000: f06f de3b 4296 e4ba 28d5 183b 8e47 623c
00000010: fada 5e3c f50a d5b9 a17c 053c e6c5 b53b
00000020: 378b 693b 1bae 103c 9f26 b83a a503 35bb
00000030: 1b96 31bb 682e 4b3a 9f42 123b f0b2 cb3b
00000040: 4d4f a43b 02bc 8d3b f9ce d7b9 f271 d13b
00000050: 1761 0b3c b6de 5a3a 5697 303c 84a4 bf3b
00000060: 1a4e 67ba 909b 273c beee a33a eaf8 143c
00000070: 0f3b 4d3b a780 113b 6a44 cf3b 53d9 e03b
00000080: 2e89 3dbb 0e43 523b 9086 323c c791 643b
00000090: e109 c5bb f1c7 393c ea33 6fbb 558a 633a
000000a0: 1a38 413b 06f7 4c3b 714b a3bb f494 a8ba
000000b0: 6ca6 32bb a757 a23b 11e5 823b c8c2 1a3c
000000c0: d28e 693b 9100 5c3c e264 e7bb 2eb0 6f3a
000000d0: d53e 133c 4b76 5bbb a81a 0dbb 9dad a5b9
000000e0: c667 0d3c 7fb0 f83a 56cd 423a 3473 f23b
000000f0: be78 0c3c cf0f d8bb 789b 04bc 4e4a 4f3c
00000100: b1fb f33b a0b4 8cbb 50ae db3b 9b22 363c
00000110: be11 893a 4c26 8dba 1c48 103c d827 a239
00000120: bcec e03a c403 ea3a a975 ec3b 36f1 cfbb
00000130: 0c68 f83b 24b2 19bb 2d17 f03b 5962 693b
00000140: aa0f c5b9 fcb1 603c 90db fcbb acf8 11ba
00000150: 4be3 f5ba 1bec 01bc 7990 d0bb 6917 04bc
00000160: fc74 6c3b 6f4d 693c 267a a13b 4d33 f5ba
00000170: dc05 b0bb 31b8 ae3b f1db a93c c251 a43b
00000180: 5e06 d23b 581e 023c 2a8d 413b f514 153a
00000190: e6cf 27bb 80d9 44bc 47f9 d23a 8353 043c
000001a0: 217a c13b 3d2d 963b c7e5 9b3b 1062 06bb
000001b0: 770c 13bb 2d5b cf3b 2b42 163b a90b 2cbb
000001c0: 97d6 8f3b 5fb2 263c 8760 b0ba d463 a63b
000001d0: 638b 7bbb f7f3 2d3c abe8 8b3b 2615 043c
000001e0: 39bc 593c 957a ee3b 1e7b 213b 0bc1 6a3b
000001f0: 9744 353b d6e7 473b 8ac2 9e3b 971a af3b
00000200: 0dec be3a f8ed 583c 9b25 1d3c 7f40 fcbb
00000210: 90e0 32bb daad 38bb 4147 6fba 64af 5c3c
00000220: 8f7c fa3b 21bd c5bb d459 e13b 7461 5a3b
00000230: 6ada 38bb fc5a 18bb 1ac0 bc3b 27cd 9c3b
00000240: 0886 1d3c be70 8ab8 a8b3 293c e02a 463c
00000250: d90b dc3b 8a6d 103c 58ca 94bb f2ad b337
00000260: 1db5 6abb 4705 3b3b 5045 8a3b e525 963c
00000270: a01a d43b 79de c4b9 553e bc3b ae29 a63a
00000280: cd3c ccba e196 5e3b 141c e038 9f5d cc3b
00000290: fef9 c13b 48ed 0cbb 2be7 cf39 d9cf f73a
000002a0: 76bc 7d3b dc14 7d3b 6ed1 c43b e711 633b
000002b0: ad84 f43b 7517 373b 759c b03a 8f11 a63b
000002c0: db57 153c 6a95 f23b 1b6c 393c 9214 953b
000002d0: 6bb6 2f3a 93a6 373b 14fb ab3b db93 023b
000002e0: e847 c2bb 8d78 2c3a 5273 f83b 57f7 1cbc
000002f0: cfc3 1f3c 33e6 413b af21 e93b b516 22bb
00000300: e122 183c 8b87 10bb e226 9fbb 8026 913a
00000310: 1b6d b43b baa2 fbba 5a52 50bb 04ef de3b
00000320: fe27 a33a 1a94 233c 2920 e13b f84c cd3b
00000330: 3af3 b23a 102e 113b f878 7e3c bcc7 a33b
00000340: 08f7 963b 1ab9 b03b 9153 803b 72c6 b23b
00000350: 4995 e43a f39b a33b 716d 443c f790 913a
00000360: 98cd 173b 735a 2938 9035 213c 23e0 023c
00000370: 3fab 3e3b 3314 a03c 95f1 ba3b dd28 9d3b
00000380: 2a4c 143c fa27 70bb 2f13 3ebb 01bd 3d3b
00000390: 0335 643c f266 a0bb 5d62 143c fcaf 1c3a
000003a0: 51af 173c 846c 383c 81f1 893b 7b66 383c
000003b0: 27cd 71bb 2ce5 c3bb e5d4 a83b ec8e 5b3c
000003c0: 06ad 3f3c ad6c 873b fd00 ea3a 15ef bc3b
000003d0: 03b1 6c3c 22a6 b63b 138c 283c e6a8 193a
000003e0: eae2 863a 524f 6bbb 5aa1 593b 7af0 e33b
000003f0: 488d 893b 691b bcb9 c69b a93b 25a0 913b

network_body._body_endoder.seq_layers.4.weight f4 [256, 256]
-0.0011873363 0.030180283 0.024194974 0.056888305 -0.08935441 0.048407134 0.031367544 -0.12003968
0.0045696315 -0.062723994 0.08329986 -0.0599521 -0.051930785 -0.021879263 0.044254433 0.13634153
-0.06405075 0.061885793 -0.05131014 -0.06448482 0.052458707 -0.03938779 0.023269111 -0.16500586
-0.03842655 -0.023484798 -0.003740598 -0.01547742 -0.03845211 0.023956683 -0.01458458 0.011169211
0.07724433 0.048898596 0.032874808 -0.002025607 -0.015946204 -0.08497698 0.018325236 0.1314152
0.14396 -0.12134224 -0.08230026 -0.14752977 -0.00984075 -0.013952322 0.008085949 0.15456304
-0.060658626 0.05380787 0.0288786 -0.055136077 -0.02801807 0.16001318 0.01813701 0.019750489
-0.07805234 -0.05054992 -0.09523803 0.018454844 0.026600003 -0.010539576 0.07221372 0.12423447
-0.01284299 0.01248862 0.036351744 -0.0063212286 0.08130098 -0.09990785 0.042461455 0.023798663
-0.08099164 0.09592195 -0.12024354 0.06055726 0.021600815 -0.07705849 0.10742382 -0.021845201
0.072522275 0.06603997 0.08527432 0.02146405 0.01931844 0.05274745 0.003443657 0.069731206
0.14730527 0.034303207 -0.037074417 -0.12665527 7.363169e-05 0.04146264 -0.027969351 -0.047016803
0.0011162299 0.047619138 0.021502743 -0.007828289 0.11293818 0.027766356 0.017120214 0.031305514
0.024628658 -0.014665594 0.07939872 0.06538084 0.0014629059 -0.10094741 -0.037336666 0.047004405
0.04842694 -0.08100483 0.022025445 -0.013824005 0.06911384 -0.03075079 0.024159677 -0.030024527
0.07024833 -0.04203818 -0.03224216 0.051210057 0.06820722 0.07274283 0.024683347 -0.09229786
0.0846257 0.047181126 -0.0063128523 -0.016376149 -0.11938002 -0.10269793 -0.059141308 0.044515558
-0.04699089 -0.054508343 -0.11666643 -0.0024602287 0.0025984645 -0.03418257 -0.0046041715 -0.08342287
0.09704278 0.058860846 -0.008687341 0.1470698 -0.095299475 0.037977163 -0.10415873 -0.07334099
0.016130403 0.053312477 -0.01800143 0.0245981 0.0056997426 0.0020747303 -0.002444097 0.106829226
0.060592808 -0.079187974 -0.046728157 -0.07846535 -0.06318086 0.06304655 0.012883632 0.003927955
-0.023328207 -0.032713737 -0.1496854 0.041788764 0.046480037 0.19726981 0.058127362 -0.045996346
-0.05120936 -0.047354784 -0.030454472 -0.031324334 0.028354041 -0.06461975 0.022664344 -0.022697115
0.01698099 0.02717231 -0.07484363 -0.006452636 0.0863508 0.024215845 -0.009438005 0.014676833
0.09354786 0.01735123 0.1373604 -0.033686258 -0.0006366115 -0.02159371 0.060685907 -0.06580469
-0.12333082 0.076387644 0.07996922 -0.0002341636 0.110584825 0.012610045 -0.09625163 -0.01952059
0.001964844 0.005394926 -0.051910043 -0.15046112 -0.08912534 0.06683241 -0.025342377 0.01587755
-0.004216654 -0.03277784 0.056860395 -0.020752314 -0.032398827 -0.08733162 0.0071141124 0.059374955
-0.011161309 0.02860364 0.085064635 0.11929392 -0.00035041495 -0.07868156 -0.073962934 0.066015474
-0.09165959 -0.12073349 -0.002487738 -0.026320806 -0.030427184 -0.013475114 0.0824505 -0.076290034
-0.0071641905 0.057153735 0.073988 0.015677642 -0.01791045 -0.032478712 -0.010975625 -0.03238871
0.07625899 0.113923594 -0.05222675 -0.16202775 0.009385223 -0.030766545 0.07820125 -0.15358335
00000000: 65a0 9bba a43c f73c 8a34 c63c b603 693d
00000010: 72ff b6bd 8f46 463d 417b 003d 5dd7 f5bd
00000020: d9bc 953b 7075 80bd 1e99 aa3d 5590 75bd
00000030: 60b5 54bd 243c b3bc 2344 353d 1d9d 0b3e
00000040: 0a2d 83bd f57b 7d3d 952a 52bd 9e10 84bd
00000050: f1de 563d 1755 21bd dd9e be3c 4cf7 28be
00000060: 2865 1dbd 3163 c0bc d224 75bb 0195 7dbc
00000070: f67f 1dbd ce40 c43c 2af4 6ebc 11ff 363c
00000080: 4632 9e3d e549 483d bca7 063d 0cc0 04bb
00000090: 9da1 82bc 6908 aebd ce1e 963c b591 063e
000000a0: 406a 133e 4882 f8bd 0a8d a8bd 0b12 17be
000000b0: 193b 21bc 4898 64bc ee7a 043c c645 1e3e
000000c0: 2e75 78bd a465 5c3d d092 ec3c 5ed6 61bd
000000d0: 2786 e5bc 7fda 233e 1194 943c c7cb a13c
000000e0: e8d9 9fbd 6f0d 4fbd 280c c3bd 9d2e 973c
000000f0: 40e8 d93c 30ae 2cbc c9e4 933d a46e fe3d
00000100: 686b 52bc 129d 4c3c 91e5 143d 4f22 cfbb
00000110: 2181 a63d 7d9c ccbd 10ec 2d3d 6af5 c23c
00000120: f2de a5bd ba72 c43d 3f42 f6bd e40a 783d
00000130: 31f4 b03c d7d0 9dbd 0501 dc3d b5f4 b2bc
00000140: 8f86 943d f73f 873d 4da4 ae3d 60d5 af3c
00000150: b541 9e3c b60d 583d faae 613b 3ccf 8e3d
00000160: 31d7 163e 8581 0c3d 58db 17bd ebb1 01be
00000170: b66a 9a38 bbd4 293d fb1f e5bc b194 40bd
00000180: 764e 923a 490c 433d 8526 b03c 3942 00bc
00000190: 224c e73d 4576 e33c b13f 8c3c 363a 003d
000001a0: 0ac2 c93c f647 70bc cc9b a23d 64e6 853d
000001b0: fabe bf3a 84bd cebd 55ee 18bd b187 403d
000001c0: 545b 463d dce5 a5bd b56e b43c 147e 62bc
000001d0: 8f8b 8d3d 15e9 fbbc 84ea c53c fff5 f5bc
000001e0: 5bde 8f3d 3a30 2cbd 5b10 04bd a3c1 513d
000001f0: 3ab0 8b3d 31fa 943d bb34 ca3c a906 bdbd
00000200: 3d50 ad3d ff40 413d 0bdc cebb 4627 86bc
00000210: 837d f4bd 4b53 d2bd 283e 72bd f255 363d
00000220: 8579 40bd 2444 5fbd cfee eebd ca3b 21bb
00000230: 004b 2a3b 0603 0cbd 97de 96bb 9cd9 aabd
00000240: 5dbe c63d 1218 713d 5955 0ebc 7799 163e
00000250: 5f2c c3bd f18d 1b3d 2c51 d5bd cd33 96bd
00000260: e823 843c 2f5e 5a3d bc77 93bc f481 c93c
00000270: e8c4 ba3b 33f8 073b 252d 20bb 48c9 da3d
00000280: 2a30 783d 4e2d a2bd 0666 3fbd 71b2 a0bd
00000290: f764 81bd 8d1e 813d df15 533c 13b6 803b
000002a0: cc1a bfbc d7fe 05bd 2147 19be b22a 2b3d
000002b0: da61 3e3d 1901 4a3e f516 6e3d aa66 3cbd
000002c0: e8c0 51bd 17f7 41bd a87b f9bc f24d 00bd
000002d0: bc46 e83c 5c57 84bd 93aa b93c 4def b9bc
000002e0: b81b 8b3c 7798 de3c 9e47 99bd a270 d3bb
000002f0: b0d8 b03d 4f60 c63c dda1 1abc 1977 703c
00000300: 0596 bf3d 2b24 8e3c 34a8 0c3e 9afa 09bd
00000310: 46e2 26ba 4be5 b0bc c991 783d 9cc4 86bd
00000320: de94 fcbd 2071 9c3d e7c6 a33d d089 75b9
00000330: 4c7a e23d 5d9a 4e3c 931f c5bd a5e9 9fbc
00000340: 9dc4 003b ebc7 b03b a09f 54bd 7b12 1abe
00000350: 5987 b6bd 6edf 883d d19a cfbc a311 823c
00000360: dc2b 8abb 0e42 06bd 72e6 683d c200 aabc
00000370: a2b4 04bd ecda b2bd 801d e93b 2733 733d
00000380: ecdd 36bc 2e52 ea3c 5e36 ae3d 5f50 f43d
00000390: e6b7 b7b9 cc23 a1bd e179 97bd 1f33 873d
000003a0: 06b8 bbbd 1f43 f7bd 5109 23bb bb9e d7bc
000003b0: 6e42 f9bc b9c6 5cbc cfdb a83d f33d 9cbd
000003c0: 96c1 eabb 091a 6a3d 0587 973d 666e 803c
000003d0: f0b8 92bc 6608 05bd 1cd3 33bc 06aa 04bd
000003e0: ac2d 9c3d c650 e93d b7eb 55bd 9aea 25be
000003f0: 7ac4 193c 1f0a fcbc fa27 a03d f444 1dbe

network_body._body_endoder.seq_layers.4.bias f4 [256]
0.0035902045 0.009391256 -0.0034780002 0.006984514 -0.0010021981 0.004828092 0.0016909117 0.0060031298
0.0057735112 0.002275443 0.006034185 0.007576271 0.0012369822 0.002622082 0.009382204 0.0060700173
-0.002511247 0.007262546 0.0074717887 0.0088018095 0.001643249 0.0041510435 -0.001005564 0.0104074385
0.00141416 0.001645978 0.0064376253 -0.005316149 0.0072985385 0.004937196 0.0053511523 0.012431649
0.008748212 0.0068167164 0.0041903383 0.0053352593 -0.0011503648 0.0017699079 0.009288085 -0.0034774004
0.0024426226 0.0052257334 0.0039780475 -0.0029784788 0.0055198716 0.009868168 0.0040910672 -0.0005575469
0.008079092 -0.0031079433 -0.0063419095 0.0053223586 -0.0045025824 -0.003977036 0.007172719 -0.002616282
0.0062006535 0.011604131 0.009620274 0.0032606276 0.008691278 -0.0016606273 0.0024878716 0.0038098644
0.004006556 0.0060359593 0.0061843544 0.0073032025 0.0015322677 0.0007401622 0.0076870485 0.00136064
0.00667152 -0.0026031015 0.0055275313 -0.00045304888 0.004433381 0.0021430878 -0.00016096454 0.006912164
0.0047115437 0.009524154 0.0113381855 0.010204835 -0.00019588239 0.0067584864 -0.0019146911 0.0029953863
0.0067118625 0.005235074 0.0028412596 0.0005995494 0.0006800333 0.0059945164 0.013687068 -0.0020150316
0.00513781 0.0056485264 0.006365654 0.0014491196 0.009744997 0.005001879 0.001238805 0.005611797
0.00025680318 -0.0018032439 0.0089895185 0.01086797 0.0043904777 0.0014093904 0.009606132 0.0042569702
-0.0033002195 0.0021330155 0.0015339645 0.004831992 0.0067740483 -0.0008368162 0.0037423235 0.0015740693
0.0075789127 0.0042790156 0.007934691 0.0034311535 -0.006180274 0.008603595 -0.00074924994 0.017853845
-0.004097885 -0.005184453 0.010633508 0.0011926988 -0.0020786715 0.00062611635 0.0030771864 -0.0033550563
-0.0017480168 0.0014937541 0.006164686 0.002004444 0.0017737142 0.0051048757 0.005793701 0.007748969
0.006075249 0.0047608055 0.007862386 0.004363913 0.010731451 0.00775221 0.0045704246 0.006403281
-0.001195398 0.00040102736 0.00062980864 0.012105116 0.005635646 -0.003655409 -0.00636918 0.010332139
0.007185464 -0.0016985509 0.011633451 0.0030067684 6.594433e-05 0.0064804056 0.0026907313 0.0067516756
0.010062679 -0.0017797371 0.0028776233 0.010510284 0.0071161147 0.005520253 0.0059963376 -0.002119588
0.0030954909 0.005496574 0.007124517 0.0048785033 0.0023578126 -0.0010824446 -0.0021689746 0.009174815
-0.0021079662 0.0076550534 0.00202478 0.003803088 0.004737511 0.008951501 0.009561875 0.003546999
0.0028050893 0.0034776088 0.0063214786 0.0040547205 0.0100301895 0.016236769 0.0051399223 -0.000439085
0.0013609744 0.007048697 0.005624248 0.004294756 0.009082054 0.0049990383 0.0041921143 0.0054546176
-0.000881412 0.00042808906 0.0016358644 3.638931e-05 0.0032097222 0.0050206077 0.0018099156 0.0052120946
0.0040653967 0.0035701152 0.0005469831 -0.0051649944 0.0006180968 0.009209023 -0.005946907 0.0041897213
-0.0022728217 -0.008557713 0.007364601 -0.00485431 0.008347205 0.003322044 0.00052971544 0.008405463
0.003865737 0.0009920157 0.0031819846 -0.0069859507 0.009380138 0.011272032 0.0010590324 -0.006720074
0.0072600483 0.001025083 -0.0018419323 0.003519561 0.0025299117 0.007220273 0.0048908745 0.0010315768
0.007020954 -0.0004903385 0.0017233181 0.0046834536 0.0057492573 0.005289035 -0.0001712406 0.004883618
00000000: a349 6b3b c8dd 193c 29ef 63bb 5ade e43b
00000010: 305c 83ba f934 9e3b 95a1 dd3a e7b5 c43b
00000020: b92f bd3b 991f 153b 6aba c53b 5e42 f83b
00000030: 3c22 a23a 3cd7 2b3b d1b7 193c ffe6 c63b
00000040: bc93 24bb a7fa ed3b e8d5 f43b 7735 103c
00000050: 4962 d73a 7a05 883b 21cd 83ba f683 2a3c
00000060: 565b b93a dbbd d73a b7f2 d23b 1733 aebb
00000070: 9428 ef3b 34c8 a13b b858 af3b 1dae 4b3c
00000080: a954 0f3c c35e df3b 1b4f 893b 66d3 ae3b
00000090: d6c7 96ba 41fc e73a 0d2d 183c 19e5 63bb
000000a0: 6814 203b a13c ab3b 485a 823b 9532 43bb
000000b0: 0ae0 b43b 19ae 213c 5c0e 863b 5728 12ba
000000c0: 2b5e 043c a3ae 4bbb cbcf cfbb 2e67 ae3b
000000d0: 668a 93bb cc51 82bb 2109 eb3b ee75 2bbb
000000e0: da2e cb3b 411f 3e3c 5b9e 1d3c 41b0 553b
000000f0: dd65 0e3c 68a9 d9ba 8f0b 233b ebae 793b
00000100: 6d49 833b 4cc9 c53b 20a6 ca3b b44f ef3b
00000110: 5fd6 c83a 7207 423a a3e3 fb3b 8157 b23a
00000120: c49c da3b cc98 2abb 4b20 b53b 3187 edb9
00000130: e545 913b 0c73 0c3b 97c8 28b9 6f7f e23b
00000140: 4b63 9a3b 320b 1c3c ccc3 393c 2e32 273c
00000150: c765 4db9 4b76 dd3b 5ff6 faba 3e4e 443b
00000160: 2fef db3b fc8a ab3b 6d34 3a3b 142b 1d3a
00000170: 4344 323a a66d c43b b93f 603c 9f0e 04bb
00000180: 135b a83b 4617 b93b fa96 d03b 63f0 bd3a
00000190: 7ba9 1f3c cde6 a33b 665f a23a 2ae3 b73b
000001a0: 8aa3 8639 d35a ecba c648 133c 920f 323c
000001b0: ffdd 8f3b 4bbb b83a 0a63 1d3c 0e7e 8b3b
000001c0: 7f48 58bb 10ca 0b3b 4f0f c93a b055 9e3b
000001d0: d6f8 dd3b c95d 5bba c541 753b 0051 ce3a
000001e0: 8758 f83b fc36 8c3b 8200 023c 34dd 603b
000001f0: e583 cabb 18f6 0c3c 5069 44ba 3a42 923c
00000200: 8d47 86bb 58e2 a9bb 2a38 2e3c 5554 9c3a
00000210: 523a 08bb f521 243a 9faa 493b 81e0 5bbb
00000220: b61d e5ba 12ca c33a 2201 ca3b fd5c 033b
00000230: f97b e83a cd46 a73b 16d9 bd3b 10eb fd3b
00000240: e212 c73b 8800 9c3b 3dd1 003c 28ff 8e3b
00000250: f8d2 2f3c 4006 fe3b 80c3 953b 9dd2 d13b
00000260: e7ae 9cba fb40 d239 be19 253a 8954 463c
00000270: 3aab b83b 968f 6fbb 8eb4 d0bb 2248 293c
00000280: 0a74 eb3b e9a1 deba 3b9a 3e3c 340d 453b
00000290: 984b 8a38 9559 d43b fb56 303b 293d dd3b
000002a0: efdd 243c 1146 e9ba 8296 3c3b 5433 2c3c
000002b0: 4c2e e93b 3de3 b43b ed7c c43b c9e8 0abb
000002c0: b8dd 4a3b 9b1c b43b c874 e93b dadb 9f3b
000002d0: 8885 1a3b d0e0 8dba 5b25 0ebb f751 163c
000002e0: ce25 0abb 3ed7 fa3b 2cb2 043b 3b3d 793b
000002f0: 1f3d 9b3b 51a9 123c 69a9 1c3c c574 683b
00000300: 97d5 373b 98e8 633b 6824 cf3b 76dd 843b
00000310: aa55 243c f902 853c cb6c a83b fe34 e6b9
00000320: b962 b23a c2f8 e63b 9d4b b83b 06bb 8c3b
00000330: e5cc 143c f9ce a33b 015e 893b a6bc b23b
00000340: 8f0e 67ba 2471 e039 806a d63a b9a0 1838
00000350: 345a 523b e983 a43b b13a ed3a 38ca aa3b
00000360: 0537 853b 98f8 693b 6a63 0f3a 1d3f a9bb
00000370: c607 223a 71e1 163c 46de c2bb ee49 893b
00000380: 9ff3 14bb a635 0cbc c052 f13b e710 9fbb
00000390: b7c2 083c a6b6 593b 9adc 0a3a 11b7 093c
000003a0: 4e58 7d3b 8606 823a d888 503b 67ea e4bb
000003b0: 26af 193c 54ae 383c 3bcf 8a3a 1134 dcbb
000003c0: b3e5 ed3b 145c 863a fe6c f1ba 6fa8 663b
000003d0: e0cc 253b 0a98 ec3b a143 a03b f935 873a
000003e0: 0810 e63b 0f8a 00ba f6e0 e13a a877 993b
000003f0: 4464 bc3b a44f ad3b 0c8f 33b9 c206 a03b

action_model._continuous_distribution.log_sigma f4 [1, 2]
-0.07537388 0.0136460215
00000000: 9f5d 9abd 9093 5f3c

action_model._continuous_distribution.mu.weight f4 [2, 256]
0.03139279 0.028915366 -0.01140981 0.028805945 -0.03333139 0.012630254 -0.017524995 -0.058832962
0.013096185 0.0061080577 0.019015228 -0.0046307147 -0.030318558 -0.0021925103 0.05208557 0.015128092
0.00863802 0.054578107 0.024296887 0.026527954 -0.031348675 0.01713681 -0.013316433 -0.03632386
-0.006783612 -0.004347884 -0.00159548 0.0045224517 0.022132276 0.018863933 0.026191002 0.018986892
0.00025886708 0.0002637558 0.013896505 -0.009957834 -0.036647893 0.0026570843 0.0017134158 -0.017274324
-0.0018062517 0.027813466 0.02996713 -0.01943429 0.023023957 0.0076455474 0.030340828 -0.049219787
-0.0016628496 -0.0179716 -0.02414002 0.007029511 -0.035057552 -0.032039512 0.039023858 -0.0030991274
-0.0027316774 0.04713107 -0.0013895623 -0.02117434 0.017615845 0.00500104 -0.024860501 -0.008718497
0.02330701 0.01643862 0.029904032 -0.0055334666 -0.03573202 0.008084429 0.02985367 -0.018815247
-0.007766312 -0.017785845 0.021327179 -0.034432188 0.019417513 -0.0019893385 0.018860089 0.024998315
-0.002066501 0.011495695 0.009402492 0.017013619 -0.01806382 -0.015488517 0.0054060975 -0.027442107
0.0054036696 -0.0030145154 -0.03825797 -0.022299321 -0.033262707 -0.019696359 0.03786024 -0.036189023
0.011790263 0.0041830866 0.0056628142 0.024244297 -0.013321581 -0.0009317457 -0.0327376 -0.012037388
0.010659722 0.0003806132 -0.025486203 -0.00032205638 0.011573879 -0.04364738 0.017717805 -0.058745634
-0.041014146 -0.010839392 -0.025746597 0.014394544 0.009912988 -0.011068858 0.012066764 -0.02573098
-0.063920476 0.008371423 -0.021867631 -0.035969116 -0.014254825 0.043859072 -0.044952117 0.026133567
-0.00942101 -0.015675979 0.021798732 -0.041809775 -0.01982195 -0.051178418 0.031917237 -0.015981415
-0.04225788 0.016931085 0.010972892 -0.007475493 -0.019805882 -0.014277902 -0.046130124 0.028589668
-0.032207236 -0.0017689969 0.00031976288 -0.0047492418 0.033294808 -0.010027559 0.015961137 0.033161394
-0.031443078 0.02812791 -0.013069805 -0.0058818855 0.01767231 -0.025927193 -0.0010926452 0.029607061
0.025226811 -0.02559218 0.004033164 -0.0016298501 0.027765311 0.026660234 -0.008124449 -0.014104399
0.04154588 -0.027154427 -0.0030412597 0.018433005 0.021222832 0.007057953 -0.013532085 0.008799321
-0.039654117 -0.0020917873 0.01891988 0.030779455 -0.02668378 -0.009792746 -0.043051638 -0.026422553
-0.0026449566 0.026528886 -0.028190102 0.000856717 0.022387879 0.027263006 -0.038565032 0.004091652
-0.024370968 0.009932944 0.008130599 -0.048357204 0.04734717 0.023654478 -0.017580932 -0.00070972077
-0.015971256 0.005159733 0.016460387 -0.029737424 -0.005786108 -0.0068956637 -0.0012799195 0.00069781614
-0.016617939 0.011722451 0.0037076506 -0.020327775 0.022259466 0.029748896 -0.013621776 0.029936695
0.009477478 0.018079445 -0.011858796 0.015634384 -0.015947985 0.015601171 0.00220278 0.015367942
0.010585571 -0.005225777 0.019489193 -0.026084078 -0.026227599 0.021250993 -0.031003075 0.004259079
-0.022756558 0.017748926 -0.021252524 -0.015492945 0.019631343 0.044012304 -0.0014340518 -0.01845948
0.0048555234 -0.025538491 -0.01730905 -0.024519358 -0.039750766 0.02810389 0.00548323 -0.01537461
0.007255637 -0.006772813 -0.01277364 0.0159341 0.011373234 -0.016325071 -0.017016975 -0.026888749
00000000: ba95 003d ebdf ec3c 36f0 3abc 72fa eb3c
00000010: 7f86 08bd 20ef 4e3c 9490 8fbc d5fa 70bd
00000020: 6291 563c 1a26 c83b d3c5 9b3c 40bd 97bb
00000030: a05e f8bc 38b0 0fbb ae57 553d d1db 773c
00000040: 7b86 0d3c 4b8d 5f3d 440a c73c 2751 d93c
00000050: 7867 00bd 7f62 8c3c 2b2d 5abc 54c8 14bd
00000060: 1049 debb b278 8ebb 6d1f d1ba 1331 943b
00000070: bf4e b53c 8988 9a3c 838e d63c 668a 9b3c
00000080: 8db8 8739 b448 8a39 2bae 633c 2f26 23bc
00000090: 1a1c 16bd 7a22 2e3b b294 e03a e282 8dbc
000000a0: c0bf ecba 11d9 e33c a07d f53c a934 9fbc
000000b0: bd9c bc3c 8087 fa3b 548d f83c b09a 49bd
000000c0: f9f3 d9ba 2d39 93bc 4bc1 c5bc d057 e63b
000000d0: 8298 0fbd dd3b 03bd 7bd7 1f3d bb1a 4bbb
000000e0: f105 33bb 820c 413d f921 b6ba cf75 adbc
000000f0: 1b4f 903c c4df a33b 40a8 cbbc 07d8 0ebc
00000100: 58ee be3c 49aa 863c 4df9 f43c 1552 b5bb
00000110: bd5b 12bd 8e74 043c af8f f43c 6f22 9abc
00000120: 8c7c febb 9fb3 91bc 56b6 ae3c c408 0dbd
00000130: 7a11 9f3c 905f 02bb 7980 9a3c 44c9 cc3c
00000140: 226e 07bb 7158 3c3c e90c 1a3c 2560 8b3c
00000150: 94fa 93bc 8cc3 7dbc a225 b13b 45ce e0bc
00000160: 4411 b13b 2d8f 45bb 64b4 1cbd 11ad b6bc
00000170: 7a3e 08bd 425a a1bc 5713 1b3d f13a 14bd
00000180: f22b 413c 4612 893b 218f b93b fa9b c63c
00000190: c342 5abc 6540 74ba dd17 06bd 7738 45bc
000001a0: 1da6 2e3c 0a8d c739 71c8 d0bc add9 a8b9
000001b0: 5ea0 3d3c 98c7 32bd ee24 913c 439f 70bd
000001c0: 73fe 27bd b597 31bc 87ea d2bc 18d7 6b3c
000001d0: 166a 223c 285a 35bc adb3 453c c7c9 d2bc
000001e0: bde8 82bd 4b28 093c bf23 b3bc 5a54 13bd
000001f0: 128d 69bc 92a5 333d b61f 38bd 1016 d63c
00000200: 945a 1abc e96a 80bc 4193 b23c ba40 2bbd
00000210: a461 a2bc 76a0 51bd a6bb 023d 75eb 82bc
00000220: 9916 2dbd 0fb3 8a3c a5c7 333c fbf4 f4bb
00000230: f23f a2bc dded 69bc f1f2 3cbd e134 ea3c
00000240: bceb 03bd b0dd e7ba d9a5 a739 879f 9bbb
00000250: 2360 083d a14a 24bc eec0 823c 3ed4 073d
00000260: 75ca 00bd 816c e63c bc22 56bc d5bc c0bb
00000270: 85c5 903c 4465 d4bc 1737 8fba 828a f23c
00000280: 75a8 ce3c b1a6 d1bc a228 843b b2a0 d5ba
00000290: 1474 e33c 9066 da3c 691c 05bc 2316 67bc
000002a0: 032c 2a3d f672 debc df4f 47bb d000 973c
000002b0: 81db ad3c 6746 e73b aeb5 5dbc 072b 103c
000002c0: 5b6c 22bd 5e16 09bb ddfd 9a3c 3225 fc3c
000002d0: f197 dabc c171 20bc ea56 30bd 1c74 d8bc
000002e0: 0257 2dbb 1b53 d93c eeee e6bc 4e95 603a
000002f0: c966 b73c ab56 df3c 5ef6 1dbd 4413 863b
00000300: a0a5 c7bc c9bd 223c 3436 053c 3412 46bd
00000310: 1bef 413d 09c7 c13c e305 90bc 8e0c 3aba
00000320: 27d6 82bc fa12 a93b efd7 863c e69b f3bc
00000330: 6499 bdbb 05f5 e1bb f9c2 a7ba a6ed 363a
00000340: 5822 88bc 860f 403c 0efc 723b 6f86 a6bc
00000350: 7c59 b63c f5b3 f33c df2d 5fbc cd3d f53c
00000360: 6d47 1b3c 581b 943c 654b 42bc ae13 803c
00000370: 59a5 82bc 0e9c 7f3c 845c 103b d2c9 7b3c
00000380: 1a6f 2d3c ff3c abbb cda7 9f3c 47ae d5bc
00000390: 43db d6bc 9016 ae3c 29fa fdbc bf8f 8b3b
000003a0: f66b babc 3266 913c c619 aebc 1fd6 7dbc
000003b0: e9d1 a03c 3f46 343d cbf6 bbba 5638 97bc
000003c0: 151b 9f3b 1936 d1bc b5cb 8dbc d2dc c8bc
000003d0: b3d1 22bd 213a e63c abac b33b cae5 7bbc
000003e0: b2c0 ed3b 79ee ddbb 8848 51bc 3b88 823c
000003f0: cd56 3a3c 28bc 85bc 2f67 8bbc cb45 dcbc

action_model._continuous_distribution.mu.bias f4 [2]
0.0044741957 0.005606193
00000000: 469c 923b 28b4 b73b
