results/valami2/AgentController/AgentController-1578.onnx (onnx, 140845 bytes, 7 tensors)

network_body._body_endoder.seq_layers.0.weight f4 [128, 128]
0.05044768 -0.003434594 0.04216854 0.059405234 0.05137751 0.02583433 -0.036333922 -0.11333618
0.02243672 0.08702891 0.0031201772 -0.05447359 0.061099686 -0.052631017 -0.029110778 -0.078190066
-0.0116927605 0.06087552 0.06370339 0.061069127 -0.0015299561 -0.06976825 0.09330566 -0.06976011
0.018839015 0.007203242 0.052340463 0.014104519 -0.0075303693 0.00040399938 -0.116678536 0.02009308
0.19642861 0.061504256 -0.015860463 -0.0066167056 0.11874728 -0.097255915 -0.07557298 -0.09462231
0.10383203 0.037111536 -0.033538524 -0.050530057 0.17139402 -0.069786005 -0.08416157 0.13663365
0.008984082 0.0013115368 0.014307622 0.023695176 0.11364355 -0.10848869 0.007054857 -0.06970328
-0.050804343 0.087999 0.1213274 -0.32252067 -0.004810591 -0.052986022 0.06279824 -0.119156696
-0.09433891 -0.17922768 0.0648512 0.07102532 -0.011252027 -0.06858573 -0.11977349 0.054897614
-0.05068606 0.041623447 -0.016869852 0.055658452 -0.14961813 0.10955639 0.11863359 0.0049811606
-0.08684463 -0.010192624 -0.0020487523 -0.00416723 -0.111452974 0.12782054 -0.090496175 0.030882463
-0.084595114 -0.17355415 0.11455904 0.14025407 0.052237887 0.07145584 0.03516637 0.19438575
-0.0530135 -0.07073818 0.019089043 0.08226603 -0.045645025 -0.03667256 -0.1856324 0.13541083
0.06235015 -0.08491742 -0.019021882 0.035399556 0.008650111 -0.09465123 0.052314058 -0.13125795
-0.02962553 0.20069283 -0.013394836 0.018465392 -0.008311107 0.06053154 -0.13114713 -0.01749696
-0.08313783 -0.17292634 0.0092066275 -0.030922972 0.01969635 -0.065007895 -0.009666512 0.17786849
-0.033167187 -0.009328489 0.013007806 -0.114301816 -0.036931235 -0.15757675 -0.08379062 -0.037780073
-0.008008807 -0.06400429 -0.1340312 0.10844553 -0.17948242 -0.0146527905 -0.031470414 -0.1109278
0.023567135 -0.011159341 -0.1340678 0.10288331 0.10449701 0.0015117236 -0.10524061 0.025947431
0.10339636 0.012561985 0.13992533 -0.077875145 -0.039764818 0.15693638 -0.13923162 0.121894725
-0.12046247 -0.033193823 -0.11028274 -0.002263932 -0.05241146 0.0155824665 -0.07284597 0.108163856
-0.1367665 -0.019326206 0.08421592 0.03821877 -0.15988728 0.17066023 0.12629904 -0.0029601832
-0.0044943714 0.03664386 -0.038284652 0.18323837 0.18280253 -0.013627562 -0.17198646 -0.11073778
0.113223925 -0.052311197 0.0395663 0.063163914 0.024302565 0.17127651 -0.15604019 -0.0068866047
-0.0057375887 -0.058025524 -0.0010023515 -0.10577638 0.026370458 -0.023491973 0.00985185 -0.013545026
-0.05791331 0.016531968 -0.08296994 -0.014567714 -0.05474944 0.0011977975 0.14485693 -0.048432
-0.22749433 -0.013976927 -0.1289824 -0.16339222 0.0018226325 0.016242288 0.040081397 -0.078955024
-0.08476669 -0.14363693 0.02551494 0.067353085 0.0264495 -0.033855412 -0.06095417 0.2165213
-0.16127762 -0.06868927 0.07325851 0.02331993 0.048061833 0.0144235855 -0.0149374055 -0.06077384
0.07180497 0.04074611 -0.04643876 -0.06088618 0.041439865 0.019295428 0.1973282 0.15195274
-0.011881579 0.028593626 0.014999668 0.0042822757 -0.022877451 -0.23010918 -0.061557088 0.0022440318
0.12692742 0.089178525 -0.045991514 -0.013794698 -0.0020729525 0.017289318 -0.14110382 -0.017978568
00000000: 3aa2 4e3d ed16 61bb ebb8 2c3d e752 733d
00000010: 3971 523d 84a2 d33c e1d2 14bd cd1c e8bd
00000020: 36cd b73c 373c b23d e37b 4c3b b31f 5fbd
00000030: aa43 7a3d 9f93 57bd ba79 eebc 1d22 a0bd
00000040: fe92 3fbc 9c58 793d ec76 823d 9f23 7a3d
00000050: cf88 c8ba a8e2 8ebd 0a17 bf3d 63de 8ebd
00000060: 4754 9a3c 2c09 ec3b f462 563d a416 673c
00000070: 51c1 f6bb e1cf d339 28f5 eebd 3e9a a43c
00000080: 9524 493e e3eb 7b3d cded 81bc f3d0 d8bb
00000090: c631 f33d 1c2e c7bd 02c6 9abd 57c9 c1bd
000000a0: e3a5 d43d 4402 183d b15f 09bd 9bf8 4ebd
000000b0: ea81 2f3e f7eb 8ebd e75c acbd b1e9 0b3e
000000c0: f931 133c dfe7 ab3a 846a 6a3c 631c c23c
000000d0: f3bd e83d 512f debd 6e2c e73b 98c0 8ebd
000000e0: 3718 50bd d238 b43d 807a f83d 6e21 a5be
000000f0: 2aa2 9dbb df07 59bd 5d9c 803d 6d08 f4bd
00000100: c234 c1bd 7687 37be b5d0 843d b975 913d
00000110: 6c5a 38bc ad76 8cbd ce4b f5bd 52dc 603d
00000120: 309c 4fbd 597d 2a3d a532 8abc 1efa 633d
00000130: 7f35 19be 1a5f e03d 2bf6 f23d 0139 a33b
00000140: 99db b1bd f7fe 26bc 5c44 06bb 428d 88bb
00000150: 7541 e4bd 63e3 023e 0f56 b9bd 38fd fc3c
00000160: 3440 adbd 2eb8 31be ee9d ea3d c39e 0f3e
00000170: 65f7 553d 7057 923d 9d0a 103d 0f0d 473e
00000180: af24 59bd 2edf 90bd a060 9c3c 187b a83d
00000190: 47f6 3abd f735 16bd 6b16 3ebe 23a9 0a3e
000001a0: df62 7f3d 2fe9 adbd c7d3 9bbc 20ff 103d
000001b0: 32b9 0d3c 81d8 c1bd 4447 563d 7c68 06be
000001c0: 3db1 f2bc 6c82 4d3e 0476 5bbc bc44 973c
000001d0: 4f2b 08bc ecef 773d 6f4b 06be c955 8fbc
000001e0: 2b44 aabd 9a13 31be 65d7 163c 2c52 fdbc
000001f0: 3d5a a13c dc22 85bd 4a60 1ebc 2823 363e
00000200: 51da 07bd 85d6 18bc b11e 553c 1217 eabd
00000210: 3545 17bd cd5b 21be 6b9a abbd 47bf 1abd
00000220: 5f37 03bc ae14 83bd 7a3f 09be b118 de3d
00000230: 3dca 37be 4212 70bc 1fe7 00bd 1d2e e3bd
00000240: dd0f c13c abd5 36bc 1249 09be 7cb4 d23d
00000250: 8702 d63d 0725 c63a 6488 d7bd b58f d43c
00000260: 79c1 d33d c9d0 4d3c 9648 0f3e 017d 9fbd
00000270: 6fe0 22bd eeb3 203e bc92 0ebe f1a3 f93d
00000280: 07b5 f6bd 3ff6 07bd ebdb e1bd 7a5e 14bb
00000290: 66ad 56bd 9a4d 7f3c 4530 95bd 0385 dd3d
000002a0: 840c 0cbe fe51 9ebc 6579 ac3d 498b 1c3d
000002b0: 7eb9 23be 8ec1 2e3e 8954 013e a2ff 41bb
000002c0: 8545 93bb df17 163d 5ed0 1cbd d7a2 3b3e
000002d0: 9630 3b3e 2346 5fbc 381d 30be 7dca e2bd
000002e0: f2e1 e73d 4444 56bd 4610 223d 155c 813d
000002f0: 2c16 c73c 1c63 2f3e 00c9 1fbe 07a9 e1bb
00000300: 6202 bcbb 2cac 6dbd 5661 83ba 49a1 d8bd
00000310: dc06 d83c 3d72 c0bc a769 213c f5eb 5dbc
00000320: 8236 6dbd 0d6e 873c 25ec a9bd 6cad 6ebc
00000330: f340 60bd 6aff 9c3a 6055 143e a260 46bd
00000340: 46f4 68be 7bff 64bc f613 04be 4a50 27be
00000350: 66e5 ee3a 8c0e 853c 642c 243d 2cb3 a1bd
00000360: 299a adbd 8f15 13be b504 d13c 6af0 893d
00000370: 9fac d83c f9ab 0abd 14ab 79bd c2b7 5d3e
00000380: f625 25be f6ac 8cbd 8f08 963d 7009 bf3c
00000390: 7cdc 443d e750 6c3c 05bc 74bc fded 78bd
000003a0: 7c0e 933d 65e5 263d 9236 3ebd c963 79bd
000003b0: d9bc 293d 7211 9e3c 6710 4a3e 8099 1b3e
000003c0: f4aa 42bc 2e3d ea3c 2bc1 753c 5552 8c3b
000003d0: 7e69 bbbc bea1 6bbe 4923 7cbd 9b10 133b
000003e0: 43f9 013e 3ba3 b63d 9961 3cbd 2803 62bc
000003f0: 5fda 07bb 54a2 8d3c 857d 10be ca47 93bc

network_body._body_endoder.seq_layers.0.bias f4 [128]
0.0 0.0 0.0 0.0 0.0 0.0 0.0 0.0
0.0 0.0 0.0 0.0 0.0 0.0 0.0 0.0
0.0 0.0 0.0 0.0 0.0 0.0 0.0 0.0
0.0 0.0 0.0 0.0 0.0 0.0 0.0 0.0
0.0 0.0 0.0 0.0 0.0 0.0 0.0 0.0
0.0 0.0 0.0 0.0 0.0 0.0 0.0 0.0
0.0 0.0 0.0 0.0 0.0 0.0 0.0 0.0
0.0 0.0 0.0 0.0 0.0 0.0 0.0 0.0
0.0 0.0 0.0 0.0 0.0 0.0 0.0 0.0
0.0 0.0 0.0 0.0 0.0 0.0 0.0 0.0
0.0 0.0 0.0 0.0 0.0 0.0 0.0 0.0
0.0 0.0 0.0 0.0 0.0 0.0 0.0 0.0
0.0 0.0 0.0 0.0 0.0 0.0 0.0 0.0
0.0 0.0 0.0 0.0 0.0 0.0 0.0 0.0
0.0 0.0 0.0 0.0 0.0 0.0 0.0 0.0
0.0 0.0 0.0 0.0 0.0 0.0 0.0 0.0
00000000: 0000 0000 0000 0000 0000 0000 0000 0000
00000010: 0000 0000 0000 0000 0000 0000 0000 0000
00000020: 0000 0000 0000 0000 0000 0000 0000 0000
00000030: 0000 0000 0000 0000 0000 0000 0000 0000
00000040: 0000 0000 0000 0000 0000 0000 0000 0000
00000050: 0000 0000 0000 0000 0000 0000 0000 0000
00000060: 0000 0000 0000 0000 0000 0000 0000 0000
00000070: 0000 0000 0000 0000 0000 0000 0000 0000
00000080: 0000 0000 0000 0000 0000 0000 0000 0000
00000090: 0000 0000 0000 0000 0000 0000 0000 0000
000000a0: 0000 0000 0000 0000 0000 0000 0000 0000
000000b0: 0000 0000 0000 0000 0000 0000 0000 0000
000000c0: 0000 0000 0000 0000 0000 0000 0000 0000
000000d0: 0000 0000 0000 0000 0000 0000 0000 0000
000000e0: 0000 0000 0000 0000 0000 0000 0000 0000
000000f0: 0000 0000 0000 0000 0000 0000 0000 0000
00000100: 0000 0000 0000 0000 0000 0000 0000 0000
00000110: 0000 0000 0000 0000 0000 0000 0000 0000
00000120: 0000 0000 0000 0000 0000 0000 0000 0000
00000130: 0000 0000 0000 0000 0000 0000 0000 0000
00000140: 0000 0000 0000 0000 0000 0000 0000 0000
00000150: 0000 0000 0000 0000 0000 0000 0000 0000
00000160: 0000 0000 0000 0000 0000 0000 0000 0000
00000170: 0000 0000 0000 0000 0000 0000 0000 0000
00000180: 0000 0000 0000 0000 0000 0000 0000 0000
00000190: 0000 0000 0000 0000 0000 0000 0000 0000
000001a0: 0000 0000 0000 0000 0000 0000 0000 0000
000001b0: 0000 0000 0000 0000 0000 0000 0000 0000
000001c0: 0000 0000 0000 0000 0000 0000 0000 0000
000001d0: 0000 0000 0000 0000 0000 0000 0000 0000
000001e0: 0000 0000 0000 0000 0000 0000 0000 0000
000001f0: 0000 0000 0000 0000 0000 0000 0000 0000

network_body._body_endoder.seq_layers.2.weight f4 [128, 128]
-0.08856061 0.027383046 0.025092755 -0.047503345 0.017190382 -0.049922463 -0.008540754 0.058446176
-0.075544395 0.016500706 0.015181954 0.069287874 -0.13160999 -0.018683733 0.09240422 0.004466194
-0.017842406 0.12029171 -0.101158954 -0.019032018 0.051375568 -0.018591339 0.050617628 -0.036787163
0.11503648 0.2012952 -0.12618996 -0.07708026 -0.083388604 0.10657152 -0.06411852 0.13195328
-0.059857138 0.04713735 0.12934925 -0.023288274 0.05902426 -0.19083838 0.14644745 -0.12913355
0.0079222405 0.091082856 -0.09808054 0.09176398 0.115701705 -0.08365857 0.11101 0.05285043
0.05253071 -0.046127144 0.04961401 0.01220086 -0.036371242 0.107272126 0.0053976937 -0.022334427
0.009657575 -0.05590301 -0.013487995 0.11323031 0.18322192 -0.15896145 0.108767055 -0.12024956
0.04939586 -0.049026426 0.057666436 0.26131204 0.17085254 -0.0484953 -0.036132958 0.118397534
-0.010064543 -0.11860266 -0.16422883 -0.21698308 -0.02743364 -0.09363524 -0.14188986 -0.079022214
0.11474606 0.1657562 -0.016279684 -0.09369669 0.06089329 -0.2919932 0.0062089292 -0.055139683
0.029270746 0.11643054 -0.05271005 -0.0119422395 0.22965385 -0.10508528 -0.11598777 -0.08175794
0.07275556 -0.023328314 0.13256632 0.042837743 0.047848247 -0.001322764 -0.18594323 0.047315504
-0.06411104 0.03169388 0.17846377 -0.077831216 -0.0036919243 -0.007982963 -0.021346305 -0.04473993
-0.022687746 -0.026019393 0.05021486 -0.08260987 0.015122243 -0.021890707 -0.074129224 -0.040817305
0.1266413 -0.00612469 -0.28714198 -0.0982111 -0.066512816 -0.018151756 -0.054686487 -0.16621481
-0.02545216 0.08003626 0.12635945 0.0010128074 0.08256311 0.084699176 -0.108987525 -0.11853566
0.23793134 -0.13394296 0.058467515 -0.016385771 0.0040704766 -0.07071122 0.020741573 -0.026451059
-0.042957705 0.006670507 -0.09036789 -0.067637615 -0.19025171 -0.13337694 -0.12443471 -0.06286628
-0.24274729 0.14718267 0.102793604 0.14787813 0.032910544 -0.02485529 0.03951849 -0.035758138
0.035734277 0.09578104 0.021857062 -0.056514643 -0.022416618 -0.03466291 0.01625095 0.14024296
-0.1240282 0.008839422 0.03740367 -0.022880394 0.05208373 0.040657923 -0.21218276 0.024347529
0.036685266 0.08435192 0.109514885 -0.0073889126 0.022520075 -0.090170905 0.044313353 0.019000243
-0.07759554 -0.04146422 -0.047942307 -0.08394856 -0.008498582 0.0781871 0.07745133 0.109790176
0.036389705 -0.112931296 0.16718884 -0.07280147 -0.08675423 0.10818079 0.13458638 0.15439469
-0.023159144 0.029515166 -0.13832082 -0.0024290907 -0.051019583 -0.04304923 -0.08110531 0.18763465
-0.018793391 -0.009512812 0.03243038 0.09508487 0.07796628 -0.06257392 -0.079380095 -0.11820225
-0.14563563 -0.07801722 0.07138499 -0.010924572 -0.027425986 0.04901571 0.023581868 -0.15711674
-0.18360646 0.05768548 0.041432463 0.076658525 -0.07543628 0.13606344 -0.23335344 0.19028762
-0.006296273 0.0006307946 0.0047544083 -0.056753654 -0.04959906 0.025224684 0.0381423 0.019271486
-0.030325534 0.050098624 -0.038722474 0.110754564 -0.020279797 -0.03301146 0.11139649 0.013646367
0.19509369 -0.20448256 -0.0635281 0.08054265 -0.042686835 0.043993503 0.001312146 -0.015443982
00000000: 445f b5bd 6952 e03c 528f cd3c de92 42bd
00000010: d8d2 8c3c 7f7b 4cbd 85ee 0bbc 4265 6f3d
00000020: 05b7 9abd 7d2c 873c bbbd 783c cde6 8d3d
00000030: c5c4 06be a10e 99bc 6c3e bd3d 2759 923b
00000040: 3d2a 92bc 805b f63d 6d2c cfbd 09e9 9bbc
00000050: 306f 523d dd4c 98bc 6e54 4f3d 23ae 16bd
00000060: 3f98 eb3d 5420 4e3e f137 01be 41dc 9dbd
00000070: a5c7 aabd 2b42 da3d 9250 83bd c31e 073e
00000080: c22c 75bd 1813 413d 2174 043e 0dc7 bebc
00000090: 6cc3 713d 236b 43be 52f6 153e 963b 04be
000000a0: 49cc 013c a689 ba3d 73de c8bd c1ee bb3d
000000b0: 04f5 ec3d 2f55 abbd 3659 e33d b179 583d
000000c0: 712a 573d d1ef 3cbd 0f38 4b3d 1ee6 473c
000000d0: 03fa 14bd 7db1 db3d 23df b03b b0f6 b6bc
000000e0: ce3a 1e3c 8efa 64bd c0fc 5cbc 4be5 e73d
000000f0: 879e 3b3e cac6 22be 43c1 de3d 6745 f6bd
00000100: 5053 4a3d efcf 48bd a433 6c3d b1ca 853e
00000110: f8f3 2e3e 02a3 46bd 2700 14bd 687a f23d
00000120: c1e5 24bc f4e5 f2bd 9a2b 28be d030 5ebe
00000130: 83bc e0bc d5c3 bfbd 934b 11be 66d6 a1bd
00000140: fbff ea3d febb 293e f95c 85bc 0de4 bfbd
00000150: 3e6b 793d 2280 95be 4674 cb3b 26da 61bd
00000160: 34c9 ef3c 2373 ee3d 7ee6 57bd 62a9 43bc
00000170: 612a 6b3e f436 d7bd ff8a edbd b570 a7bd
00000180: de00 953d 051b bfbc 77bf 073e a176 2f3d
00000190: 86fc 433d 9860 adba e767 3ebe e7cd 413d
000001a0: a64c 83bd 71d1 013d 35bf 363e f965 9fbd
000001b0: 36f4 71bb f9ca 02bc 72de aebc 3841 37bd
000001c0: a7db b9bc 9f26 d5bc 19ae 4d3d 5d2f a9bd
000001d0: 49c3 773c 2454 b3bc 10d1 97bd 0c30 27bd
000001e0: 42ae 013e a0b1 c8bb 4604 93be e722 c9bd
000001f0: df37 88bd feb2 94bc f0fe 5fbd 3734 2abe
00000200: 0c81 d0bc 0dea a33d 5f64 013e 2dc0 843a
00000210: d916 a93d c376 ad3d da34 dfbd d3c2 f2bd
00000220: 46a4 733e 5828 09be a27b 6f3d 743b 86bc
00000230: a261 853b 0bd1 90bd 3bea a93c e4af d8bc
00000240: 6bf4 2fbd 4594 da3b cd12 b9bd 9785 8abd
00000250: 58d1 42be f793 08be a0d7 febd 09c0 80bd
00000260: bf92 78be 0eb7 163e 7485 d23d 5d6d 173e
00000270: 35cd 063d 529d cbbc 24de 213d 2077 12bd
00000280: 1b5e 123d da28 c43d 950d b33c e67b 67bd
00000290: 0ea3 b7bc b2fa 0dbd b620 853c da9b 0f3e
000002a0: 7f02 febd 39d3 103c 9734 193d aa6f bbbc
000002b0: c055 553d ec88 263d 7046 59be 7874 c73c
000002c0: 4a43 163d b3c0 ac3d 5749 e03d b11e f2bb
000002d0: 057c b83c 86ab b8bd eb81 353d 66a6 9b3c
000002e0: 69ea 9ebd 63d6 29bd 275f 44bd 39ed abbd
000002f0: a33d 0bbc 8f20 a03d ce9e 9e3d acd9 e03d
00000300: 5f0d 153d 8648 e7bd 8d33 2b3e f018 95bd
00000310: 34ac b1bd e48d dd3d 03d1 093e a419 1e3e
00000320: 3fb8 bdbc cac9 f13c f9a3 0dbe 6131 1fbb
00000330: e9f9 50bd 6454 30bd 8a1a a6bd 4c23 403e
00000340: 99f4 99bc a0db 1bbc b8d5 043d dbbb c23d
00000350: c9ac 9f3d c126 80bd 0892 a2bd 0514 f2bd
00000360: 8221 15be 7ec7 9fbd 4b32 923d fafc 32bc
00000370: 76ac e0bc b2c4 483d c32e c13c 36e3 20be
00000380: 5503 3cbe 9c47 6c3d 16b5 293d 25ff 9c3d
00000390: 567e 9abd 3754 0b3e 34f4 6ebe c2da 423e
000003a0: f750 cebb e95b 253a deca 9b3b 8576 68bd
000003b0: 6228 4bbd ffa3 ce3c 1a3b 1c3d 3cdf 9d3c
000003c0: 416d f8bc 3734 4d3d 759b 1ebd 4ad3 e23d
000003d0: d121 a6bc 0637 07bd d823 e43d 0395 5f3c
000003e0: a4c6 473e e063 51be 051b 82bd 8bf3 a43d
000003f0: 64d8 2ebd 8832 343d 50fc ab3a c108 7dbc

action_model._continuous_distribution.log_sigma f4 [1, 2]
0.0 0.0
00000000: 0000 0000 0000 0000

action_model._continuous_distribution.mu.weight f4 [2, 128]
-0.020265907 0.00549978 0.0083696535 0.019279798 -0.03927301 0.006906205 -0.01742595 0.010709646
0.022902451 0.04182238 -0.0001395327 -0.005127512 0.018944645 0.005899968 0.011371094 -0.009920982
0.01623591 0.017401842 -0.005384796 -0.008081335 0.0013655624 0.008610908 -0.0017729633 0.009708743
0.0050229686 0.02108211 -0.029686553 0.016594773 0.004273237 -0.036553107 -0.012882774 -0.0029033136
-0.01845033 -0.0143425735 0.007559666 0.008792566 0.011917868 0.011491631 -0.046775308 -0.01325691
-0.019224888 0.041813344 -0.009058845 0.016472211 -0.0024763306 -0.022750312 0.01114906 -0.019517722
-0.026223848 -0.012597031 0.019902615 -0.01061721 0.02817948 -0.026519215 -0.013979348 -0.001268844
0.019053807 -0.0063401717 -0.023683717 -0.020091536 0.012195484 -0.02435972 0.02094168 0.023270497
-0.017993873 -0.008906431 -0.0067555713 -0.025925195 0.022642521 0.028275935 0.028453365 0.0026333353
0.01035927 0.02479416 -0.007176085 0.020861855 0.01136538 -0.005546223 0.030543432 -0.0028718102
0.007295611 0.0024412945 -0.003187077 -0.027851885 -0.0075804265 0.016719783 0.0042063883 0.022117684
-5.0660754e-05 -0.039347075 0.018677725 0.025124848 0.028557146 0.0098296655 -0.0112879 0.034714367
0.0009331351 0.010222494 -0.018228022 -0.011051915 -0.018361654 -0.008103162 -0.010652087 -0.0075070024
0.014314163 0.008198132 0.007930347 -0.019693704 -0.02190444 -0.01827085 -0.002093583 -0.018577583
-0.0012449815 -0.020021405 -0.00019235749 -0.0015209353 -0.024867602 0.037510406 -0.0082693035 -0.028538391
0.003233765 0.013722311 0.0006319433 -0.0036882863 -0.011350652 0.030156692 0.011523625 -0.0032550916
0.0010049444 0.011179112 0.0024606741 -0.020264748 0.0066796797 -0.0040736822 0.0081412215 0.0055238702
0.06612478 -0.022113172 -0.00063439965 0.017415136 -0.021625048 0.019857375 -0.018664034 0.013036671
0.00045981325 -0.042089153 0.014712078 -0.010460672 0.0045383344 -0.017891077 -0.0025910798 -0.0014753853
0.016774774 0.009060709 0.0063353195 -0.032422356 0.0039389073 -0.012485273 0.008483248 0.006582506
-0.0038102965 -0.020882683 -0.0061831116 -0.031833652 -0.01656596 0.018260289 -0.010986695 0.004776798
0.00883357 0.022249602 -0.0015970434 0.027535647 -0.009470674 0.030172858 -0.018635482 0.0063011236
0.029597927 0.020397494 -0.018193068 0.023681477 0.0016071808 -0.008645253 0.0018578814 0.058480393
0.009678747 -0.017142488 -0.022715488 -0.020151535 0.010016718 -0.01947579 0.008987911 0.0059579764
0.011210038 -0.008982829 0.017484045 -0.01922479 0.025639752 -0.0034768207 0.00014431616 0.016746592
-0.015736435 -0.033442177 -0.002588862 -0.004125253 0.011487173 -0.028864069 -0.018840512 0.0215201
0.028903473 0.007978092 0.0015531362 -0.013779217 0.011227011 -0.017260572 -0.016622534 0.048104417
0.010776748 0.014073798 0.016213264 0.023723714 0.00073949236 0.0006070032 -0.010955496 -0.015626183
-0.010601998 0.0050859223 -0.009896273 0.0067284205 -0.019151356 -0.0010413629 0.032571718 -0.026320918
0.002748553 -0.004784669 0.010176359 0.020747334 0.03851217 0.0017709372 -0.0041887118 -0.0013624247
0.02157992 -0.019513836 -0.021157265 0.029994477 0.0069627576 -0.036774162 -0.013495295 0.00053134956
0.023259427 0.008379451 0.017980171 -0.015094434 -0.0011075921 0.002684001 -0.005041597 -0.005526872
00000000: b004 a6bc 8037 b43b df20 093c abf0 9d3c
00000010: bcdc 20bd 724d e23b dec0 8ebc 8377 2f3c
00000020: ec9d bb3c f24d 2b3d 864f 12b9 b004 a8bb
00000030: cd31 9b3c 8554 c13b d34d 3a3c 9d8b 22bc
00000040: 2c01 853c 4f8e 8e3c f172 b0bb 9367 04bc
00000050: acfc b23a c414 0d3c c762 e8ba 6b11 1f3c
00000060: b797 a43b 64b4 ac3c 3731 f3bc c3f1 873c
00000070: 8306 8c3b b6b8 15bd 4512 53bc 8545 3ebb
00000080: 2525 97bc 1dfd 6abc 13b7 f73b b20e 103c
00000090: 2943 433c 6547 3c3c 7797 3fbd 8333 59bc
000000a0: 837d 9dbc 7844 2b3d 8d6b 14bc bbf0 863c
000000b0: ef49 22bb dd5e babc 8caa 363c a1e3 9fbc
000000c0: 65d3 d6bc c763 4ebc cf0a a33c cef3 2dbc
000000d0: a7d8 e63c d33e d9bc a309 65bc 574f a6ba
000000e0: bb16 9c3c 37c1 cfbb 5b04 c2bc 0197 a4bc
000000f0: 91cf 473c 098e c7bc e38d ab3c c5a1 be3c
00000100: e367 93bc 47ec 11bc d75d ddbb 1361 d4bc
00000110: cf7c b93c efa2 e73c 0817 e93c 0994 2c3b
00000120: edb9 293c 1f1d cb3c 5d25 ebbb 7be6 aa3c
00000130: dc35 3a3c 17bd b5bb 3836 fa3c fb34 3cbb
00000140: 0510 ef3b 20fe 1f3b 47de 50bb a329 e4bc
00000150: 3a65 f8bb edf7 883c bed5 893b 2530 b53c
00000160: 927c 54b8 662a 21bd 0702 993c a0d2 cd3c
00000170: adf0 e93c 9b0c 213c e2f0 38bc a730 0e3d
00000180: a39d 743a 3f7c 273c ef52 95bc 1713 35bc
00000190: 2e6b 96bc 20c3 04bc 1786 2ebc 4dfd f5bb
000001a0: f385 6a3c 7551 063c 49ee 013c b154 a1bc
000001b0: f170 b3bc c0ac 95bc 7f34 09bb 0430 98bc
000001c0: a62e a3ba ee03 a4bc 92b3 49b9 1f5a c7ba
000001d0: 24b7 cbbc 83a4 193d f97b 07bc 58c9 e9bc
000001e0: 93ed 533b 8bd3 603c ffa8 253a 2db7 71bb
000001f0: 16f8 39bc 2b0b f73c 96cd 3c3c 6053 55bb
00000200: 57b8 833a 9828 373c 4343 213b 4202 a6bc
00000210: 37e1 da3b 867c 85bb c262 053c 9501 b53b
00000220: 6e6c 873d af26 b5bc d74d 26ba 30aa 8e3c
00000230: 0327 b1bc efab a23c 51e5 98bc c397 553c
00000240: 1713 f139 ad65 2cbd ed0a 713c 3d63 2bbc
00000250: 4fb6 943b 4f90 92bc 1bcf 29bb b761 c1ba
00000260: 406b 893c 5e73 143c 8398 cf3b 4ecd 04bd
00000270: f311 813b 088f 4cbc 52fd 0a3c 10b2 d73b
00000280: 2bb6 79bb 2912 abbc b39b cabb 0164 02bd
00000290: 56b5 87bc 9a96 953c 8a01 34bc b086 9c3b
000002a0: aeba 103c cc44 b63c e253 d1ba 7092 e13c
000002b0: e32a 1bbc 122d f73c 70a9 98bc a879 ce3b
000002c0: 5a77 f23c a518 a73c a109 95bc a8ff c13c
000002d0: 0aa8 d23a d2a4 0dbc 2884 f33a 2389 6f3d
000002e0: 9b93 1e3c 676e 8cbc d515 babc d514 a5bc
000002f0: 291d 243c b18b 9fbc 0842 133c 213b c33b
00000300: 4faa 373c b72c 13bc b33a 8f3c 4f7d 9dbc
00000310: 750a d23c 5fdb 63bb 9353 1739 2630 893c
00000320: b2e9 80bc aafa 08bd e6a9 29bb 212d 87bb
00000330: b234 3c3c 5774 ecbc 6b57 9abc ec4a b03c
00000340: fac6 ec3c 8bb6 023c 9a92 cb3a 3ac2 61bc
00000350: 7ff1 373c 0b66 8dbc fb2b 88bc 2309 453d
00000360: f590 303c ca95 663c aed1 843c 3c58 c23c
00000370: 7eda 413a 4c1f 1f3a ae7e 33bc 7b02 80bc
00000380: 01b4 2dbc cfa7 a63b fa23 22bc 157a dc3b
00000390: 4ee3 9cbc 577e 88ba ec69 053d f79e d7bc
000003a0: 1121 343b b6c8 9cbb beba 263c 50f6 a93c
000003b0: f0be 1d3d cb1e e83a 7641 89bb 6393 b2ba
000003c0: 5fc8 b03c 7bdb 9fbc 0052 adbc fab6 f53c
000003d0: d827 e43b 81a0 16bd 5f1b 5dbc 444a 0b3a
000003e0: 8e8a be3c f749 093c 274b 933c a54e 77bc
000003f0: a02c 91ba 11e6 2f3b fb33 a5bb c31a b5bb

action_model._continuous_distribution.mu.bias f4 [2]
0.0 0.0
00000000: 0000 0000 0000 0000

action_model._discrete_distribution.branches.0.weight f4 [2, 128]
0.004843449 -0.0012899387 0.0016566297 -1.6950411e-05 0.006434048 -0.0056116506 -0.013444357 -0.024031868
-0.021026991 -0.012191739 -0.0025761223 -0.0041168225 -0.0050054598 0.0027330883 0.0027748246 0.005057889
0.009978749 0.0018328329 -0.002333292 0.006292472 0.011605257 -0.018886115 0.0019526394 -0.018257806
0.00014620482 -0.010891773 0.011650906 0.010973289 0.011412235 -0.008285055 -0.0050080977 -0.003922395
0.0036987145 0.008001345 0.006487071 -0.003239077 0.0018018701 0.0022907532 -0.0021030104 0.0014216657
0.008314424 0.00057882693 0.003964323 0.0023880797 -0.00063849654 -0.00017933543 0.006029185 -0.016907377
0.005203565 -0.007712693 0.007140202 -0.0034504465 0.0065183314 -0.0036283862 0.00398949 -0.0005218097
-0.0035104991 0.0065568397 -0.012258045 -0.012885506 0.005573302 0.0067712218 0.01498185 0.0053019845
0.017205084 0.010618131 0.002617097 0.0031214363 -0.0016434909 -0.009648919 -0.011628495 0.016060172
-0.0062063565 -0.020281939 0.012874705 -0.015018682 0.004930981 0.0073134485 -0.0064012245 -0.0031233442
6.0549633e-06 -0.0005120857 0.008797994 0.009375564 -0.012739591 -0.003099662 -0.0039708805 -0.0018682178
0.0023085433 -6.604222e-05 0.0077581815 0.0017499423 0.015742933 -0.0013977255 0.010329927 -0.0041471836
0.0020206985 -0.006909636 -0.008362471 0.0061846734 -0.0039586076 0.012245546 0.006024294 0.0009874495
-0.010356212 -0.0009991063 0.0052855504 0.002698514 0.005100982 0.01028642 0.0014668627 0.0057463725
0.001716167 -0.0018919291 -0.0060672066 0.010442061 -0.0081243785 0.0034393219 -0.0005341133 -0.014244708
-0.01914448 -0.0034741485 0.010887079 0.0027268182 0.003158121 0.004102205 -0.008940193 0.0034029768
-0.008622116 -0.00367331 -0.006242851 0.0046825213 0.006236611 -0.0048106606 -0.0037645882 0.0036936642
0.0026560742 -0.017122202 0.008208563 0.0029372245 -0.0014167911 0.0031816624 0.000607348 -0.0040523876
-0.0071589113 0.006674764 -0.0023779657 0.0031530347 -0.006401982 0.0044596177 0.00067397836 0.007005459
-0.003363434 0.010874342 0.0040415446 0.0053228396 -0.0071285963 -0.0024219907 0.0042324974 -0.0045159603
0.0030518607 -0.002359557 0.0072980113 0.0018386295 -0.0008183263 -0.004788282 0.0020606657 0.012405561
0.010479822 -0.012363301 -0.0019061886 0.0037375924 -0.004758294 -0.018471591 0.007086035 -0.0069365078
-0.002339101 -0.023666456 -0.0043202452 -0.0035361496 0.0033722147 -0.00537407 -0.0038187949 -0.0018541313
0.0034521564 -0.010302565 0.002993554 -0.0024087296 0.011603239 0.007934894 -0.003450108 0.001884139
-0.00095221255 0.014013179 0.00063920516 -0.0017962003 0.008510553 -0.009422928 -0.0021878828 0.00085359736
0.0057770554 0.0059448592 -0.00094391184 -0.0027837493 -0.011473346 -0.010264628 0.0067386776 0.00345829
0.007418164 0.015777206 -0.0077026137 -0.00016549572 -0.0052717715 -0.008747291 -0.0053759837 -0.006586987
-0.021686064 -0.00585211 0.00069712294 0.01760274 0.015257614 -0.011709683 0.0041739773 0.012129218
0.00091178203 0.0016544107 0.009355961 0.017025596 -0.009887648 -0.007101835 0.0017393775 -0.00042678788
-0.012013973 0.010738388 -0.012411523 -0.0021870052 0.0042321603 -0.011333858 -0.014466348 0.001861372
-0.004921722 0.0071122097 0.0028245351 0.00554396 -0.011835592 0.0026700087 -0.0040026917 0.0024992058
0.009584922 -0.01689617 -0.0020320078 -0.0033312005 0.00087759923 -0.0011375569 0.0065184305 -0.008635363
00000000: ccb5 9e3b 2913 a9ba 4523 d93a bb30 8eb7
00000010: b5d4 d23b f0e1 b7bb b845 5cbc 7bde c4bc
00000020: cc40 acbc dcbf 47bc 29d4 28bb 69e6 86bb
00000030: d704 a4bb 9d1d 333b d5d9 353b a6bc a53b
00000040: e87d 233c ab3b f03a 25ea 18bb 1531 ce3b
00000050: fa23 3e3c 0eb7 9abc b5ef ff3a 6591 95bc
00000060: 8f4e 1939 6873 32bc 71e3 3e3c 4fc9 333c
00000070: 62fa 3a3c 0abe 07bc f81a a4bb 6f87 80bb
00000080: 2266 723b 1318 033c 7f91 d43b b246 54bb
00000090: ba2c ec3a 7620 163b a9d2 09bb 2f57 ba3a
000000a0: 3939 083c 6bbc 173a 27e7 813b 5481 1c3b
000000b0: c760 27ba fd0b 3cb9 7890 c53b 5781 8abc
000000c0: ab82 aa3b c2ba fcbb 5bf8 e93b e320 62bb
000000d0: ba97 d53b 38ca 6dbb 45ba 823b 0eca 08ba
000000e0: 6710 66bb c2da d63b f8d5 48bc bb1d 53bc
000000f0: 3fa0 b63b 20e1 dd3b 6f76 753c 45bc ad3b
00000100: adf1 8c3c abf7 2d3c 9a83 2b3b 0391 4c3b
00000110: 676a d7ba 8016 1ebc 7185 3ebc 9f90 833c
00000120: b15e cbbb 4f26 a6bc 6df0 523c eb10 76bc
00000130: 1194 a13b a7a5 ef3b 5dc1 d1bb 05b1 4cbb
00000140: bd2b cb36 7d3d 06ba 7625 103c f79b 193c
00000150: b8b9 50bc b323 4bbb 291e 82bb fdde f4ba
00000160: ee4a 173b 2680 8ab8 5838 fe3b 525e e53a
00000170: 53f7 803c e333 b7ba db3e 293c 19e5 87bb
00000180: b26d 043b 3a6a e2bb bf02 09bc cda8 ca3b
00000190: 35b7 81bb 8ba1 483c 7167 c53b 4f6d 813a
000001a0: 1aad 29bc 72f4 82ba 6932 ad3b 8dd9 303b
000001b0: 2326 a73b 5f88 283c bf43 c03a 114c bc3b
000001c0: 02f1 e03a 9bfa f7ba 6bcf c6bb 2e15 2b3c
000001d0: 1d1c 05bc 3f66 613b bd03 0cba a362 69bc
000001e0: e2d4 9cbc 8aae 63bb b85f 323c 6bb4 323b
000001f0: 7af8 4e3b ca6b 863b e379 12bc 7a04 5f3b
00000200: c743 0dbc eabb 70bb d490 ccbb d66f 993b
00000210: 7c5c cc3b bfa2 9dbb 4fb7 76bb 6711 723b
00000220: 8811 2e3b dc43 8cbc 357d 063c 737e 403b
00000230: 9fb3 b9ba 7083 503b 6f36 1f3a e4c9 84bb
00000240: 4d95 eabb fbb7 da3b a5d7 1bbb 25a3 4e3b
00000250: b8c7 d1bb fc21 923b ecad 303a 0d8e e53b
00000260: 0f6d 5cbb 4c2a 323c ef6e 843b 376b ae3b
00000270: 0097 e9bb 43ba 1ebb c3b0 8a3b 9ffa 93bb
00000280: ba01 483b cca2 1abb 2824 ef3b 2bfe f03a
00000290: f384 56ba 05e7 9cbb 3c0c 073b b240 4b3c
000002a0: 8fb3 2b3c 718f 4abc 13d9 f9ba 65f2 743b
000002b0: 77eb 9bbb bc51 97bc f831 e83b a54b e3bb
000002c0: 9a4b 19bb 28e0 c1bc d890 8dbb bfbe 67bb
000002d0: 6000 5d3b f718 b0bb bf44 7abb 5306 f3ba
000002e0: 933d 623b 17cc 28bc 812f 443b c7db 1dbb
000002f0: 831b 3e3c 5c01 023c 351b 62bb 37f5 f63a
00000300: e79d 79ba 8897 653c 5590 273a 7b6e ebba
00000310: d96f 0b3c a062 1abc 9562 0fbb f3c3 5f3a
00000320: 744d bd3b 18cd c23b da70 77ba 906f 36bb
00000330: b3fa 3bbc f82c 28bc 20d0 dc3b 7aa4 623b
00000340: 1214 f33b 333f 813c 3566 fcbb eb88 2db9
00000350: d3be acbb cc50 0fbc 0529 b0bb a7d7 d7bb
00000360: f9a6 b1bc 0fc3 bfbb 21bf 363a 9f33 903c
00000370: 12fb 793c f8d9 3fbc dcc5 883b a1b9 463c
00000380: a804 6f3a d0d8 d83a bf49 193c 4379 8b3c
00000390: cdff 21bc 83b6 e8bb d3fb e33a 80c2 dfb9
000003a0: 41d6 44bc 10f0 2f3c b359 4bbc dc53 0fbb
000003b0: efad 8a3b a5b1 39bc 4304 6dbc 48f9 f33a
000003c0: 6646 a1bb 8a0d e93b d61b 393b 1baa b53b
000003d0: 12ea 41bc 50fb 2e3b 0329 83bb b7c9 233b
000003e0: 140a 1d3c d669 8abc 6f2b 05bb 4550 5abb
000003f0: b00e 663a 131a 95ba 8f98 d53b 567b 0dbc
