Assets/Training/results/zombiekiller2/AgentController/AgentController-499941.onnx (onnx, 670568 bytes, 11 tensors)

network_body._body_endoder.seq_layers.0.weight f4 [256, 128]
-0.11562025 -0.06960185 -0.097539544 0.2713374 0.0012818493 0.008650443 0.114179045 0.060982894
0.17744038 -0.048574146 -0.11520026 0.0660925 0.040731475 -0.040823165 0.13824499 0.09916391
0.020428615 -0.17784564 -0.018181657 0.017914925 0.1932805 -0.08581721 0.1531409 0.09680955
-0.0037516793 0.0017124899 0.08710909 0.037000984 0.056787174 0.17524464 -0.23341902 -0.01318568
0.15894082 -0.024399655 0.18572798 0.040557403 0.09335759 0.03116407 0.021550357 0.15913129
-0.11235784 -0.085168004 0.13076653 -0.011179958 0.099342175 0.01069824 0.030534098 -0.10215272
-0.13508034 0.07357576 -0.0145874 -0.0014664406 0.09043142 0.1266949 0.0873308 0.04930282
-0.10502075 -0.17489074 -0.012286267 0.012217233 -0.11891547 0.03271029 -0.0006680855 0.037401684
0.087956026 -0.017043475 0.0740089 -0.10954498 -0.009741327 0.09841891 -0.05782318 0.007285616
-0.12441012 -0.060370963 -0.1175305 -0.028418383 -0.063120864 0.1130574 0.18835363 -0.10028827
-0.11467046 0.03828398 -0.09616279 -0.06617095 0.041811883 0.050842825 0.030814594 -0.020749042
-0.07103292 -0.024438107 -0.08808363 0.08915572 0.0005118954 0.08945126 -0.13217667 0.040952627
0.07764361 -0.09668122 -0.005858114 0.057039313 0.023931079 0.040291846 0.013487431 0.082042955
-0.14044866 -0.019969875 0.11371779 0.08697961 0.07277703 -0.08261129 -0.039099332 -0.035591338
0.010726808 0.115298405 0.012476308 -0.0021537265 0.01388471 0.19162878 0.16004501 0.12112696
0.060593527 0.16156425 -0.021027232 0.051048886 0.110075526 0.041280754 0.09011675 0.03377197
0.14066719 -0.1153051 -0.06360652 -0.14111505 -0.07059318 0.05169361 -0.06874078 -0.027470121
0.01785129 -0.053149667 0.14141442 0.025943197 -0.14507447 -0.024105065 -0.004545177 -0.08102752
0.06880455 -0.13293855 -0.12937473 0.17356384 0.029517232 -0.038165007 -0.0684667 0.026252504
-0.19966908 -0.09118169 0.027651235 0.0029051357 0.029279223 -0.13619183 -0.12772402 -0.16317102
-0.1020564 0.06378242 -0.009783665 0.010538947 0.0719997 0.18062949 -0.029378962 0.053016342
-0.026069552 0.028784482 0.0037912864 -0.09220721 0.03780975 0.010540152 0.0964806 -0.120584935
-0.035917316 0.02362395 0.044819217 0.119514614 -0.01805907 -0.065666914 0.13122249 0.065665364
-0.06143121 -0.012433564 0.037536796 -0.073495634 0.073183976 0.14147058 0.04075841 0.03296333
0.12019782 -0.10240912 -0.035530314 0.003189866 0.11768412 0.026688121 0.049269415 0.029158494
-0.19479236 0.113925666 -0.18898587 -0.011053085 -0.010941402 -0.04256994 0.12489608 -0.005667139
-0.090589345 0.109253526 -0.08617048 -0.06386896 0.12597103 -0.056704372 -0.16498722 0.07306308
-0.020955576 0.23007171 -0.052505266 -0.085189275 0.08189721 -0.023434695 -0.076151416 -0.06856298
-0.103785895 0.21178266 0.17220432 -0.0023972027 0.074294016 -0.12292407 -0.13007584 -0.10045745
0.07257142 -0.02046575 0.1616318 0.036019586 0.06620724 0.08871676 0.028882226 -0.0065119653
0.12732269 0.063732095 -0.0011124848 0.12316418 -0.09645296 -0.07117065 -0.09245413 -0.060927037
-0.030847931 -0.0880365 0.0076740263 0.014397049 -0.077618465 -0.0681589 0.11883176 -0.061902504
00000000: 4fca ecbd 6a8b 8ebd d0c2 c7bd bcec 8a3e
00000010: ba03 a83a 96ba 0d3c b4d6 e93d 33c9 793d
00000020: eeb2 353e aff5 46bd 1dee ebbd 815b 873d
00000030: 0cd6 263d 3136 27bd 1890 0d3e 7316 cb3d
00000040: e959 a73c 2b1d 36be b3f1 94bc 52c2 923c
00000050: 53eb 453e efc0 afbd f8d0 1c3e 1644 c63d
00000060: bcde 75bb a075 e03a 4066 b23d 588e 173d
00000070: ab99 683d 5573 333e 6505 6fbe c008 58bc
00000080: 62c1 223e c9e1 c7bc 7a2f 3e3e 851f 263d
00000090: 4432 bf3d cb4b ff3c 608a b03c 50f3 223e
000000a0: de1b e6bd 906c aebd a9e7 053e 242c 37bc
000000b0: e973 cb3d ac47 2f3c a522 fa3c 7235 d1bd
000000c0: 8052 0abe e3ae 963d fdff 6ebc 9535 c0ba
000000d0: 1c34 b93d 4fbc 013e 7eda b23d c1f1 493d
000000e0: 1e15 d7bd 8f16 33be 574c 49bc ca2a 483c
000000f0: f489 f3bd 3afb 053d 7522 2fba 8232 193d
00000100: 4a22 b43d c29e 8bbc fa91 973d 1e59 e0bd
00000110: 169a 1fbc da8f c93d 00d8 6cbd 2dbc ee3b
00000120: bcca febd 8b47 77bd d5b3 f0bd abcd e8bc
00000130: 8345 81bd a38a e73d c6df 403e f063 cdbd
00000140: 59d8 eabd aacf 1c3d fff0 c4bd a384 87bd
00000150: f042 2b3d 9140 503d e36e fc3c e5f9 a9bc
00000160: b579 91bd 6d32 c8bc 3165 b4bd 4697 b63d
00000170: b830 063a 3932 b73d 5259 07be f1bd 273d
00000180: 9d03 9f3d ce00 c6bd 6cf5 bfbb 0ea2 693d
00000190: 1c0b c43c 1009 253d 63fa 5c3c 2306 a83d
000001a0: c6d1 0fbe dd97 a3bc dfe4 e83d 5e22 b23d
000001b0: 200c 953d 1c30 a9bd 9f26 20bd 39c8 11bd
000001c0: 7ebf 2f3c 9221 ec3d 6e69 4c3c 8925 0dbb
000001d0: b27c 633c 563a 443e d7e2 233e 6911 f83d
000001e0: eb30 783d 1971 253e 4d41 acbc a318 513d
000001f0: 476f e13d 0216 293d 218f b83d 7a54 0a3d
00000200: 0f0b 103e 1525 ecbd 2344 82bd 7780 10be
00000210: 2893 90bd aebc 533d f7c7 8cbd 0509 e1bc
00000220: de3c 923c 77b3 59bd f1ce 103e d486 d43c
00000230: 678e 14be fc77 c5bc b5ef 94bb c2f1 a5bd
00000240: 66e9 8c3d 0b21 08be cf7a 04be b8ba 313e
00000250: 1fce f13c e952 1cbd 4538 8cbd 7e0f d73c
00000260: 0d76 4cbe 77bd babd d884 e23c 1764 3e3b
00000270: fbda ef3c df75 0bbe 16ca 02be 4e16 27be
00000280: f202 d1bd 5ba0 823d aa4b 20bc 8cab 2c3c
00000290: 9474 933d f0f6 383e 26ac f0bc aa27 593d
000002a0: d08f d5bc 6fcd eb3c 3b77 783b 22d7 bcbd
000002b0: 65de 1a3d 9ab0 2c3c 9f97 c53d 3cf5 f6bd
000002c0: 091e 13bd 0487 c13c 5b94 373d 14c4 f43d
000002d0: 9df0 93bc 607c 86bd 305f 063e 907b 863d
000002e0: 4b9f 7bbd 26b6 4bbc 2fc0 193d e184 96bd
000002f0: 7be1 953d aadd 103e 4af2 263d 8f04 073d
00000300: 462a f63d dfbb d1bd 3c88 11bd 120d 513b
00000310: 5f04 f13d 0ca1 da3c bace 493d cbdd ee3c
00000320: a677 47be dc51 e93d 8385 41be 0018 35bc
00000330: 9143 33bc d15d 2ebd 84c9 ff3d 68b3 b9bb
00000340: e886 b9bd 50c0 df3d 267a b0bd bbcd 82bd
00000350: 8dfe 003e d842 68bd 69f2 28be 19a2 953d
00000360: 07ab abbc eb97 6b3e c30f 57bd b777 aebd
00000370: b9b9 a73d 1efa bfbc 46f5 9bbd bf6a 8cbd
00000380: b38d d4bd 8edd 583e 5456 303e 631a 1dbb
00000390: 7627 983d 9dbf fbbd 9a32 05be a3bc cdbd
000003a0: 53a0 943d caa7 a7bc ce82 253e 4689 133d
000003b0: a997 873d 22b1 b53d 6b9a ec3c 5362 d5bb
000003c0: e160 023e f985 823d ccd0 91ba 803d fc3d
000003d0: 2189 c5bd ebc1 91bd 9758 bdbd a18e 79bd
000003e0: cdb4 fcbc 7b4c b4bd 6676 fb3b 9ae1 6b3c
000003f0: 6ef6 9ebd e596 8bbd 115e f33d 7b8d 7dbd

network_body._body_endoder.seq_layers.0.bias f4 [256]
0.011081374 0.009250201 -0.0010750188 0.008199789 0.016435878 0.01383803 -0.0062806327 0.001476366
0.00653948 0.010509391 0.009335131 -0.03209295 -0.0097656185 0.01660027 0.009751158 0.010436144
0.0036369292 0.006369076 0.016092455 0.0035795385 0.0026770942 0.012405758 0.0062897047 0.006854537
0.0024210203 0.006602699 1.6097887e-05 0.002594512 -0.005819912 0.0029866889 0.004052992 0.006609214
0.01660057 0.004757301 -0.012220962 0.00440087 0.011010966 -0.002169853 -0.00040278566 0.0025346174
-0.009256717 0.0005570348 -0.016161174 0.008856267 -0.004388331 0.002061287 0.009867567 0.010880907
0.006173206 0.018171921 -0.0091258 0.0070702336 0.007354093 0.0011800685 0.014920752 0.011042187
0.019215506 0.011865464 0.027782932 0.010199847 0.015622649 0.0015308879 -0.006439593 -0.0035761772
0.0066687022 0.0056138486 -0.0010210865 -0.006074621 0.018069765 0.008161051 -0.0015722042 -0.007546962
-0.0027443192 -0.011789237 0.004435858 0.009658237 -0.0004516158 0.014416069 0.0007880754 0.0017450574
0.008043062 0.0024779988 0.0113124335 0.0071872384 0.010304578 -0.0034381112 0.01202858 0.012827228
0.006892413 0.008219803 0.0060481327 -0.00565118 0.003318654 0.0056706113 0.0047557782 -0.0017638047
0.009132162 0.008484672 0.002280663 0.017663749 0.00830855 0.0010872019 -0.0013743021 0.002382771
0.007928966 -0.002754542 -0.00361035 -0.00281409 0.006953769 0.0025734126 0.007373604 -0.0026580528
-0.009337734 -0.0002279042 0.0100610955 -0.0050750053 -0.004762793 -0.0034939407 -0.002959176 0.0076781716
-0.00016738228 0.0022012305 0.008066071 -0.007560399 -0.006591673 -0.008817849 0.0018621879 -0.006076351
0.007814232 0.008932757 -0.017501963 0.00076553464 -0.0074811047 0.007001927 -0.012996843 -0.0028925336
-0.0021289163 0.011586453 0.00085875095 0.002628656 0.004070835 -0.014407278 0.007331066 0.013130804
-0.007366088 -0.028436601 -0.014130285 0.0075866855 0.01584256 -0.001527655 0.0072179455 0.009606335
0.0029244756 -0.01830859 0.008941428 -0.0013512829 0.0044367085 0.009844422 0.0051795244 0.008663288
0.0042803055 0.015048448 0.0073701167 0.0038087107 0.00049694744 -0.002101003 -0.0017172998 0.005308243
0.014808504 0.009028857 0.013620167 -0.0010915897 0.0031531253 0.014589173 0.009312138 0.01720359
0.0031899356 0.00615045 -0.00036049067 0.010581563 0.006672899 -0.0070950924 0.009068194 -0.0014344715
0.0040754476 -0.007882141 0.02048794 0.009257367 0.0061750826 0.00232433 0.006460313 0.002915279
0.011744388 0.0026064243 -0.0012538302 0.00862786 0.011696555 0.010698423 0.01780752 -0.0055055297
-0.003989462 0.012290581 0.010964017 0.011977049 0.009170171 0.020791424 0.006048091 -0.0031965075
0.0064487336 0.014010459 0.008672991 0.010681943 0.01497323 -0.0050191754 0.0059588556 0.0015195503
0.006394826 0.011248211 -0.009985039 0.005111909 -0.013544135 -0.0033105998 0.0016967896 0.0071677184
-0.0143745355 0.012384264 0.005406955 -0.0065007494 -0.0014435592 0.0068000834 -0.0026988776 0.005780976
0.009932818 0.0003461743 0.020655883 0.016655903 0.0063853418 0.0026222125 -0.003688017 0.023984306
0.010773505 0.010727389 -0.009373751 0.0124026 0.008763363 0.010805071 0.011079077 0.020141851
0.0026007537 -0.0007845617 0.013025485 0.0025456378 0.0046784505 0.008060784 0.008959451 0.0028581966
00000000: a78e 353c 288e 173c a5e7 8cba 6858 063c
00000010: 89a4 863c e8b8 623c c4cd cdbb 9f82 c13a
00000020: 2249 d63b 952f 2c3c 61f2 183c e673 03bd
00000030: f9ff 1fbc 4afd 873c 52c3 1f3c 5cfc 2a3c
00000040: 8c59 6e3b afb3 d03b 53d4 833c b196 6a3b
00000050: 3072 2f3b 8541 4b3c de19 ce3b 069c e03b
00000060: fba9 1e3b 745b d83b f309 8737 b008 2a3b
00000070: f6b4 bebb 53bc 433b f6ce 843b 1b92 d83b
00000080: ebfd 873c 22e3 9b3b 6e3a 48bc 2c35 903b
00000090: 5767 343c 1834 0ebb fa2c d3b9 d31b 263b
000000a0: 7ca9 17bc f905 123a 7064 84bc e019 113c
000000b0: fdcb 8fbb a816 073b 93ab 213c d545 323c
000000c0: 9b48 ca3b 48dd 943c 6184 15bc 6bad e73b
000000d0: 9afa f03b 87ac 9a3a 2b76 743c 4aea 343c
000000e0: d669 9d3c 5d67 423c 0899 e33c 421d 273c
000000f0: 24f6 7f3c 13a8 c83a 3903 d3bb 4c5e 6abb
00000100: 2185 da3b 60f4 b73b fad5 85ba 9d0d c7bb
00000110: 0b07 943c eeb5 053c 6b12 ceba 814c f7bb
00000120: 09da 33bb a527 41bc ad5a 913b 953d 1e3c
00000130: d9c6 ecb9 6031 6c3c d896 4e3a 69ba e43a
00000140: 0cc7 033c ec65 223b c957 393c ed82 eb3b
00000150: 88d4 283c ef51 61bb 8513 453c 4b29 523c
00000160: c0d9 e13b 5aac 063c 6a2f c63b 892d b9bb
00000170: c67d 593b 89d0 b93b 5cd6 9b3b 772f e7ba
00000180: 109f 153c 4b03 0b3c 2d77 153b 91b3 903c
00000190: 9620 083c 7180 8e3a ed21 b4ba 4428 1c3b
000001a0: 7ee8 013c 8c85 34bb 9f9b 6cbb 996c 38bb
000001b0: 71dc e33b b3a6 283b 469e f13b ba32 2ebb
000001c0: 4cfd 18bc 91f9 6eb9 4bd7 243c 3b4c a6bb
000001d0: 3411 9cbb 99fa 64bb bcee 41bb 2c99 fb3b
000001e0: 5783 2fb9 8542 103b 8e27 043c 39bd f7bb
000001f0: f6fe d7bb bd78 10bc a814 f43a 201c c7bb
00000200: 4407 003c b35a 123c 4760 8fbc 29ae 483a
00000210: 0e24 f5bb 6c70 e53b b6f0 54bc a990 3dbb
00000220: 4a85 0bbb 1bd5 3d3c cd1d 613a 8845 2c3b
00000230: a464 853b 810c 6cbc 7039 f03b 9522 573c
00000240: 3a5f f1bb e0f3 e8bc b682 67bc bb99 f83b
00000250: 42c8 813c 993b c8ba 8484 ec3b e463 1d3c
00000260: 8fa8 3f3b e5fb 95bc 117f 123c 881d b1ba
00000270: cf61 913b 804a 213c 00b9 a93b 77f0 0d3c
00000280: ce41 8c3b c48d 763c 0581 f13b 909b 793b
00000290: 9445 023a fbb0 09bb 0517 e1ba c5f0 ad3b
000002a0: 5e9f 723c c5ed 133c 1f27 5f3c ac13 8fba
000002b0: aaa4 4e3b 6d07 6f3c f091 183c 8bee 8c3c
000002c0: 3d0e 513b b789 c93b 3d00 bdb9 4b5e 2d3c
000002d0: 55a8 da3b f37d e8bb c392 143c e004 bcba
000002e0: 558b 853b 1824 01bc 53d6 a73c 36ac 173c
000002f0: 5958 ca3b c953 183b 09b1 d33b 440e 3f3b
00000300: 896b 403c 8bd0 2a3b 8f57 a4ba de5b 0d3c
00000310: e8a2 3f3c 7048 2f3c 14e1 913c bb67 b4bb
00000320: 08ba 82bb 6f5e 493c 6ca2 333c 623b 443c
00000330: 7c3e 163c c752 aa3c 112f c63b 7f7c 51bb
00000340: e64f d33b 208c 653c 2919 0e3c 5103 2f3c
00000350: 4752 753c e577 a4bb 8142 c33b a62b c73a
00000360: b08b d13b 6b4a 383c 4a98 23bc cd81 a73b
00000370: 38e8 5dbc a6f6 58bb d066 de3a 2edf ea3b
00000380: 2c83 6bbc 5ee7 4a3c d32c b13b 3d04 d5bb
00000390: cf35 bdba 3cd3 de3b a7df 30bb 576e bd3b
000003a0: 42bd 223c ba7e b539 8736 a93c f671 883c
000003b0: 213c d13b 6dd9 2b3b a8b2 71bb bc7a c43c
000003c0: 5b83 303c eec1 2f3c 5c94 19bc 4634 4b3c
000003d0: 3594 0f3c c107 313c 0485 353c 8600 a53c
000003e0: 6871 2a3b 0bab 4dba d868 553c b7d4 263b
000003f0: b04d 993b 6111 043c a9ca 123c 9550 3b3b

network_body._body_endoder.seq_layers.2.weight f4 [256, 256]
0.015468195 0.068068266 -0.033910327 0.0041307523 -0.00052404223 0.035051145 0.0067508207 0.036411792
0.100628555 -0.058494437 -0.1122566 -0.064729705 0.071511455 0.04113009 -0.08610215 0.005697537
-0.0062659085 0.05490143 0.14809985 0.070809305 0.0034453212 -0.004611777 0.0053070504 0.1490925
-0.08106879 -0.1548515 0.0067099896 -0.072725445 0.1046299 0.05811635 -0.069972806 0.03140274
0.06352224 0.058256943 -0.07759028 -0.09927881 -0.048636895 0.045087006 0.015047661 -0.042469785
0.03516215 0.027164279 -0.051592585 0.04254087 -0.04097087 0.096294835 0.020451438 -0.007334783
-0.091724396 0.0070295664 0.04681762 0.04484293 -0.0009274605 0.05966049 0.046178218 0.06322731
0.020737324 -0.014679381 0.026824128 0.033996057 0.031819418 0.05156435 -0.08103408 0.020185236
0.0034944564 -0.018082887 0.013535165 -0.041737404 -0.0023682772 0.14762835 -0.10684633 0.004592607
0.055803314 -0.06831026 -0.001581212 0.058230888 -0.07232274 0.058710493 -0.087903745 -0.120871015
0.013248526 0.026022675 0.029792927 0.0047076168 0.16028368 -0.027061157 0.009389329 0.03885205
-0.011264923 0.15118074 0.0010575221 -0.023532538 0.041545443 -0.04023732 -0.020174354 -0.03336999
0.015954915 0.113283165 0.013952204 0.057366204 -0.05868265 -0.05365639 -0.08770385 -0.0002879436
0.007130149 -0.0016960001 0.08231949 0.033843275 -0.025437446 -0.03168521 -0.019417068 0.04183006
0.032802515 -0.039305404 0.07143717 0.050520808 -0.104388714 0.047761366 -0.07483893 -0.017678257
0.044880204 0.0071259625 -0.057573423 -0.046347145 -0.106355295 0.1026309 -0.03189203 -0.0017294718
-0.097451165 0.017682906 -0.01548798 0.059375606 -0.029653998 -0.04935445 0.04520192 0.004389553
-0.123592846 -0.13706075 -0.049100302 0.012024662 -0.051746063 -0.08301201 -0.12719703 -0.0032406803
-0.0039691846 -0.072294705 -0.0789439 -0.098080344 0.037722096 -0.12778975 0.004234155 -0.017941957
-0.03575808 -0.027466187 -0.04077904 -0.054557163 -0.023753867 0.036825772 0.016454287 0.14851202
-0.020422567 -0.105366714 0.05904881 -0.020568263 0.060425505 0.038377702 -0.100539744 -0.058886245
-0.058477268 0.013375716 0.040743586 0.0058680517 0.02328435 0.07739669 -0.005532425 0.028665163
0.00019624058 -0.06719945 -0.021998087 0.03283786 -0.067691535 0.053485267 -0.040159866 -0.0390389
0.08713094 -0.01588391 0.048955232 0.008335071 0.046925306 0.026657637 0.042146888 0.052127633
0.032659348 -0.07090824 -0.0046212873 0.03286687 0.0024518932 0.08145504 -0.09799011 0.06981591
0.047637083 0.040062122 0.030558193 0.019290533 0.0833353 0.0885752 -0.04272625 -0.030483576
-0.032196917 -0.00437284 0.040351346 -0.1003485 -0.07440457 -0.131825 0.041636825 0.059034813
-0.10695368 -0.11064172 -0.059716817 0.024372943 -0.036692448 -0.040145468 0.14614579 0.014661478
0.035286557 0.031920414 -0.028549265 0.008493976 -0.0006849954 0.0015672339 0.03504321 0.046384923
0.020059096 0.04978953 -0.05585996 0.15071562 0.017118866 -0.14238027 -0.04751855 0.0884253
0.16917762 -0.0023012648 -0.048758633 0.06473796 0.04769037 -0.06432154 -0.028633656 0.0062995786
0.016069474 -0.093586504 -0.06600323 0.090544395 -0.057540253 -0.044381976 -0.05782964 0.006432717
00000000: 506e 7d3c 6067 8b3d 8ee5 0abd 435b 873b
00000010: e15f 09ba ca91 0f3d fd35 dd3b 8824 153d
00000020: 5816 ce3d dd97 6fbd cae6 e5bd 0291 84bd
00000030: 9974 923d 0678 283d 5356 b0bd 68b2 ba3b
00000040: 4052 cdbb 52e0 603d 7da7 173e 7804 913d
00000050: e6ca 613b 641e 97bb c4e6 ad3b b4ab 183e
00000060: 6507 a6bd 6491 1ebe 79df db3b 14f1 94bd
00000070: 3348 d63d 690b 6e3d e74d 8fbd 29a0 003d
00000080: f317 823d d59e 6e3d a7e7 9ebd b052 cbbd
00000090: 7b37 47bd 27ad 383d 778a 763c ccf4 2dbd
000000a0: 3006 103d 9f87 de3c bf52 53bd 563f 2e3d
000000b0: 12d1 27bd 3a36 c53d c689 a73c 9f58 f0bb
000000c0: 00da bbbd 4758 e63b d5c3 3f3d 38ad 373d
000000d0: d220 73ba 8f5e 743d 5f25 3d3d 527d 813d
000000e0: 52e1 a93c c981 70bc 46be db3c 733f 0b3d
000000f0: 1455 023d 2435 533d 32f5 a5bd 825b a53c
00000100: 4003 653b 9022 94bc 99c2 5d3c d7f4 2abd
00000110: 1935 1bbb e32b 173e 40d2 dabd 947d 963b
00000120: 0492 643d 40e6 8bbd ac40 cfba 8383 6e3d
00000130: f21d 94bd 6a7a 703d e106 b4bd 398b f7bd
00000140: 5810 593c 812d d53c 4c10 f43c 5a42 9a3b
00000150: 6821 243e 5caf ddbc b3d5 193c 5423 1f3d
00000160: 8390 38bc 20cf 1a3e 8e9c 8a3a 4fc7 c0bc
00000170: 8e2b 2a3d e3cf 24bd b044 a5bc f8ae 08bd
00000180: e2b3 823c 0101 e83d c997 643c d3f8 6a3d
00000190: 385d 70bd cec6 5bbd 139e b3bd 23f7 96b9
000001a0: 06a4 e93b 524c deba 1f97 a83d 3f9f 0a3d
000001b0: 3162 d0bc 5ac8 01bd 8b10 9fbc ff55 2b3d
000001c0: ee5b 063d b4fe 20bd a74d 923d e8ee 4e3d
000001d0: c0c9 d5bd 6ca1 433d 2745 99bd fed1 90bc
000001e0: 4ed4 373d e880 e93b 1cd2 6bbd 81d6 3dbd
000001f0: ced0 d9bd 2630 d23d 38a1 02bd 72af e2ba
00000200: 7a94 c7bd bedb 903c 4cc1 7dbc d633 733d
00000210: f1ec f2bc e427 4abd a625 393d 3dd6 8f3b
00000220: 3f1e fdbd a759 0cbe 661d 49bd 1703 453c
00000230: aef3 53bd 3302 aabd f03f 02be 9861 54bb
00000240: ef0f 82bb 3f0f 94bd 57ad a1bd 59de c8bd
00000250: 7c82 1a3d 51db 02be abbe 8a3b 03fb 92bc
00000260: 1177 12bd c500 e1bc ec07 27bd 5577 5fbd
00000270: 7897 c2bc 9fd6 163d 24cb 863c 8913 183e
00000280: 3a4d a7bc 81ca d7bd 2add 713d c67e a8bc
00000290: bc80 773d f031 1d3d c8e7 cdbd b432 71bd
000002a0: dc85 6fbd d225 5b3c bfe2 263d c948 c03b
000002b0: d2be be3c 2882 9e3d 5849 b5bb 34d3 ea3c
000002c0: eec5 4d39 de9f 89bd 5535 b4bc fe80 063d
000002d0: dca1 8abd 5e13 5b3d ac7e 24bd 41e7 1fbd
000002e0: b571 b23d f91e 82bc 4885 483d d28f 083c
000002f0: c034 403d 1e61 da3c 37a2 2c3d c983 553d
00000300: cfc5 053d 5738 91bd 2b6e 97bb 699f 063d
00000310: f1af 203b e6d1 a63d 0aaf c8bd a5fb 8e3d
00000320: 1a1f 433d 2e18 243d 2d55 fa3c 2e07 9e3c
00000330: b3ab aa3d ea66 b53d b801 2fbd b1b8 f9bc
00000340: eae0 03bd 0a4a 8fbb 7447 253d 8483 cdbd
00000350: 6c61 98bd 22fd 06be 608b 2a3d 7dce 713d
00000360: 880a dbbd 2098 e2bd 9f99 74bd c4a9 c73c
00000370: d24a 16bd 936f 24bd 3ea7 153e b236 703c
00000380: a388 103d fbbe 023d 26e0 e9bc 512a 0b3c
00000390: 4391 33ba a56b cd3a 7889 0f3d 1efe 3d3d
000003a0: f952 a43c 1bf0 4b3d 6acd 64bd 3255 1a3e
000003b0: dd3c 8c3c 22cc 11be d0a2 42bd 5318 b53d
000003c0: e63c 2d3e d1d0 16bb 22b7 47bd 5695 843d
000003d0: fa56 433d 03bb 83bd 2191 eabc b26c ce3b
000003e0: 21a4 833c 48aa bfbd b42c 87bd 576f b93d
000003f0: 54af 6bbd e0c9 35bd c6de 6cbd 8bc9 d23b

network_body._body_endoder.seq_layers.2.bias f4 [256]
0.0035936728 0.0035501672 0.013382015 0.013415516 -0.0021043534 -0.0011152388 0.009697343 0.013337265
0.006090565 0.0089564435 0.0024890979 -0.003443203 0.017097868 -0.0067259795 0.0075372173 0.004801031
-0.00050293823 -0.01424954 -0.0026696962 0.0019284303 0.011189629 -0.0015171143 0.011581601 -0.0024156077
0.0024843893 0.014061839 -0.010732969 0.0150116 0.011042049 0.000628489 -0.0040796073 0.011942067
0.004871092 0.0055090967 -0.007214858 0.0015644969 0.011146413 0.016267 0.005032546 0.005104566
-0.0016333626 0.0018393609 -0.002092995 0.013443221 -8.635581e-05 0.0122999335 0.010796518 0.008179533
0.0076502045 0.0033325711 0.009698932 -0.0038677235 -0.013263157 0.0056510023 0.00728261 0.0005069208
-7.722123e-05 0.004983878 0.0015108248 0.015348999 0.002189007 0.0057974905 0.014016028 0.000714178
-0.011570079 0.0050735534 0.005760464 0.0022998268 0.010542851 0.0047871927 -0.0015709351 0.009373747
0.003969327 0.0025200131 0.009360356 0.008417674 0.0074825753 -0.00036949923 0.017161814 0.0025833065
0.0049466756 0.0071432283 -0.003981868 0.007705352 0.009586151 0.002232646 0.018250527 -0.005515644
0.007561464 -0.00088176364 -0.0039631478 0.0037328096 0.0017673894 0.00548147 -0.0032726752 0.0077317655
-0.006836897 0.0037122513 0.013159236 -0.005516746 0.012395654 0.0072247176 0.010118551 0.008483654
-0.0048076576 0.010719313 -0.0025726988 -0.0032550578 -0.0009511018 -0.0009262667 -0.0031303132 0.0007426319
0.009844036 -0.00087065814 0.0006983915 0.016409121 -5.818316e-05 -0.0037718625 0.010247888 0.00410378
0.007813435 0.005377359 0.01438322 -0.0023438735 0.0048848735 0.016424676 0.009076938 -0.0024406742
-0.0051901536 0.008507506 0.008406343 0.0035603456 0.011966081 -0.020075439 0.010457399 0.012784412
-0.0011947096 -0.0029958182 0.008600931 0.0054437793 0.006272774 0.008088749 0.009232006 0.0027682781
-0.013049909 0.012673367 0.0067324634 0.0059802067 -0.002822601 0.0007107756 -0.009988528 0.0025543992
0.0035089115 0.009921573 0.015441054 -0.0063497447 0.0012934129 0.014358606 0.0026005087 -0.010635997
0.005838181 0.005077076 -0.003597324 -0.023062963 0.0028438123 0.007042997 0.007436233 -0.008812012
-0.0030006666 -0.0003093363 0.0055500087 0.007018666 -0.00010090725 0.0026228207 0.0004364801 0.0030014468
0.0004472114 0.0069802203 0.012234497 0.0006055783 -0.003017041 -0.0033302687 0.014026649 -0.0006042215
-0.006762956 -0.009614311 0.0005999054 0.0062541794 0.008437608 -0.004440465 0.0011809034 0.010360766
-0.005886529 0.0038647568 -0.003365522 0.006474131 -0.0035869125 0.0055672806 0.00069626264 0.0027080118
0.009399907 0.009533323 0.003838503 0.001203959 -0.0016920943 -0.004809042 0.009684377 -0.0030363367
-0.010168358 0.00052626536 0.0009087062 0.013570522 0.0061794436 0.009392671 0.0080376975 -0.009608384
0.0047864816 0.0012587802 -0.0040172255 -0.003098921 0.008868957 0.01192759 0.0011531608 0.0024947892
-0.0011089614 0.009727454 0.013356708 0.009963416 0.010606107 0.0071980827 0.003486409 0.007477799
0.012058973 0.008532565 -0.009040215 0.0034460924 0.011478771 0.0041935015 -0.0029213275 0.0024605987
0.0026024836 -0.002346878 0.0066702873 9.3499846e-05 0.013758743 0.005157275 0.0040560174 -0.006100707
0.014305683 0.007407243 -0.0127670625 0.009593675 -0.0075943153 -0.0066038053 0.009159431 0.011923696
00000000: d383 6b3b eca9 683b 3d40 5b3c c1cc 5b3c
00000010: 31e9 09bb 342d 92ba 9be1 1e3c 8b84 5a3c
00000020: 5d93 c73b 0cbe 123c 2220 233b 5ca7 61bb
00000030: d410 8c3c 9b65 dcbb c3fa f63b f851 9d3b
00000040: 9dd7 03ba e776 69bc 12f6 2ebb 62c3 fc3a
00000050: b554 373c e9d9 c6ba c1c0 3d3c 2c4f 1ebb
00000060: 23d1 223b a163 663c 56d9 2fbc 37f3 753c
00000070: b6e9 343c 2fc1 243a 3aae 85bb a9a8 433c
00000080: ae9d 9f3b a785 b43b 9e6a ecbb ce0f cd3a
00000090: 729f 363c 5f42 853c 0ee8 a43b 3444 a73b
000000a0: 8e16 d6ba b616 f13a a12a 09bb f540 5c3c
000000b0: ec19 b5b8 a985 493c e1e3 303c 7303 063c
000000c0: 91ae fa3b 4467 5a3b 45e8 1e3c a279 7dbb
000000d0: b64d 59bc 0b2c b93b f6a2 ee3b e1e2 043a
000000e0: d5f1 a1b8 cd4f a33b de06 c63a 5e7a 7b3c
000000f0: 7175 0f3b e0f8 bd3b 7ba3 653c ad37 3b3a
00000100: 6e90 3dbc 0d40 a63b 46c2 bc3b b1b8 163b
00000110: ecbb 2c3c e2dd 9c3b d6e7 cdba 5894 193c
00000120: 2111 823b ce26 253b 2e5c 193c 49ea 093c
00000130: 6430 f53b 59b9 c1b9 ef96 8c3c b14c 293b
00000140: b917 a23b be11 ea3b 547a 82bb 2d7d fc3b
00000150: 3b0f 1d3c 9651 123b 2182 953c 93bc b4bb
00000160: 28c6 f73b 2826 67ba 4bdd 81bb 27a2 743b
00000170: bfa7 e73a e79d b33b 617a 56bb c05a fd3b
00000180: 0d08 e0bb 3e49 733b d699 573c d2c5 b4bb
00000190: 2417 4b3c 53bd ec3b 47c8 253c 06ff 0a3c
000001a0: 8e89 9dbb 0fa0 2f3c b99a 28bb cf52 55bb
000001b0: 5d53 79ba b5d0 72ba f125 4dbb 2fad 423a
000001c0: e148 213c e13c 64ba 4314 373a 6c6c 863c
000001d0: b109 74b8 5a31 77bb c2e6 273c 0079 863b
000001e0: ec03 003c 8f34 b03b 99a7 6b3c ac9b 19bb
000001f0: 4a11 a03b 0b8d 863c 70b7 143c b8f3 1fbb
00000200: 2a12 aabb 1163 0b3c c2ba 093c b054 693b
00000210: 620d 443c 3f75 a4bc 8355 2b3c b675 513c
00000220: cd97 9cba 7d55 44bb ebea 0c3c bb61 b23b
00000230: d88b cd3b ac86 043c d741 173c 006c 353b
00000240: 49cf 55bc f4a3 4f3c ff9b dc3b 9cf5 c33b
00000250: 63fb 38bb 5853 3a3a eca6 23bc b567 273b
00000260: c4f5 653b 188e 223c 79fc 7c3c 8511 d0bb
00000270: bc87 a93a 5c40 6b3c 4c6d 2a3b 9b42 2ebc
00000280: 364e bf3b 9a5d a63b 15c1 6bbb 8aee bcbc
00000290: 415f 3a3b f1c8 e63b a5ab f33b 4260 10bc
000002a0: d5a6 44bb 6a2e a2b9 d9dc b53b d6fc e53b
000002b0: 2b9e d3b8 a1e3 2b3b 5ed7 e439 ecb3 443b
000002c0: b377 ea39 55ba e43b 3373 483c acbf 1e3a
000002d0: 8cb9 45bb a340 5abb 08d0 653c 9e64 1eba
000002e0: c99b ddbb 5885 1dbc f842 1d3a dcef cc3b
000002f0: e53d 0a3c 5281 91bb 8bc8 9a3a 34c0 293c
00000300: c9e3 c0bb dc47 7d3b 1790 5cbb f224 d43b
00000310: 6812 6bbb bc6d b63b 6585 363a e678 313b
00000320: 1102 1a3c a831 1c3c 658f 7b3b 29ce 9d3a
00000330: 43c9 ddba 2b95 9dbb 39ab 1e3c 47fd 46bb
00000340: 2f99 26bc 12f5 093a 3e36 6e3a e556 5e3c
00000350: ee7c ca3b b8e3 193c 8cb0 033c 7c6c 1dbc
00000360: ebd7 9c3b a8fd a43a eea2 83bb 4417 4bbb
00000370: 1a4f 113c f06b 433c a825 973a 9e7f 233b
00000380: 925a 91ba e65f 1f3c 18d6 5a3c 983d 233c
00000390: 3dc5 2d3c e5dd eb3b 3d7c 643b 5308 f53b
000003a0: 0093 453c 2ccc 0b3c 691d 14bc d6d7 613b
000003b0: 7511 3c3c a469 893b be73 3fbb ff41 213b
000003c0: 6e8e 2a3b 14ce 19bb 6d92 da3b 5915 c438
000003d0: 5a6c 613c 5cfe a83b 57e8 843b 71e8 c7bb
000003e0: 6262 6a3c 75b8 f23b f12c 51bc ca2e 1d3c
000003f0: bcd9 f8bb bc64 d8bb 7011 163c 9b5b 433c

network_body._body_endoder.seq_layers.4.weight f4 [256, 256]
0.06647579 -0.0108576445 0.07948407 -0.035853293 -0.07990834 -0.06319478 -0.002483097 0.004332068
0.09273992 0.02169181 0.039137788 0.062395092 0.101458184 -0.14296994 0.08710615 -0.08602716
0.079127006 0.08559712 0.0231164 -0.07330143 0.029967543 0.031523306 0.10408602 0.005871279
0.028169373 -0.01735773 0.06527388 0.0040884777 0.11741503 -0.07654686 -0.060246293 0.009593801
0.080405116 0.015339146 0.008071815 -0.039808158 0.024695404 -0.024705397 -0.07219239 0.0034943626
0.019279754 -0.001441913 -0.05362383 -0.014349899 0.024213558 -0.074330404 0.06676537 0.069024004
0.11171989 -0.1083701 0.06238784 -0.04899558 0.020315764 0.047609452 0.057843514 0.11121861
-0.1138158 -0.0710814 -0.050572075 0.022229064 0.023630489 0.04332722 -0.031682022 -0.02041552
0.02925445 -0.08241927 0.0030427454 -0.0942071 0.10593187 0.043721836 0.06080876 -0.049838215
0.00048144924 -0.008114323 -0.01423547 0.03796141 -0.07607944 -0.07042969 -0.0998262 0.10803707
-0.012439422 -0.005384088 0.06288654 -0.032914005 -0.035837807 -0.07069512 0.024604287 0.045379113
-0.08481062 -0.10057581 0.066412084 0.020976605 -0.036826283 -0.00024737482 -0.04141134 -0.14010447
-0.08616338 -0.12658739 0.10812975 0.0059248274 0.06707229 0.12085131 -0.038237654 -0.056643352
-0.042751107 -0.018476626 -0.07443917 0.06001565 0.013433039 0.04634503 0.04763221 0.055478297
0.06431465 -0.12110093 -0.008123095 0.08803288 -0.02837696 0.049924165 -0.016885608 0.029713057
-0.04570217 0.00545524 0.04605649 0.046265595 0.046019685 -0.10960742 -0.03148712 0.05713958
0.06666128 -0.078111954 -0.14973813 -0.16961446 0.10577654 0.0053310036 -0.028689675 0.10051346
0.14107864 0.06817202 -0.030128242 -0.055084888 -0.029428065 -0.0011519889 -0.015232405 0.09537218
-0.040638402 0.117828794 0.18329532 -0.06369304 -0.070925094 0.09408675 -0.006988382 0.029277407
0.082173154 0.090778776 -0.00043380866 0.030840589 0.006413969 0.04246059 0.102289796 0.056642354
0.06846915 -0.019546766 0.010319489 -0.079789296 -0.035694197 0.056205217 -0.055638116 -0.07740124
0.052559223 0.044824928 -0.13226116 -0.07920965 -0.030764429 -0.055566777 0.064515926 0.10675908
-0.021326402 -0.015175807 0.07867311 -0.05684414 0.021910977 -0.021381248 0.03734253 0.01757967
0.08351887 -0.06920425 0.016876167 -0.055876445 -0.08216519 -0.046115056 -0.093253635 -0.020631207
-0.066030554 -0.0085183885 0.09699225 -0.0049062707 -0.066850185 -0.092945 -0.0798924 -0.10502914
-0.10202468 0.030541625 0.016335374 0.06614763 0.035265516 0.0060900003 -0.050301414 -0.004925679
-0.07687757 -0.05402812 0.042969584 0.084555015 0.006444452 -0.04194353 0.026531395 0.04809093
0.08310773 0.05318325 0.011359143 -0.003269216 0.008607128 -0.08656211 -0.010624526 -0.016084533
-0.03950199 0.053038187 0.10979862 -0.044256303 0.036147047 0.04059162 0.02680734 0.03769797
-0.034271766 0.009558977 0.06675656 -0.020658277 0.098799 -0.02721456 0.048636165 0.031053722
-0.1877065 0.07959572 -0.050422158 0.020391533 0.062000357 -0.014780376 -0.024068372 0.056657832
0.12530029 0.05390237 -0.07616387 0.03902548 0.098497294 0.008675946 0.03776152 -0.010302816
00000000: 7624 883d 43e4 31bc 8bc8 a23d e7da 12bd
00000010: fca6 a3bd 446c 81bd 74bb 22bb 05f4 8d3b
00000020: 6dee bd3d 06b3 b13c f24e 203d ff91 7f3d
00000030: 4fc9 cf3d b666 12be b664 b23d 022f b0bd
00000040: 570d a23d 8b4d af3d 9b5e bd3c 0f1f 96bd
00000050: 7e7e f53c 951e 013d 0d2b d53d dc63 c03b
00000060: 75c3 e63c cc31 8ebc 50ae 853d a3f8 853b
00000070: 4b77 f03d 9ac4 9cbd d1c4 76bd 512f 1d3c
00000080: 70ab a43d 0b51 7b3c a53f 043c e10d 23bd
00000090: 044e ca3c f962 cabc 9bd9 93bd ad01 653b
000000a0: 93f0 9d3c 92fe bcba a9a4 5bbd d71b 6bbc
000000b0: 835b c63c 8a3a 98bd 48bc 883d 755c 8d3d
000000c0: 66cd e43d 25f1 ddbd 648a 7f3d 97af 48bd
000000d0: 3f6d a63c 2102 433d 52ed 6c3d 95c6 e33d
000000e0: 4218 e9bd 2093 91bd aa24 4fbd ba19 b63c
000000f0: ba94 c13c e277 313d 02c5 01bd 733e a7bc
00000100: 07a7 ef3c 6fcb a8bd cc68 473b a7ef c0bd
00000110: cff2 d83d ab15 333d 9b12 793d 2823 4cbd
00000120: 066b fc39 f0f1 04bc e43b 69bc 6c7d 1b3d
00000130: 8acf 9bbd 713d 90bd ae71 ccbd 8a42 dd3d
00000140: b8ce 4bbc 016d b0bb a9ca 803d d6d0 06bd
00000150: aaca 12bd 9ac8 90bd ee8e c93c 73df 393d
00000160: 31b1 adbd b1fa cdbd 0f03 883d 21d7 ab3c
00000170: 28d7 16bd 16b2 81b9 f09e 29bd 8c77 0fbe
00000180: 6d76 b0bd 20a0 01be 2173 dd3d 0e25 c23b
00000190: 325d 893d e480 f73d 169f 1cbd dc02 68bd
000001a0: c91b 2fbd 4b5c 97bc 9073 98bd f8d2 753d
000001b0: 4016 5c3c 49d4 3d3d fe19 433d 363d 633d
000001c0: 66b7 833d c403 f8bd bb16 05bc 954a b43d
000001d0: cc76 e8bc 487d 4c3d b053 8abc cc68 f33c
000001e0: 3332 3bbd dfc1 b23b bba5 3c3d fe80 3d3d
000001f0: 237f 3c3d db79 e0bd a3f8 00bd 310b 6a3d
00000200: b685 883d 29f9 9fbd f454 19be 6aaf 2dbe
00000210: 5fa1 d83d b3af ae3b 9c06 ebbc 00da cd3d
00000220: eb76 103e c69d 8b3d 81cf f6bc b1a0 61bd
00000230: 2013 f1bc 55fe 96ba 5691 79bc 7d52 c33d
00000240: 7474 26bd 3950 f13d c5b1 3b3e 7f71 82bd
00000250: 2d41 91bd 8eb0 c03d ccfe e4bb 2cd7 ef3c
00000260: 664a a83d 39ea b93d d070 e3b9 67a5 fc3c
00000270: 462c d23b 28eb 2d3d 507d d13d d001 683d
00000280: 8e39 8c3d 8a20 a0bc 1313 293c 9268 a3bd
00000290: 1434 12bd 7137 663d cbe4 63bd 8b84 9ebd
000002a0: 5748 573d 589a 373d 786f 07be ab38 a2bd
000002b0: af05 fcbc fd99 63bd ed20 843d 81a4 da3d
000002c0: b5b4 aebc f3a3 78bc 5e1f a13d 67d5 68bd
000002d0: a67e b33c ba27 afbc 7bf4 183d 3d03 903c
000002e0: f10b ab3d f5ba 8dbd e33f 8a3c b3de 64bd
000002f0: 3946 a8bd 24e3 3cbd c3fb bebd c702 a9bc
00000300: 073b 87bd b690 0bbc dfa3 c63d c8c4 a0bb
00000310: c0e8 88bd f359 bebd a09e a3bd 8519 d7bd
00000320: 51f2 d0bd 6e32 fa3c c3d1 853c 6978 873d
00000330: 9372 103d a08e c73b db08 4ebd 9767 a1bb
00000340: fd71 9dbd 974c 5dbd e000 303d 2e2b ad3d
00000350: fb2b d33b fbcc 2bbd 5e58 d93c fffa 443d
00000360: 6334 aa3d aed6 593d b31b 3a3c 5840 56bb
00000370: e904 0d3c 7a47 b1bd 7e12 2ebc b6c3 83bc
00000380: d7cc 21bd 923e 593d 19de e03d 1946 35bd
00000390: ed0e 143d 6643 263d 119b db3c 3069 1a3d
000003a0: 8d60 0cbd 419d 1c3c aab7 883d 8c3b a9bc
000003b0: 2157 ca3d 12f1 debc b736 473d 6064 fe3c
000003c0: 2236 40be 1503 a33d 7787 4ebd 250c a73c
000003d0: 16f4 7d3d 6429 72bc 092b c5bc 0b12 683d
000003e0: b84e 003e bbc8 5c3d cefb 9bbd 2fd9 1f3d
000003f0: f3b8 c93d 8e25 0e3c d3ab 1a3d 24cd 28bc

network_body._body_endoder.seq_layers.4.bias f4 [256]
0.0028061813 0.0075416015 0.015331289 0.014187118 -0.0032281943 -0.0009840254 0.0002819245 -0.0011180197
0.0059710117 0.014985478 0.0032807435 -0.00510633 -0.0074723028 -0.010256136 0.0028432405 0.008781667
0.003044772 0.0012891728 -0.0010544496 0.011597303 -0.0009902238 -0.00180116 0.010389523 0.00390966
0.004977844 0.00197134 0.014448933 0.0064211036 0.005531374 0.012191417 -8.942198e-05 0.0011069252
0.008119439 -0.0020904897 0.0051736333 0.006371341 0.010605688 0.014800933 0.0097129475 0.0044238954
0.0050266017 0.011987346 -0.010794599 0.008824414 0.0036067253 0.008906977 -0.0046874387 0.012827368
0.0025075083 -0.00461171 0.0052905823 0.004524066 0.012467229 0.009506415 0.010690089 0.004390511
0.0003835253 0.007426456 0.0015676147 0.0046335333 -9.1902744e-05 -7.02826e-05 0.0005526317 0.0005212567
0.016448956 0.008406899 0.004127248 0.012078273 -0.004439318 -0.004472547 0.011705754 0.0070234267
-0.002388099 0.014550065 0.0068514114 -0.0022792723 0.0023760428 0.011388861 0.011344898 -0.008717898
0.006338304 0.013286877 0.0012989182 0.016399 0.0020120258 -0.0043851733 -0.00093699316 0.0014374756
-0.002089551 0.0021890963 0.0013355169 0.006482895 0.0016022861 0.010311938 0.0023925647 0.0037038662
0.00578605 0.00075118867 0.007235486 0.013704781 -0.007364317 0.004243261 0.009648816 0.00624109
-0.00085648615 0.0021643303 -0.0014163449 0.011003665 0.0080294 -0.0004695781 -0.002128438 -0.004943497
0.0013717957 -0.0012558767 0.013261901 0.0009355862 0.0025448955 -0.0015876461 0.007024573 0.011102627
0.013809232 -0.0026569515 0.000944299 0.001993908 -0.006089843 0.0015078757 0.0019197855 0.005486
-0.00027428634 0.0079737445 0.0079764575 -0.0030079316 -0.0052776616 0.0011394599 0.01755056 0.0051288763
-0.0013117077 0.005958271 -0.0046356944 0.007728949 0.0050534657 -0.0027283765 0.001153776 0.01057365
0.0017827553 0.0057454864 0.009304559 0.007461647 0.00521132 0.009006286 -0.0020162454 0.010031132
-0.00704732 0.014745848 0.011383716 0.0028297103 -0.0052012745 -0.0056389254 0.0062099965 0.009170538
0.010594983 0.0006869532 -0.008502316 0.0005545355 0.009263496 0.006367262 -0.0017762765 0.0008052479
0.00899055 -0.0044877604 0.0059185396 0.00315175 0.0073377793 0.0056362133 0.0034382145 0.017182203
0.0014828441 -0.0036091048 0.0011070909 0.0007727736 0.004876688 -0.005161556 0.0011436848 -0.0036869044
0.004933989 -0.0013611392 0.009033419 0.0024410444 -0.004791919 0.0008714518 0.0013153325 0.0057981987
0.0004141981 0.0019540987 0.001254006 -0.004516908 0.0029487226 0.015335697 -0.0061222925 0.01867731
-0.0016397535 -0.0015758972 -0.0057361224 0.013558321 -0.005483966 0.009490879 0.011597434 -0.0015183563
-0.00033427944 -0.0033275129 -0.001982305 0.0008855487 0.0042926734 0.013055526 0.016998822 0.007993738
0.009399678 -0.0018977555 -0.0012932677 0.01597523 0.002855406 -0.0025920577 0.013842078 0.012631986
0.015716743 0.0069995704 -0.0017835991 -0.00032846825 0.0013881914 0.005330714 0.0016979869 -0.0016889935
-0.0041210703 0.001899386 -0.0028320234 0.0098218 0.0035597063 0.01568592 -0.004147984 0.014205985
-0.0013692897 -0.0038249863 0.008231569 0.016782843 0.0059006456 0.0014671306 -0.005327378 0.001025065
0.0010385348 0.0008183792 0.009730914 0.018029263 0.004511381 0.004431375 0.014129272 0.0048609995
00000000: e9e7 373b 8a1f f73b 1630 7b3c 1671 683c
00000010: 1d90 53bb 6afa 80ba 44cf 9339 848a 92ba
00000020: 7aa8 c33b a685 753c be01 573b 0053 a7bb
00000030: 38da f4bb 5a09 28bc a955 3a3b fbe0 0f3c
00000040: cc8a 473b 76f9 a83a 7535 8aba 9d02 3e3c
00000050: 66ca 81ba e714 ecba d138 2a3c 9b1c 803b
00000060: 2f1d a33b 9931 013b 38bb 6c3c 1f68 d23b
00000070: 8740 b53b 82be 473c 0f88 bbb8 3f16 913a
00000080: 6507 053c 9900 09bb 9587 a93b afc6 d03b
00000090: 7bc3 2d3c 9d7f 723c 0e23 1f3c 53f6 903b
000000a0: 31b6 a43b 9366 443c d4db 30bc 4694 103c
000000b0: cf5e 6c3b 92ee 113c 1699 99bb e229 523c
000000c0: 0255 243b d41d 97bb 9f5c ad3b 9e3e 943b
000000d0: 5943 4c3c cbc0 1b3c 7c25 2f3c 47de 8f3b
000000e0: e513 c939 a159 f33b 6c78 cd3a e5d4 973b
000000f0: e9bb c0b8 af64 93b8 7cde 103a f2a4 083a
00000100: f6bf 863c 17bd 093c de3d 873b f3e3 453c
00000110: b377 91bb 728e 92bb 7ec9 3f3c c624 e63b
00000120: a781 1cbb 6563 6e3c ce81 e03b d85f 15bb
00000130: 62b7 1b3b 5898 3a3c f3df 393c 84d5 0ebc
00000140: 8cb1 cf3b 34b1 593c 7640 aa3a 3257 863c
00000150: 31dc 033b 80b1 8fbb 8ca0 75ba ad69 bc3a
00000160: d9f0 08bb f176 0f3b 830c af3a 776e d43b
00000170: cd03 d23a 67f3 283c 93cc 1c3b 90bc 723b
00000180: e898 bd3b 6beb 443a a817 ed3b 058a 603c
00000190: 5e50 f1bb 0e0b 8b3b 1116 1e3c 0f82 cc3b
000001a0: d085 60ba 70d7 0d3b a6a4 b9ba b748 343c
000001b0: bf8d 033c b531 f6b9 447d 0bbb 0ffd a1bb
000001c0: d3cd b33a 3b9c a4ba 7248 593c 2142 753a
000001d0: 43c8 263b 9018 d0ba 642e e63b cbe7 353c
000001e0: 1e40 623c 4020 2ebb d58a 773a 3aac 023b
000001f0: 4e8d c7bb eaa3 c53a 50a1 fb3a e7c3 b33b
00000200: 17ce 8fb9 4fa4 023c b0af 023c b820 45bb
00000210: 3cf0 acbb ee59 953a 31c6 8f3c 2210 a83b
00000220: 9bed abba 9a3d c33b 06e7 97bb 2043 fd3b
00000230: 8b97 a53b 90ce 32bb 4c3a 973a 1a3d 2d3c
00000240: 57ab e93a a244 bc3b 2672 183c d580 f43b
00000250: b8c3 aa3b 1a8f 133c fc22 04bb 9e59 243c
00000260: 34ed e6bb 9298 713c c482 3a3c a972 393b
00000270: 746f aabb bcc6 b8bb 3a7d cb3b 0640 163c
00000280: 9496 2d3c a614 343a 4c4d 0bbc 3f5e 113a
00000290: ebc5 173c 77a4 d03b f3d1 e8ba 4617 533a
000002a0: 1a4d 133c 100e 93bb 4ff0 c13b 978d 4e3b
000002b0: c171 f03b fcaf b83b ab53 613b b1c1 8c3c
000002c0: fe5b c23a bb86 6cbb ce1b 913a f593 4a3a
000002d0: a0cc 9f3b 4522 a9bb b2e7 953a fe9f 71bb
000002e0: 4dad a13b 4168 b2ba e800 143c eef9 1f3b
000002f0: 8805 9dbb 2472 643a 3c67 ac3a d1fe bd3b
00000300: ba28 d939 5610 003b 765d a43a 9202 94bb
00000310: 5b3f 413b 9342 7b3c 839d c8bb 2801 993c
00000320: ffec d6ba 568e ceba 15f6 bbbb b823 5e3c
00000330: d7b2 b3bb a27f 1b3c 2a03 3e3c 9503 c7ba
00000340: 3a42 afb9 6712 5abb 8fe9 01bb 2b24 683a
00000350: 8ea9 8c3b d8e6 553c 1d41 8b3c 2bf8 023c
00000360: 1b01 1a3c 1cbe f8ba dd82 a9ba 7cde 823c
00000370: c321 3b3b 83df 29bb e2c9 623c 64f6 4e3c
00000380: 66c0 803c a75c e53b a8c7 e9ba 4336 acb9
00000390: f9f3 b53a 45ad ae3b fc8e de3a 3861 ddba
000003a0: 0b0a 87bb d2f4 f83a 7899 39bb 9deb 203c
000003b0: f649 693b c27f 803c d0eb 87bb 38c0 683c
000003c0: bd79 b3ba 9fac 7abb b4dd 063c 2c7c 893c
000003d0: 345a c13b bc4c c03a 4991 aebb 795b 863a
000003e0: 721f 883a 8088 563a 696e 1f3c 1bb2 933c
000003f0: 35d4 933b 1135 913b 767e 673c 0549 9f3b

action_model._continuous_distribution.log_sigma f4 [1, 2]
-0.046842124 0.037908677
00000000: 87dd 3fbd 2146 1b3d

action_model._continuous_distribution.mu.weight f4 [2, 256]
0.020462716 -0.0049686106 -0.024048032 0.016728254 0.03183895 -0.02530273 0.0059491666 0.0070078946
-0.00018177861 -0.0137001155 0.013765025 -0.007214209 -0.00095525617 0.019700574 0.00199473 -0.023459587
-0.0033380971 -0.017754503 0.022531278 -0.0027324653 -0.021915449 -0.0074078226 0.009484438 -0.012680357
0.029847538 -0.004441577 0.009360211 -0.012629655 -0.022761714 0.022564568 -0.00052683096 -0.009065149
0.0052242177 0.038351074 -0.0009440312 -0.008582235 -0.013915898 -0.0010886842 -0.016300682 -0.03828371
0.004644954 -0.027501734 0.0150204105 -0.03433268 0.019773783 -0.0015402982 -9.581589e-05 0.029485863
0.049708635 0.007403204 0.028614677 -0.014433716 0.022276014 0.020998068 0.013155408 0.002257504
0.010182802 -0.037255153 0.020587407 -0.0072348844 -0.022702625 0.015800068 0.033932097 0.010026106
0.0024290152 -0.005709123 0.026263768 -0.0042927326 0.014539424 0.022196159 -0.0073801293 -0.023166716
0.011695778 -0.018918842 0.015688129 0.0055309394 -0.0219727 -0.01150015 -0.018625163 -0.0038447187
0.029020572 -0.018304627 0.0034562703 0.0045984 -0.017935984 -0.00029836147 -0.01173169 -0.012209478
0.010814228 0.045267683 0.008548254 0.01482947 0.010273441 -0.011544809 0.011586845 0.002193928
0.021137457 0.017622562 0.029186271 -0.004673693 -0.0051886723 -0.01563793 0.00585639 -0.0023507986
-0.0032156128 0.02355217 0.0114221955 -0.023508467 -0.0019083314 -0.022684883 -0.0032850504 0.025552547
0.005487777 0.045032453 -0.039870895 0.04587487 0.0028998803 0.02618628 -0.0049101766 -0.019414522
0.024503699 0.027669262 0.009461159 -0.0223985 -0.0015584135 0.021016808 -0.010409344 -0.01957622
-0.009600133 -0.03433469 0.021459179 -0.021684859 0.0010072627 0.014409116 0.011110144 -0.05862398
0.013783 0.014284518 0.015082163 -0.014434907 0.01484737 0.010518871 0.032787297 -0.0098653
0.004790855 0.04038217 -0.013913846 0.03339187 0.02100009 -0.0028396086 0.030121475 0.028093694
0.018083455 -0.0027031142 0.011323492 0.023325136 0.0062786886 0.017289506 0.00818886 -0.026472827
-0.021872448 -0.0075006178 -0.0011347205 0.027614415 0.025370942 0.026101362 -0.0013598378 0.011504493
-0.008672045 0.018487124 0.04855317 -0.04779602 -0.027072944 0.0058654817 -0.005860933 -0.003030157
0.03594738 0.014339585 0.013993637 -0.01764004 0.01916191 -0.001529005 0.018387567 0.015536807
-0.03581563 -0.005151146 0.0014117035 -0.0071098367 0.016981851 0.03584364 -0.028828684 -0.018210148
0.04602667 -0.005490587 -0.001107933 0.011386583 -0.027409604 -0.012961549 0.0074040703 0.0018844461
0.02077846 -0.006906336 -0.0064495187 0.0034507508 -0.01114889 0.011337407 -7.154796e-05 0.001349342
-0.0022719915 -0.016716572 0.018518245 0.03641684 -0.0034315162 0.024539854 0.01375749 -0.037905514
-0.022896973 0.025148554 -0.01458914 -0.01638641 -0.024262061 0.006134491 -0.0036941457 -0.008974741
-0.008642295 -0.017801156 0.03636933 0.013495559 0.026947178 -0.00412884 0.03475583 0.05564039
0.005540417 -0.017951934 -0.007196873 -2.8247767e-05 0.0011307147 0.0012885393 0.032241285 -1.7094124e-05
0.014659376 -0.01923367 -0.015688656 0.008847277 -0.008466225 -0.04039887 -0.018336639 -0.011919552
0.014043436 0.052615047 -0.0051290737 -0.009370994 0.02193684 0.030392302 0.012683848 -0.05122336
00000000: 6da1 a73c bacf a2bb 6100 c5bc b109 893c
00000010: 8f69 023d ac47 cfbc 3af1 c23b 7ba2 e53b
00000020: d39b 3eb9 7376 60bc b386 613c 2c65 ecbb
00000030: 286a 7aba 1963 a13c 04ba 023b 522e c0bc
00000040: fac3 5abb e471 91bc 8493 b83c 2913 33bb
00000050: 0788 b3bc 52bd f2bb 9e64 1b3c 46c1 4fbc
00000060: d382 f43c a68a 91bb 925b 193c 9dec 4ebc
00000070: c676 babc 54d9 b83c 071b 0aba fe85 14bc
00000080: ea2f ab3b 0416 1d3d dd78 77ba 819c 0cbc
00000090: 82ff 63bc 2eb2 8eba 0289 85bc 61cf 1cbd
000000a0: b334 983b 514b e1bc 2b18 763c 6da0 0cbd
000000b0: a1fc a13c d5e3 c9ba c4f0 c8b8 568c f13c
000000c0: 489b 4b3d 9496 f23b 5469 ea3c 657b 6cbc
000000d0: 307c b63c 2404 ac3c c889 573c a2f2 133b
000000e0: c4d5 263c dc98 18bd eca6 a83c 9c12 edbb
000000f0: dbfa b9bc 256f 813c 62fc 0a3d 8944 243c
00000100: 1d30 1f3b 9813 bbbb 1d27 d73c 0daa 8cbb
00000110: c436 6e3c b8d4 b53c 03d5 f1bb 20c8 bdbc
00000120: a69f 3f3c b0fb 9abc 6484 803c e23c b53b
00000130: 1700 b4bc 206b 3cbc cc93 98bc adf7 7bbb
00000140: 8dbc ed3c 96f3 95bc 9882 623b 2dae 963b
00000150: 7cee 92bc 666d 9cb9 4636 40bc 430a 48bc
00000160: 292e 313c 9b6a 393d fa0d 0c3c 4ef7 723c
00000170: ef51 283c 7026 3dbc c0d6 3d3c 01c8 0f3b
00000180: 7628 ad3c 315d 903c 0c18 ef3c c725 99bb
00000190: bd05 aabb 1e1b 80bc f6e6 bf3b db0f 1abb
000001a0: 08bd 52bb 7bf0 c03c 2924 3b3c d494 c0bc
000001b0: fa20 faba a6d5 b9bc 004a 57bb 9353 d13c
000001c0: cfd2 b33b f373 383d aa4f 23bd 4ae7 3b3d
000001d0: eb0b 3e3b 9c84 d63c 8ce5 a0bb 340b 9fbc
000001e0: fbbb c83c a6aa e23c fa02 1b3c 0f7d b7bc
000001f0: ae43 ccba 712b ac3c f48b 2abc 4f5e a0bc
00000200: e049 1dbc 88a2 0cbd 29cb af3c 72a4 b1bc
00000210: 2106 843a 3614 6c3c 5207 363c b31f 70bd
00000220: 18d2 613c 9c09 6a3c 2d1b 773c 6380 6cbc
00000230: 6242 733c 5857 2c3c f94b 063d 11a2 21bc
00000240: 9bfc 9c3b c667 253d e6f6 63bc eac5 083d
00000250: 6108 ac3c ba18 3abb 50c1 f63c bf24 e63c
00000260: c123 943c bb26 31bb 2b86 393c 5b14 bf3c
00000270: 75bd cd3b b9a2 8d3c 912a 063c 8bdd d8bc
00000280: d92d b3bc bec7 f5bb e7ba 94ba a037 e23c
00000290: b9d6 cf3c 86d2 d53c 963c b2ba 577d 3c3c
000002a0: 3115 0ebc 4f72 973c b0df 463d c2c5 43bd
000002b0: 14c8 ddbc 3a33 c03b 120d c0bb 9995 46bb
000002c0: 8f3d 133d 94f0 6a3c 9145 653c d881 90bc
000002d0: 70f9 9c3c e568 c8ba 86a1 963c 178e 7e3c
000002e0: 69b3 12bd f2ca a8bb e908 b93a a2f9 e8bb
000002f0: 861d 8b3c c8d0 123d 222a ecbc 732d 95bc
00000300: 7686 3c3d 62ea b3bb 1038 91ba ca8e 3a3c
00000310: 1b8a e0bc ad5c 54bc d89d f23b 85ff f63a
00000320: 9737 aa3c 8c4e e2bb 7c56 d3bb fe25 623b
00000330: d5a9 36bc 88c0 393c 050c 96b8 68dc b03a
00000340: b1e5 14bb 31f1 88bc 93b3 973c d329 153d
00000350: 4ae3 60bb ce07 c93c 1867 613c d042 1bbd
00000360: 6f92 bbbc 5704 ce3c 4a07 6fbc cb3c 86bc
00000370: 3bc1 c6bc d703 c93b 7b19 72bb cb0a 13bc
00000380: 6a98 0dbc bbd3 91bc 02f8 143d 7a1c 5d3c
00000390: 54c0 dc3c 384b 87bb 215c 0e3d 2de7 633d
000003a0: 638c b53b ef0f 93bc bfd3 ebbb 9ef5 ecb7
000003b0: 7d34 943a 34e4 a83a 700f 043d 5a65 8fb7
000003c0: e12d 703c ee8f 9dbc 7f85 80bc 2bf4 103c
000003d0: ecb5 0abc 4979 25bd b836 96bc 3a4a 43bc
000003e0: 7116 663c e082 573d ca11 a8bb cc88 19bc
000003f0: e3b4 b33c 47f9 f83c eacf 4f3c 96cf 51bd

action_model._continuous_distribution.mu.bias f4 [2]
-0.0018277776 0.00049066223
00000000: 0a92 efba c99f 003a
