Assets/Training/results/zombiekiller2/AgentController/AgentController-999975.onnx (onnx, 670568 bytes, 11 tensors)

network_body._body_endoder.seq_layers.0.weight f4 [256, 128]
00000000: fef4 ccbd 6a8b 8ebd fea7 d8bd aec7 8a3e
00000010: ddae 4ab9 2979 1c3c b4d6 e93d 37eb 7a3d
00000020: a17e 333e e96d 46bd e1dc e8bd 815b 873d
00000030: a794 163d d142 0ebd 3e23 0c3e 19d3 cf3d
00000040: e959 a73c 2f08 45be 446f 12bc 3f34 ba3c
00000050: d830 433e efc0 afbd e489 283e cb42 b73d
00000060: b142 1abc 4220 b53b 4066 b23d 03e3 8f3c
00000070: 1947 723d 999e 353e 62d0 6bbe c008 58bc
00000080: 8a81 233e d5bf fbbc e3c7 3a3e 1f82 2c3d
00000090: 4432 bf3d 91f5 333c 80a6 e03c e723 263e
000000a0: 0182 e1bd 906c aebd 3c68 073e 15ba 81bc
000000b0: c630 c43d b97e 453c a522 fa3c 9658 e6bd
000000c0: e683 08be d04c 993d 44b7 86bc 9535 c0ba
000000d0: 4b10 b83d 3ed2 043e ebf7 b13d d5d1 593d
000000e0: 1e15 d7bd 174c 3abe 99c7 bdbc b300 203c
000000f0: db20 f4bd 3afb 053d e670 80bb ab91 243d
00000100: 7779 b73d cc9c 86bc fa91 973d 653c efbd
00000110: 5f5f c5bb 0466 c93d 33a9 5bbd 2dbc ee3b
00000120: ccac 07be 9830 8bbd 2162 edbd 4fb7 d9bc
00000130: 8345 81bd d3ad d53d 77ff 3a3e 6c07 d1bd
00000140: 240d e6bd aacf 1c3d a87f cfbd dab8 93bd
00000150: e9fe 2f3d 1e46 523d e36e fc3c 15e7 acbc
00000160: d5ee 96bd 7f5a d8bc 354c b7bd 4697 b63d
00000170: 7c3f ab3a 9ea4 c13d 0c2a 06be e4fd 293d
00000180: 9d03 9f3d ace0 c5bd f1fb e3bb 2571 5c3d
00000190: c9bf ac3c 1009 253d 3dd7 ab3c 0a79 b73d
000001a0: b0e6 0ebe 90fc 8abc dfe4 e83d 2e72 a63d
000001b0: 83ab 833d cd0d b2bd c0ca 20bd 39c8 11bd
000001c0: d7b1 a43c f953 e23d 8aca 563c e197 a2ba
000001d0: b27c 633c 5360 443e 4df8 213e 94de f03d
000001e0: 8d09 673d 1971 253e 0f65 1c3b 0d15 523d
000001f0: 67b3 e73d de74 293d 4828 a63d d3db 043d
00000200: edd5 153e 1525 ecbd addc 8bbd f545 09be
00000210: 52fd 99bd 48bc 533d f7c7 8cbd 8644 fabc
00000220: a6cd bc3c 3a8b 6bbd ecab 0f3e d486 d43c
00000230: f64c 20be 5744 243c bc1e a63a 147c bfbd
00000240: 66e9 8c3d 653b 03be ca4c ebbd 9dd9 303e
00000250: 861c d83c e952 1cbd 97e3 86bd a26c ea3c
00000260: 1332 4bbe 6ba6 b1bd d884 e23c f01d 89b8
00000270: ad87 983c 8f40 10be bb0f 06be 4e16 27be
00000280: c0fb d4bd bcbf 863d a82a 0fbc 7b2b 7b3c
00000290: 9474 933d 1f6f 373e d17b 2bbd bed6 423d
000002a0: 9a1c 07bd 6fcd eb3c 7b82 d13b 19d4 aabd
000002b0: 2fac 1f3d 1913 683c 9f97 c53d 733b f2bd
000002c0: 80e7 46bd dacc 913c 9b4b 293d 14c4 f43d
000002d0: 9b6f 80bc 2c17 81bd 593b 053e ad6d 823d
000002e0: 4b9f 7bbd ed88 3abc e901 1e3d 164c 9abd
000002f0: df53 933d aadd 103e f4f8 153d a8ef 0d3d
00000300: 3dcb f33d 6b30 d5bd 3c88 11bd 92bb ee3a
00000310: 94c9 fa3d 9eab d53c 2f6b 443d cbdd ee3c
00000320: be3f 4cbe 6345 f13d 83fb 41be c664 57bc
00000330: 9143 33bc c125 12bd 4ace f93d b042 f9bb
00000340: 8fa4 babd 50c0 df3d 05b4 cabd e26a 63bd
00000350: b9fe 003e fae7 6dbd 69f2 28be a4b8 9a3d
00000360: 672a a6bc 5cec 693e 4b17 59bd b777 aebd
00000370: d12e 883d 54c0 1cbc 7a96 9cbd 9c52 8fbd
00000380: b38d d4bd 7dfd 573e d923 333e 1e7a 5fbb
00000390: 7a77 933d 9dbf fbbd 78d1 06be cc3b b8bd
000003a0: ca18 923d f878 babc ce82 253e 49fd 0f3d
000003b0: 84e3 973d d10f b53d f31a f73c 5362 d5bb
000003c0: 7f28 0a3e 1640 413d 2f81 b3bb d099 f73d
000003d0: 2189 c5bd 9d63 82bd 27fc bdbd 4064 80bd
000003e0: 9fb3 0bbd 7b4c b4bd f884 4d3b f4f9 ba3c
000003f0: 51cd 98bd 639c 90bd a5f3 f03d 71a5 70bd
-0.10007666 -0.06960185 -0.10578917 0.2710547 -0.00019329363 0.009550371 0.114179045 0.061259475
0.17528774 -0.048444662 -0.11370254 0.0660925 0.03676286 -0.03473169 0.13685319 0.101476856
0.020428615 -0.19241403 -0.008937661 0.022729991 0.19061601 -0.08581721 0.16458851 0.089482866
-0.0094153145 0.005527527 0.08710909 0.017564302 0.059149835 0.17736281 -0.2302871 -0.01318568
0.15967384 -0.030731121 0.18240313 0.04211628 0.09335759 0.010983841 0.027423143 0.16224633
-0.110111244 -0.085168004 0.13223356 -0.015835801 0.09579615 0.012054139 0.030534098 -0.11247365
-0.13331565 0.07485354 -0.01644481 -0.0014664406 0.08987483 0.12970826 0.08689865 0.053178627
-0.10502075 -0.18193088 -0.023166465 0.009765792 -0.11920329 0.03271029 -0.0039197085 0.040177982
0.089587145 -0.016432188 0.0740089 -0.11681441 -0.006023332 0.09833911 -0.053628158 0.007285616
-0.1324951 -0.06796378 -0.11590982 -0.026576666 -0.063120864 0.10433545 0.18261515 -0.10206494
-0.11232975 0.03828398 -0.1013177 -0.07212992 0.04296771 0.0513364 0.030814594 -0.021106282
-0.07369772 -0.02641034 -0.08950082 0.08915572 0.0013065184 0.09455226 -0.13101977 0.041501895
0.07764361 -0.096619934 -0.006957524 0.05381884 0.021087544 0.040291846 0.020976657 0.08958633
-0.13955188 -0.016966134 0.11371779 0.08127247 0.06429198 -0.086940385 -0.039255857 -0.035591338
0.020104332 0.11051173 0.0131098125 -0.0012404883 0.01388471 0.1917737 0.15817375 0.117612034
0.056405593 0.16156425 0.0023863947 0.051289607 0.11313515 0.04137122 0.08113152 0.032436203
0.14632387 -0.1153051 -0.068292 -0.13405593 -0.0751902 0.05169323 -0.06874078 -0.030550253
0.02304728 -0.057505824 0.14030427 0.025943197 -0.15654358 0.010026059 0.0012673954 -0.09349838
0.06880455 -0.12815626 -0.11489256 0.17270513 0.026380789 -0.038165007 -0.06586378 0.028616253
-0.1984332 -0.0867432 0.027651235 -6.538245e-05 0.018619383 -0.14087127 -0.13091938 -0.16317102
-0.1039958 0.06579539 -0.008738197 0.015330191 0.0719997 0.17913483 -0.041866127 0.047568075
-0.03298626 0.028784482 0.0063937283 -0.08341236 0.038982566 0.0141647095 0.0964806 -0.11827745
-0.04856062 0.017797876 0.04133187 0.119514614 -0.015678218 -0.06303248 0.1301092 0.06368575
-0.06143121 -0.011385185 0.03857604 -0.075340435 0.071937315 0.14147058 0.036614373 0.034652382
0.11903999 -0.104096256 -0.035530314 0.0018213859 0.12245479 0.02608281 0.04795378 0.029158494
-0.1994619 0.117808126 -0.189436 -0.013146585 -0.010941402 -0.035680536 0.1219755 -0.0076068267
-0.09113418 0.109253526 -0.09897617 -0.055521853 0.12597169 -0.05808256 -0.16498722 0.07554749
-0.02028389 0.2284407 -0.05300073 -0.085189275 0.066495545 -0.009567339 -0.076458886 -0.06998178
-0.103785895 0.21092792 0.17494144 -0.0034099887 0.07200523 -0.12292407 -0.13165843 -0.0899578
0.071336344 -0.02276276 0.1616318 0.03515366 0.07416442 0.08840907 0.030164218 -0.0065119653
0.1349201 0.047180258 -0.0054780464 0.12089884 -0.09645296 -0.06366656 -0.0927661 -0.06269121
-0.034106847 -0.0880365 0.0031359773 0.022824265 -0.07461036 -0.070610784 0.117652215 -0.058751527

network_body._body_endoder.seq_layers.0.bias f4 [256]
00000000: e612 353c f669 f63b c09c 463b 04d0 053c
00000010: ffe9 983c 1869 7b3c f441 13bc 01a3 4b3b
00000020: a22c 983b fa3e 323c 31e6 593c 414e 2fbd
00000030: 24b3 35bc 5521 9a3c 885a 413c 85b4 1d3c
00000040: ce75 683b e408 2f3c 6dbf 813c 355d 823b
00000050: 22d0 353b 3d72 723c 6a5b ce3b 3be7 ed3b
00000060: bd51 e33b 4a25 273c e33c 3a3a 844b 9e3a
00000070: 4760 b3bb ad63 1f3b b315 c33b 80b9 e43b
00000080: 1d33 803c 33ea c83b 6036 29bc a3db 2d3b
00000090: 8033 6d3c 54d8 593b 981b 123b af96 503a
000000a0: a84a 47bc 19df dc3a dea5 3cbc d132 0f3c
000000b0: c7ea 85bb 28e0 663b 6d47 463c ae9a 233c
000000c0: d877 1a3c 9a1f a13c 9882 a8bb e406 363c
000000d0: 820c fe3b 27f6 853b c319 763c f7ff 4b3c
000000e0: 978d a13c c443 533c e6c8 f33c c082 3a3c
000000f0: 44b0 993c 5c14 9e3a cc6f 8bba 4aea b0bb
00000100: 1f47 b43b 0321 dd3b cdbe 01ba 1f86 01bc
00000110: e0b5 953c 9815 183c f3eb 39bb d25e 16bc
00000120: 8862 8cba 157e 38bc 878c 933b 232c 343c
00000130: 942c 973b 378b 883c 1209 693b b8d0 3d3b
00000140: 2735 2e3c 8b8c 413b ec77 573c a9a4 1b3c
00000150: c671 1c3c 9550 c1ba 25ed 5d3c 79a7 7c3c
00000160: a2c0 033c 6951 943b 7f8e b93b a19b cabb
00000170: ef5c 423b 13c2 ab3b 4f93 1c3c b71a 5c3a
00000180: e467 153c 26d4 273c 6bb5 6f3b c83c 853c
00000190: 2878 333c a892 513a 6f08 88bb 049f 833b
000001a0: 687f 063c c404 f139 7fa5 38bc 4e6b b2ba
000001b0: 6f69 013c abc0 893b ce60 d13b 4c36 ba38
000001c0: 2558 9cbb d899 80b9 6c4a 163c 9a34 b1bb
000001d0: 19f9 42b9 a8a2 67bb 564a c8ba 69cd 1f3c
000001e0: 8380 74ba 855d 423b f992 113c c3e6 18bc
000001f0: 7b73 7ebb 2739 2bbc bf5b d43a b5c9 f3bb
00000200: 7e33 023c 2256 0d3c 4e1d 9bbc dbbc a53a
00000210: 2014 02bc 4afe 023c 7adb 46bc 4d8b 36bb
00000220: 7ac2 6dba 3e20 3d3c 9b0a 363b e6a0 433a
00000230: 78c3 fd3b cd0c 53bc 9937 f23b f0ac 623c
00000240: b4ff 9bbb 830e d6bc e83d 96bc f76c 073c
00000250: b33c 833c f9d3 2c3b 3204 ff3b a683 123c
00000260: 154b 853b 7f16 9fbc 9714 1b3c 0bbc 2cba
00000270: d9da 003c 5e4a 2a3c 41ed e63b ce50 063c
00000280: 885f 233b 308f 873c 7dda bf3b 7ae2 723b
00000290: 8e5b a73a 5865 823a 99a5 c9ba 32e5 aa3b
000002a0: cf71 913c 1914 183c a036 783c 2820 c8ba
000002b0: bd5d 433b d047 953c 3b74 433c c732 8c3c
000002c0: 27f0 033b 1d99 633b d75d d83b 644c 523c
000002d0: b4f5 dd3b 0a0e 60bc ae68 063c ab36 70bb
000002e0: 0084 4d3b c4e5 bdbb 482e d23c edb4 d03b
000002f0: 1346 c33b 51bb 3d3b 0a8a 433b 2e43 833b
00000300: 4736 3f3c 12d2 90b9 4105 163a cc45 fb3b
00000310: 34cd 453c 4071 343c 84d6 913c 568a 2ebb
00000320: b4ef e7bb e165 313c be7f 473c fc5d 7a3c
00000330: e90e 1c3c 7720 a93c f3e0 e73b 25f0 2cbb
00000340: 88b0 fa3b 778f 4b3c e2fe 2c3c c288 3c3c
00000350: 779c 843c 4182 8abb 094f 943b dbe8 033c
00000360: 5d9c ba3b 3e11 483c 77c9 e7bb 1c27 0e3c
00000370: cfeb 91bc 82e8 d3bb 4062 2cbb 77b2 1e3c
00000380: d33a 15bc a912 6b3c be82 473b 4d4b d1bb
00000390: 346a 38ba e5f6 ed3b cde9 eeba 7828 b33b
000003a0: 9c99 443c 1d54 3bba a6d3 b83c 2d8b 973c
000003b0: ddb5 0a3c ce48 e23b 64a8 17bb 55ce bf3c
000003c0: f2d5 543c adab 3f3c 97b0 73bc 0906 433c
000003d0: 7933 123c f7fb 463c 90cb 603c 3780 aa3c
000003e0: f501 8f3b b2bd 57b9 0b46 703c 5b3d 423a
000003f0: ec2a dc3a 259f 223c 4a11 e03b da13 cd3b
0.011051869 0.0075199557 0.0030305833 0.008167271 0.018666266 0.0153448805 -0.008987892 0.00310725
0.0046439925 0.010879273 0.013299511 -0.042799238 -0.011090074 0.018814722 0.0118013695 0.009625559
0.0035470608 0.010683272 0.01583835 0.0039783963 0.0027742465 0.014797744 0.0062975185 0.007260231
0.006937234 0.0102017615 0.000710441 0.0012076949 -0.0054741236 0.0024320886 0.0059535145 0.006980121
0.015649373 0.0061314343 -0.010327905 0.0026528619 0.014477611 0.0033240514 0.002229428 0.0007957024
-0.0121637955 0.0016851156 -0.011514155 0.008740143 -0.0040868255 0.0035228822 0.01210199 0.009985609
0.009427987 0.01966839 -0.005142521 0.011110041 0.007752956 0.0040881815 0.0150207905 0.0124511635
0.019720836 0.012894575 0.029758882 0.011383712 0.018760808 0.0012060511 -0.0010638176 -0.005399023
0.0055016424 0.00674832 -0.0004949391 -0.007905512 0.018275201 0.009282492 -0.0028369396 -0.00917788
-0.0010710517 -0.011260529 0.004502836 0.010996851 0.0046134684 0.016667945 0.0035558385 0.0028963517
0.01063279 0.0029533233 0.01315115 0.009499707 0.00954861 -0.0014748747 0.013545309 0.015420788
0.008041533 0.0045263064 0.005662739 -0.006183103 0.0029657444 0.0052416413 0.0095566055 0.0008396315
0.009119008 0.010243451 0.003657664 0.016264334 0.01095394 0.0007994571 -0.004151396 0.004016759
0.008209087 0.00045970653 -0.011269926 -0.0013612302 0.0078986725 0.004203876 0.006389714 8.879285e-05
-0.00477125 -0.00024528685 0.009173017 -0.005407882 -0.00018594078 -0.0035344753 -0.0015280943 0.009753563
-0.0009327011 0.0029657793 0.008885139 -0.009332362 -0.0038826156 -0.010450638 0.0016201659 -0.007439817
0.007946847 0.008626493 -0.018934872 0.0012644784 -0.0079393685 0.007995198 -0.012137288 -0.0027854026
-0.0009069812 0.011543332 0.0027777317 0.00074626354 0.007744249 -0.01288147 0.0073918817 0.013835177
-0.004760707 -0.026129967 -0.018340066 0.008265725 0.016020155 0.0026371463 0.0077824825 0.00894252
0.0040677884 -0.019419907 0.009465358 -0.00065893 0.007864677 0.010393707 0.007047326 0.008197976
0.0024928767 0.01654777 0.0058549033 0.003706126 0.0012768374 0.0009948416 -0.0015384435 0.0052153105
0.017754463 0.009282135 0.015149742 -0.0015268372 0.002981051 0.01822272 0.011929567 0.017114056
0.0020132156 0.0034728714 0.0066029835 0.012835596 0.006773675 -0.013675222 0.0082036685 -0.0036653678
0.0031359196 -0.0057952125 0.025656834 0.0063692243 0.005959281 0.002895076 0.0029836916 0.004005811
0.011670656 -0.00027622335 0.0005722829 0.0076682325 0.01207285 0.011013329 0.017802484 -0.0026632748
-0.0070781354 0.0108275125 0.012176452 0.015281197 0.009525039 0.020645363 0.0070763766 -0.0026388254
0.0076504387 0.012424341 0.010558816 0.011507215 0.01618789 -0.0042269533 0.0045260233 0.008051123
0.0056949095 0.012211142 -0.007073577 0.008676317 -0.017812638 -0.006466926 -0.0026303679 0.009686104
-0.009108263 0.014347711 0.0030442919 -0.0063871504 -0.00070348685 0.007262098 -0.0018227637 0.0054674707
0.011999514 -0.0007146018 0.02256186 0.018498981 0.008466211 0.0069056517 -0.002314114 0.023413816
0.012990462 0.011698646 -0.014873645 0.011903294 0.008923405 0.012145034 0.013720408 0.02081309
0.004364247 -0.00020574665 0.014665137 0.00074096554 0.001679746 0.009925638 0.0068379985 0.00625847

network_body._body_endoder.seq_layers.2.weight f4 [256, 256]
00000000: 226e 4f3c e0e8 923d f774 0bbd 6495 2b3c
00000010: 2357 e8bb 6bf7 d73c f1b5 913b 5128 1e3d
00000020: 4763 ce3d ab55 71bd aec1 e0bd 48e5 88bd
00000030: bc5f 9a3d 83c4 273d 171b afbd 0667 1e3c
00000040: 27e4 f1b8 02e3 4d3d 1720 163e ef0e 8e3d
00000050: 0177 043b 7d87 a7bb fc35 38ba a09c 1f3e
00000060: 0e2b 9abd e5ec 22be e17f b13b 15bf 95bd
00000070: 2502 cb3d c9ab 743d 0e2f 81bd 7f98 063d
00000080: 83ef 6c3d 7c5a 673d aa1c 98bd 3d88 c5bd
00000090: b3ab 49bd fdde 303d bb30 af3c aec3 24bd
000000a0: ae07 133d 23b4 9d3c efac 5ebd 7d48 323d
000000b0: a599 3bbd 4995 cf3d 6453 993c aca8 00bb
000000c0: 2799 c2bd 99e0 b73b ecc1 4e3d 1083 493d
000000d0: 5261 9c3a be05 4e3d a488 323d 892b 833d
000000e0: b964 893c 2621 36bc d89d bf3c 7ab2 203d
000000f0: 76eb 033d 8f33 583d 487b 98bd 789b ea3c
00000100: 94eb 933b df69 b3bc 5a2b 5c3c bbea 34bd
00000110: 2912 ff39 4227 203e 5f22 d9bd e93c c43b
00000120: 6440 4c3d 049e 94bd 4db9 3f3b 574b 6d3d
00000130: be19 9abd d111 743d 633b b9bd aad7 f2bd
00000140: cbef 9e3c 0d5f dd3c 472b ce3c 1efb a73b
00000150: 9847 293e f585 fbbc 7a96 013c c31d 263d
00000160: a9d9 61ba 32b3 1e3e 0344 95bb fbc3 cbbc
00000170: 7c27 3d3d d1f8 31bd d549 83bc 06c8 fabc
00000180: 2dfd bf3c ddae dd3d 80cb 333c c045 5f3d
00000190: cd0a 81bd 1258 66bd 13dd b8bd 2ab8 573a
000001a0: c59f 853c 15a3 80bb 6648 a53d 84ea 193d
000001b0: 7034 e7bc fb67 e2bc 735b 8fbc d8be 2c3d
000001c0: 8568 f63c 0c50 26bd dcba a03d f7d0 453d
000001d0: e038 e8bd 9d50 473d 6856 bdbd cd8d 97bc
000001e0: 09ee 2a3d fd5c 723b 8ada 45bd c096 1fbd
000001f0: e33d dcbd 3449 cd3d 4c22 d8bc f8c4 57ba
00000200: 1569 c5bd 50f1 c13c a51d 87bc 2c6f 6d3d
00000210: 2372 04bd e55d 38bd 82c3 2e3d e0d9 be3a
00000220: 84fa 04be 7368 10be e38a 42bd be72 143c
00000230: 126c 46bd 0aa6 adbd 9be6 fabd 4593 20bc
00000240: efa8 85bb d491 95bd 91af a8bd cfb0 cabd
00000250: 0b2e 1d3d eecf 08be f280 b43b 52ba 70bc
00000260: 2483 07bd 0dd3 f5bc 58fb 15bd 897c 65bd
00000270: e3db cabc 9a81 393d 74a0 a33c 0246 1b3e
00000280: e77c afbc 77b6 ccbd 4846 883d 08be a8bc
00000290: c2aa 673d ce53 163d da89 cbbd 1e3a 5dbd
000002a0: 54ca 5dbd e30c 6e3c 72f7 2b3d 6b88 53ba
000002b0: fd57 0b3d 02f5 ac3d 48b9 6fba 7f4a 183d
000002c0: 0ab9 a63b 1da5 80bd 4379 b2bc a4c0 083d
000002d0: 007d 8ebd e60b 353d 80bf 1ebd f739 f4bc
000002e0: 3707 bf3d 5ba0 71bc 072f 413d 51af 4b3c
000002f0: 87c2 643d 5464 303d dd7e 3a3d a9d9 423d
00000300: 75f8 013d 3baf 8ebd 92a6 663b 9457 fa3c
00000310: cc3e f03b e84f b33d 8814 cfbd ead1 8c3d
00000320: 37b2 3f3d 02c2 2f3d 8e66 fa3c 452a 933c
00000330: 34f2 b43d 5cb8 c43d 2307 25bd 8598 06bd
00000340: 819c 03bd 3ce7 deba 7d6e 323d 0403 c6bd
00000350: 8c23 9abd 2bf7 0cbe c05e 103d 2d2f 663d
00000360: ef35 e2bd 5232 ebbd a21a 7ebd 8e88 9b3c
00000370: 4eb2 a3bc d6ef 2dbd b84a 123e c14c 983c
00000380: 2bbc 063d 8cb6 003d 1b9f b2bc 32cc 963b
00000390: b17f 443c 3c21 803b a2de fa3c 3f0e 453d
000003a0: 2798 0e3d 525e 663d 1344 76bd 0f38 1c3e
000003b0: 6bd6 453c 25e8 06be 7969 35bd 7593 bc3d
000003c0: 0815 323e c0c2 b13b ef02 51bd 1e07 893d
000003d0: 12e2 533d 0d81 7dbd 27b2 d7bc dd0e 563c
000003e0: d882 483c f359 c0bd f241 81bd 3813 b63d
000003f0: 2b4d 6cbd bfce 44bd 562e 59bd aead dd3b
0.012660535 0.07173324 -0.034047093 0.010472629 -0.0070904656 0.026363095 0.004446738 0.038612667
0.100775294 -0.05891959 -0.109744415 -0.06684357 0.07537791 0.040958893 -0.08550089 0.009668117
-0.00011534272 0.05026532 0.14660679 0.06936442 0.0020212533 -0.005112587 -0.0007027087 0.15587091
-0.07527743 -0.1591068 0.0054168557 -0.07311837 0.099125184 0.05973414 -0.06307803 0.032860275
0.057845604 0.056482777 -0.07427342 -0.09645126 -0.04923601 0.04318141 0.021385541 -0.040225677
0.035895996 0.019250935 -0.05436414 0.04352616 -0.045800824 0.10135896 0.018716522 -0.0019631786
-0.09501868 0.005611491 0.050477907 0.049197257 0.0011930859 0.050298445 0.043587342 0.06404788
0.016771661 -0.011116302 0.023390695 0.03923271 0.032206975 0.052783545 -0.07445389 0.028638586
0.004514167 -0.02190107 0.01343807 -0.04416917 0.0004865092 0.15639976 -0.10602259 0.0059887064
0.049866095 -0.072567016 0.0029254735 0.057933178 -0.07524441 0.059587304 -0.0904453 -0.11857541
0.019401452 0.027022863 0.02516712 0.005126371 0.16531217 -0.030703524 0.007909412 0.040555727
-0.0008615503 0.15498045 -0.004555227 -0.024873724 0.046180233 -0.04345018 -0.016026417 -0.030612957
0.023436153 0.10824368 0.010973811 0.05450988 -0.06300888 -0.056236334 -0.090265416 0.00082290417
0.016311536 -0.003925691 0.080704495 0.037577167 -0.028223246 -0.027637472 -0.017499661 0.04217419
0.030079136 -0.040603682 0.078481406 0.048294988 -0.11338973 0.048660863 -0.09244996 -0.018500233
0.041730914 0.0036981695 -0.04830412 -0.038962126 -0.107539915 0.10023728 -0.026383542 -0.000823095
-0.096391834 0.023674637 -0.016493628 0.05796735 -0.03233541 -0.04501142 0.04266692 0.0014560781
-0.12986189 -0.14102344 -0.047495734 0.00906056 -0.048442908 -0.08478935 -0.12251016 -0.009800737
-0.0040789763 -0.07303205 -0.08236612 -0.09897005 0.038373988 -0.13360569 0.0055085355 -0.01469286
-0.03308405 -0.030007863 -0.036616653 -0.05602697 -0.024763053 0.045289613 0.019973971 0.15163425
-0.021421863 -0.0999574 0.0665403 -0.020598426 0.05655933 0.036701016 -0.099384025 -0.054010503
-0.054148033 0.01452944 0.04198403 -0.0008069339 0.03401946 0.08445169 -0.00091447355 0.03718042
0.0050879763 -0.06281493 -0.021786338 0.03338684 -0.069574356 0.0442008 -0.038756847 -0.029812796
0.09327548 -0.014747704 0.04716399 0.012431935 0.05584958 0.04306443 0.045531143 0.04757086
0.031731088 -0.06967016 0.0035194498 0.030559339 0.0073317047 0.08755475 -0.10111338 0.068759754
0.04680082 0.04290963 0.03056648 0.017964492 0.08835259 0.09605476 -0.04029001 -0.032860298
-0.032131676 -0.0017006169 0.0435624 -0.09668544 -0.07526311 -0.13766162 0.03524661 0.056197334
-0.11045443 -0.11484207 -0.062037118 0.018986013 -0.019982483 -0.042465053 0.14286315 0.018591287
0.032894295 0.03142409 -0.021804383 0.0046019787 0.011993335 0.003910212 0.030623738 0.04810929
0.034813073 0.056242295 -0.060123514 0.1525576 0.012075047 -0.13174494 -0.04429004 0.09207813
0.17390835 0.0054248273 -0.05102819 0.066908106 0.05172927 -0.06189065 -0.026330067 0.013065067
0.012238227 -0.093921565 -0.06311406 0.088903844 -0.05769078 -0.04804873 -0.053022705 0.006765089

network_body._body_endoder.seq_layers.2.bias f4 [256]
00000000: da5a a73b 3091 903b 5913 5e3c af86 4d3c
00000010: 6cbb 65b9 38e0 253b 2886 263c 3811 4a3c
00000020: 86eb de3b 9ca2 1a3c ea7b 523b 2675 b1ba
00000030: 9f27 993c 78a9 b0bb e91d 1f3c f8d9 f53b
00000040: 603c a43a f76e babb b7a7 21ba c2c6 903b
00000050: b245 6e3c 79bf ad3a 036b 2b3c e16e 49ba
00000060: 0649 ac3b 289b 873c 0e92 14bc 1191 703c
00000070: 03ef 2c3c 363b 8f3b 4fed 75bb 0031 633c
00000080: 38ab 963b 8489 923b c759 abbb a45b 653b
00000090: 5d7f 563c 063e 963c 7a55 a53b 1b74 d63b
000000a0: cdb4 163b e0c4 4b3b 3465 42bb b237 763c
000000b0: 1b93 713b 10a8 453c 5e8f 3c3c 13e7 313c
000000c0: 3dd0 073c f532 bc3b 94e4 3a3c 44f3 c3ba
000000d0: 9f45 5fbc 24a3 d73b d640 143c d5bb bf3a
000000e0: f3a6 273b c464 e63b 4e3e 243b 84f4 863c
000000f0: 61f4 ea3b f5e2 b43b fe11 773c f7ed 0d3b
00000100: 14b9 46bc 82e0 0c3c aad2 fd3b 364a 9e3b
00000110: 7cae 293c e6d6 a13b 5c15 c5b7 bf6d 4f3c
00000120: a2f8 c23b 9639 a53b dd0b 5c3c 80bb 173c
00000130: 2905 b93b c016 58bb 27d9 883c e421 663b
00000140: ab7f dc3b e393 e23b 4609 bcbb b35d 0f3c
00000150: 120a 2f3c 2f52 0f3b 12b7 a93c e8f5 51ba
00000160: 4990 083c 09f0 bb3a e1f8 c0bb fe86 8b3b
00000170: b4b6 843b d5c4 013c b1dc 5bba 94f6 273c
00000180: 47ed c6bb 69d6 443b f66a 823c d5a4 78bb
00000190: e628 353c 4a8e 253c cc54 1a3c 6370 473c
000001a0: 2ef0 ebba 0619 453c 5824 a3b9 05fd a1bb
000001b0: ea98 8db9 9c9e 0ebb 23b0 1dbb b6be 6439
000001c0: 230c 193c 6d02 3fba e86d 163b 578b 8a3c
000001d0: bdf8 68b9 1ae7 a4ba 0814 393c 4a58 b03b
000001e0: 7047 193c 67b3 b33b 9c43 843c b98d 4abb
000001f0: b25f 8a3b 1b1b 8c3c af7f 433c 4682 b0ba
00000200: ff4d 63bb 7dc8 253c 9376 203c 6189 b73b
00000210: 5400 673c bacd a0bc 1445 323c 4c8e 643c
00000220: 4ce7 72ba e94d f7ba bbb3 e63b bbca c83b
00000230: ae95 023c a360 e63b 72b5 213c dcdc a13b
00000240: 0a5c 45bc 67e8 5b3c f3bc 003c df09 073c
00000250: 3e01 aeba 9100 00ba ddf7 07bc e39f 1b3b
00000260: cf4a 883b 0b47 273c e976 8b3c eca7 42bb
00000270: deac 2aba 5845 683c 6dd2 b03b 199b 38bc
00000280: dcee 693b ebae d93b a54b 38bb ab12 b7bc
00000290: 1b2a 4d3b 4062 f73b b942 fd3b ca61 debb
000002a0: 83fb 52bb 673a 03b9 fdba ae3b 70dc 143c
000002b0: 281f 553b edb8 813a e017 0c3b 2912 8b3b
000002c0: 6875 323b dd4e 583c dfa3 463c 0a28 41ba
000002d0: b7ab 82ba b69d 02bb 3cea 783c b636 043b
000002e0: a6c6 88bb 6427 0cbc a44f 843a 3eaf 133c
000002f0: a442 003c 30a8 01bb 587d f03a 676f 233c
00000300: c8c8 3cbb 66f1 4f3b 051a d6ba 5533 fa3b
00000310: 7e25 fcba d878 0c3c a2d1 193b 680e f83a
00000320: 7512 2f3c 01d9 043c ed4c 5f3b 3f3a 1d3b
00000330: 1d53 f7b9 9a52 21bb f220 5b3c 673e a9ba
00000340: 9152 05bc 08af f13a efd9 ee3a 485c 493c
00000350: 273c d23b 9e22 4d3c d31f 223c 1bed e8bb
00000360: 66c5 833b a34f 3f3b b776 8fbb b04c 6cbb
00000370: 7055 343c e13c 743c acf3 d03a 6875 0a3c
00000380: 29ab e33a 8d13 3e3c 63af 493c 9407 523c
00000390: 25a4 2a3c b196 0e3c 7c27 c03b 0443 1f3c
000003a0: 7881 623c 7bf3 033c 97c0 febb 75bd 813b
000003b0: d3f9 5e3c b6de 823b 69fe 10bb 1ece 783b
000003c0: 1d53 d83b 4262 4bbb 3d9c 8f3b 8645 0e3b
000003d0: 104c 5b3c b4b9 933a 1cc0 f53b 54be fbbb
000003e0: 2fa0 663c 019d 013c 4474 3ebc 1f42 423c
000003f0: 285a fbbb 51b3 c4bb 7543 453c 7e21 3f3c
0.005107266 0.004411839 0.0135544175 0.012544318 -0.00021908962 0.0025310647 0.010163821 0.012333207
0.006802979 0.009438183 0.0032117316 -0.0013538941 0.01869565 -0.005391296 0.009711721 0.0075027905
0.00125302 -0.0056894976 -0.0006166654 0.004418225 0.014542984 0.0013255916 0.010462525 -0.0007684064
0.0052577285 0.016553476 -0.009068025 0.014683024 0.010555032 0.004371072 -0.003752548 0.013866663
0.0045980476 0.0044719595 -0.005229208 0.003499725 0.013091889 0.018340122 0.00504559 0.0065446026
0.002299595 0.0031092688 -0.0029662373 0.015027927 0.0036861363 0.012063995 0.011508791 0.010858315
0.008289394 0.0057433792 0.011407036 -0.0014949818 -0.013627439 0.006580727 0.009048661 0.0014628122
0.0025581687 0.007031055 0.002506155 0.016474016 0.0071702455 0.0055202194 0.015079973 0.002165673
-0.012129087 0.008598449 0.0077460604 0.004830624 0.010356542 0.004938948 -2.3494176e-05 0.012660443
0.0059500495 0.005042265 0.013430563 0.009261012 0.005646367 -0.0032972544 0.016705109 0.0035115415
0.0067290864 0.006914602 -0.00573841 0.008750367 0.010683553 0.0021869054 0.020717178 -0.000800936
0.0083351815 0.0014338504 -0.0058890437 0.0042580357 0.0040501 0.007920464 -0.00083870726 0.01025166
-0.006070766 0.0030035025 0.015920144 -0.0037940044 0.011057114 0.010104725 0.009419631 0.012172791
-0.0018000656 0.012029892 -0.0003111686 -0.0049434924 -0.00027007546 -0.002176202 -0.0024061284 0.0002181482
0.0093412725 -0.0007286433 0.0022953693 0.016912146 -0.00022217906 -0.0012581081 0.01129628 0.0053816186
0.009355411 0.005484033 0.01614552 -0.0030907227 0.0042228336 0.017102769 0.011932298 -0.0013466559
-0.003468394 0.010118601 0.009793895 0.0056010936 0.014099199 -0.019629348 0.010880727 0.013949942
-0.00092660333 -0.0018867824 0.0070404685 0.006127683 0.007970257 0.007030563 0.00986992 0.0049396586
-0.01204587 0.013422108 0.007857549 0.0082421 -0.0013275517 -0.0004882897 -0.008298841 0.0023746423
0.0041593085 0.010209809 0.017024474 -0.002970214 -0.00065107446 0.014176689 0.0053961785 -0.011267447
0.003569535 0.0066431663 -0.002812126 -0.022347769 0.0031305614 0.007549554 0.007728901 -0.0067865597
-0.003219337 -0.0001251489 0.0053323493 0.0090857595 0.0032519791 0.0009897031 0.0021376535 0.004244108
0.0027230624 0.013202396 0.012124031 -0.0007368332 -0.0009969388 -0.0019930429 0.015192565 0.0020174212
-0.0041740714 -0.008554313 0.0010094536 0.009013949 0.007828388 -0.0019784085 0.0018347902 0.009975291
-0.0028806198 0.0031729578 -0.0016334659 0.007635514 -0.0019237248 0.008573733 0.0023470898 0.0018925192
0.010685553 0.008108378 0.003407295 0.0023991016 -0.00047173435 -0.0024615885 0.013374554 -0.0012912274
-0.008137361 0.0018439004 0.0018222908 0.012290068 0.006415862 0.01252046 0.009895283 -0.0071083433
0.0040213345 0.0029191754 -0.0043781656 -0.0036056451 0.011006698 0.014907093 0.001594176 0.008450843
0.0017369735 0.011601341 0.012309882 0.01281919 0.010415112 0.00870292 0.005864082 0.009720568
0.013824813 0.008053656 -0.0077744233 0.0039593526 0.013609367 0.0039938344 -0.0022124297 0.0037964652
0.0066017048 -0.0031033908 0.0043826387 0.002170892 0.013384834 0.0011270554 0.007499708 -0.007682601
0.014076277 0.007910968 -0.0116244 0.011856585 -0.0076706596 -0.0060028215 0.012040009 0.0116657

network_body._body_endoder.seq_layers.4.weight f4 [256, 256]
00000000: ee05 963d 56be 20bc a6e7 aa3d e60f 13bd
00000010: 8a2b a3bd 4102 87bd 2a84 34bc 5508 c73a
00000020: c71e bf3d 3deb ba3c eb4e 2c3d a1af 803d
00000030: 29a1 cd3d 54a9 11be 2a00 b53d 9887 c4bd
00000040: cadd ac3d 5b6b b13d 78ce d03c 766e 82bd
00000050: 5759 fd3c eb41 f13c 2120 db3d 36fd b13b
00000060: c1f2 003d ed4d 77bc a815 843d 7336 c63b
00000070: 9d4e ed3d f32e a0bd fd7e 85bd 31fa 0b3c
00000080: 9224 903d c992 853c 01be 0c3c 4102 0fbd
00000090: 600a 743c 5b0a e5bc 5e36 86bd d45d f53b
000000a0: 272f 953c b587 d4b9 0b7f 34bd 2adf 6fbc
000000b0: 2deb 863c 025a 9dbd 0485 8b3d 4857 843d
000000c0: 94d2 d83d a1b1 e1bd d917 7f3d f04b 40bd
000000d0: 7f28 ae3c a04e 5a3d 3b72 833d 0eeb df3d
000000e0: 87f4 e9bd d676 90bd 80be 39bd ec7a bc3c
000000f0: 282e 9f3c ce10 f23c 6dd7 08bd 00c2 8cbc
00000100: 2b3c 863c 2440 adbd 09af 5b3b 4277 b7bd
00000110: e0f9 cc3d c6f7 3c3d 3adb 6f3d 4c86 4dbd
00000120: 1393 aa3a df3d 42bb 1e8a 8fbc c37b 193d
00000130: 67ae acbd 7b1d 91bd 218b c7bd b356 db3d
00000140: e47f dfbb 7089 80bb 6efe 6a3d 9398 1fbd
00000150: 6547 0cbd 2a43 92bd 5141 db3c 4dfb 263d
00000160: 2ffc a9bd 91ca e3bd de5e 7c3d 1975 ba3c
00000170: 5a06 11bd 2f4a c239 c328 1dbd 990d 0dbe
00000180: 9aaf b1bd c4d0 ffbd c88f e63d 4bc9 b83b
00000190: 8004 853d 1064 f63d ca6a 22bd 564a 69bd
000001a0: dc9d 2fbd a710 66bc b9ef a2bd 636e 5d3d
000001b0: bd58 873c 984c 373d d295 463d ab66 6e3d
000001c0: bed8 823d d1c3 ecbd c3e9 05bc be7d b43d
000001d0: 3120 dabc 4ad1 453d c3d0 78bc ae0b ed3c
000001e0: 7ff0 18bd 3cba 1c3c 9be7 4b3d e856 4b3d
000001f0: 69cb 303d 34e3 e0bd 88e6 fcbc 456f 753d
00000200: 9511 923d 4405 a7bd d494 18be e7ce 2ebe
00000210: e6b4 d33d e703 a23b cec9 e1bc 4051 cd3d
00000220: aba6 123e 0296 903d a54e 04bd 2c5a 6dbd
00000230: b736 08bd d3d8 13bc 8bc7 60bc 05f7 d33d
00000240: b67c 1cbd 2390 f83d 994d 3d3e c32d 77bd
00000250: a120 8dbd b2e5 d23d ea95 81bb b2ff f43c
00000260: bae0 ac3d 048d b13d ed13 cf39 126f 053d
00000270: df50 013c 3d70 293d 9e8f dd3d e14f 833d
00000280: 5c42 833d 3905 9ebc 52dc 4f3c e32a 9fbd
00000290: 83da 29bd 519f 4c3d dff2 5dbd b571 93bd
000002a0: b2d1 613d aa8a 2c3d 87f1 03be f210 a0bd
000002b0: 0245 06bd 05ad 5abd aeb5 7c3d 1001 e23d
000002c0: e247 04bd 04cb 36bc d4ce a53d 95b2 75bd
000002d0: 494a bf3c fb09 c1bc 982f 383d 5e26 c63c
000002e0: c801 ae3d 5dc2 8bbd 4fd9 453c 3578 5abd
000002f0: be4b 9ebd c592 2ebd a471 c1bd 3cd8 90bc
00000300: ab92 7fbd 00ad 65bc f10f c83d 2d7d 09bb
00000310: 4035 72bd 1ebf bebd 9bb3 abbd e0d6 c5bd
00000320: d8f7 d8bd b3c9 c43c 9185 533c 8c69 8f3d
00000330: f665 2d3d 39a2 c73b ad59 3abd e4b4 c4bb
00000340: a3d1 9abd 121e 71bd 96f4 513d 92c9 ad3d
00000350: ad13 fc3b 82f5 19bd fe4a e73c c90a 4d3d
00000360: 9951 ac3d 814a 423d 2f8f 8f3c 4bc7 d0bb
00000370: e95c 4c3c 220d 9ebd 3c13 25bc 9c01 72bc
00000380: dbd1 0ebd 375f 633d 90ed d53d 4689 2cbd
00000390: a70b 1e3d 0cb6 2f3d a6c9 c33c c5fe 113d
000003a0: 785d 0abd 47c4 263c 57ce 8b3d 4106 c8bc
000003b0: aadd d03d a395 fdbc d141 583d dae4 053d
000003c0: 1258 48be c64f a43d 3057 4fbd 5406 993c
000003d0: b250 6f3d aa48 bbbc 4dee bfbc 805a 723d
000003e0: 3c8b 013e 9d49 643d 92d6 95bd c4d0 283d
000003f0: 6d31 d23d e2e2 2e3c 84da 283d 7903 39bc
0.0732535 -0.009811005 0.08344965 -0.035903834 -0.07967289 -0.06592227 -0.0110178385 0.0015184978
0.09332042 0.022817248 0.04206745 0.062834986 0.100405045 -0.1422475 0.08837922 -0.09596175
0.084407404 0.086630546 0.025489077 -0.06368725 0.03092639 0.029450377 0.106994875 0.0054317964
0.03148151 -0.015094263 0.06449443 0.0060489713 0.1158726 -0.07821455 -0.06518362 0.008543537
0.07038225 0.016305344 0.008590222 -0.03491426 0.014895052 -0.02795904 -0.065533385 0.007487992
0.01821096 -0.000405369 -0.04406647 -0.014640609 0.016469562 -0.07683183 0.0681248 0.0646196
0.105870396 -0.11020208 0.062278602 -0.04694742 0.021259544 0.05329764 0.06418272 0.10933505
-0.11423593 -0.07053916 -0.04534769 0.023007832 0.019431189 0.029549029 -0.03340857 -0.01718235
0.016386112 -0.084594995 0.0033521077 -0.089582935 0.100085974 0.046134733 0.05855868 -0.050176904
0.0013013802 -0.0029638929 -0.017521914 0.037471544 -0.08431702 -0.07085701 -0.097433336 0.10709896
-0.0068206657 -0.003922634 0.05737155 -0.038963865 -0.034247775 -0.07141717 0.026764544 0.040767003
-0.08300053 -0.11122621 0.06161391 0.022760915 -0.035406448 0.00037057835 -0.03836895 -0.13774718
-0.086760715 -0.12490991 0.11257893 0.0056392304 0.06494999 0.12030804 -0.039652623 -0.056955658
-0.042875156 -0.014042056 -0.0795588 0.05406035 0.016521806 0.04475078 0.048482724 0.05820338
0.063889965 -0.115607865 -0.008173409 0.08813046 -0.026626678 0.048295297 -0.015186491 0.028936233
-0.03733873 0.009565886 0.049781423 0.049643427 0.043162737 -0.109808356 -0.030871645 0.059920568
0.0713226 -0.08155301 -0.14900523 -0.17071114 0.10337238 0.004944313 -0.027562048 0.10025263
0.14321391 0.07059862 -0.032301564 -0.057947323 -0.033255305 -0.009023863 -0.01371945 0.103498496
-0.03820487 0.12136867 0.18486632 -0.060346376 -0.06890989 0.10297717 -0.0039546387 0.029907081
0.08441301 0.08669475 0.00039496963 0.032576628 0.007892816 0.041366804 0.108184084 0.0641172
0.064091414 -0.0192896 0.012686806 -0.07771852 -0.041468155 0.049956623 -0.054186698 -0.07199422
0.05513162 0.042124428 -0.12885104 -0.07815732 -0.032780655 -0.05338766 0.0616967 0.11035359
-0.032295115 -0.011156801 0.0809609 -0.059984762 0.023350852 -0.02356433 0.044967264 0.024188217
0.084964335 -0.06824181 0.012075736 -0.053337295 -0.077292904 -0.04262044 -0.09445503 -0.017681234
-0.062395733 -0.014018297 0.097686656 -0.0020979152 -0.059132814 -0.093137965 -0.083838664 -0.09660125
-0.105941474 0.024021959 0.012910263 0.07002553 0.042333566 0.0060923365 -0.045495678 -0.006003009
-0.07559516 -0.058866568 0.051258646 0.08485712 0.007692775 -0.03758765 0.028234001 0.050059114
0.08414001 0.047434334 0.01752433 -0.006371414 0.012473323 -0.07717349 -0.010075387 -0.0147708915
-0.034868103 0.055510726 0.10445702 -0.0421231 0.03858533 0.042898223 0.023899864 0.035643358
-0.033780545 0.010178632 0.068264656 -0.024417045 0.10198529 -0.030955141 0.052797142 0.032688953
-0.19564846 0.08023028 -0.050620258 0.018679775 0.058426566 -0.022861797 -0.02342906 0.05916834
0.1265077 0.055734266 -0.07316317 0.04121472 0.102633335 0.01067421 0.041224018 -0.011292332

network_body._body_endoder.seq_layers.4.bias f4 [256]
00000000: 942e 353a cd08 b83b cd76 963c 7b5f 513c
00000010: 3ed5 41bb a541 3abb 1f19 7e3a 93e7 8abb
00000020: 43dd ce3b e26e 793c 54ab c53b b530 16bb
00000030: 1ecc 94bb 3761 43bc 42a3 093c adba 0e3c
00000040: 8953 943b 7ca7 0d3b 9c12 523a 411f 1f3c
00000050: 6943 2d3a aae6 3bb9 3934 f53b d3a0 c93b
00000060: d594 7c3b 856e f43b da47 603c 4322 1b3c
00000070: cafb f53b ed23 433c d86e 493b 4c76 8b3a
00000080: 74b8 173c 29ac baba d22c f43b d0e8 f23b
00000090: 0d37 5d3c 84d3 6a3c 93c0 4b3c 854a 883b
000000a0: 6372 eb3b ed14 503c 50b8 31bc d162 3d3c
000000b0: b05a 503b 6522 f23b 7978 46bb 30b9 593c
000000c0: 13e7 8f3b 481a 13bc 02c8 c63b b0e6 c43b
000000d0: 8fb0 503c 22ad 1b3c b2e3 0f3c 75e5 b13a
000000e0: 1e30 db39 47be 153c 1284 38b8 bc25 a93b
000000f0: fafe 893a 8898 f439 9764 8bb9 a90c 443a
00000100: bad4 913c 8d00 033c 1d8f df3b 3c43 5a3c
00000110: 87ff 39bb 6227 b4bb c360 533c 9c21 1b3c
00000120: 996a b2bb 1c6b 903c de9f dd3b 12b9 283b
00000130: a3ce 633b d359 653c e7c6 383c af17 d5bb
00000140: 9765 a03b 7fdc 613c 2da4 8bba 675b 843c
00000150: 2824 be3b 64f7 9ebb 1ea0 053b c080 af3b
00000160: 49e6 b9bb 726a f13a 2c85 b13b 0bd5 e13b
00000170: ecbb 42bb aef1 623c 9489 573b 8e56 f33b
00000180: e4b7 ea3b 31ab 79bb 8402 ad3b 965d 8b3c
00000190: ad4b acbb 16b6 823b ac3f ec3b 4cd5 513c
000001a0: d1d0 9b3a 9e42 133a 1d26 1b3a 3630 533c
000001b0: e016 353c fc83 063b 5309 643a c84e 02bc
000001c0: 3fb8 00bb 6599 f439 c886 8d3c cd14 4d3b
000001d0: dc19 053c 248b 98bb 6399 173c 14ed 3f3c
000001e0: 2bda 523c 2577 94bb 8491 283b dae8 7d3b
000001f0: 47ff 83bb af69 9e3b 4d51 303b 41e3 ed3b
00000200: f1a6 5a3b 9bcd fe3b 5ee6 dc3b 1d51 42bb
00000210: 2108 31b9 0fa4 05bb fe2c 9a3c 7151 b63b
00000220: e9a3 75ba 0c15 4f3b dd9f 6abb 81e5 0e3c
00000230: 8222 943a ff17 bdba 9f79 8a3a 3daf 3d3c
00000240: 3b7e 873b 43e8 9e3b b649 253c d77e 183c
00000250: e7d6 613b 3835 ee3b 51d1 5abb f5dc 053c
00000260: 6774 3cbc c06d 753c 3d9a 383c 630d bd3a
00000270: a0b6 42bb 75e4 f6bb 4f6e 1f3c 31eb 3a3c
00000280: 02f6 313c 1632 643b d4db 27bc 7fe0 1f3b
00000290: 31f7 c63b 3374 da3b 05ff 5ab9 fc93 833b
000002a0: f91a 4a3c 174d 92bb 59f4 203c a1af b23b
000002b0: 9e00 1f3c 67fa 1c3c a0e9 ec3b c95f 973c
000002c0: 587e 94ba 4e90 6bbb d3bf bd3b ad18 893b
000002d0: 5b02 573b 12ab 65bb ca22 eb3a 277a 84ba
000002e0: b0d5 e83b dd5a 803a 0368 3c3c 2d9a 8a3b
000002f0: 23dd d5bb 6346 233b ad22 ae3b 0bee c23b
00000300: c5d2 d138 d1d1 2c3a 58fc 353b 0500 7ebb
00000310: b8d1 873b 80a9 823c 7919 2ebc 771f a63c
00000320: b688 113a a7d4 c539 57c3 54bb 19e4 423c
00000330: c012 80bb 3523 2a3c ac24 663c 6987 233b
00000340: 8bf0 f73a 854b 013b 6e33 85ba ac8f 143a
00000350: 3d79 de3b dc89 543c 6844 843c 830b 153c
00000360: ca4e 3a3c dedb 8ebb fc53 7c3a b190 893c
00000370: c09d 7d3b 5b15 763a 168e 623c e298 553c
00000380: 956e 7e3c 294c eb3b 5c27 08bb caa5 bebb
00000390: 1171 8439 1500 b23b fafe 1d3b 5061 973a
000003a0: f77a 45bb 6c0b ce3b d49e 8e3a 4f9f 3d3c
000003b0: e1ee 0f3c f6c8 843c 46df 9fbb 4600 803c
000003c0: 2d82 89bb f928 89bb 247e 053c 4fe9 8a3c
000003d0: a2db 043c 5d06 663b 1404 8fbb 27f1 2f3b
000003e0: 5235 6f3b b6df 493b 0e9c 533c 00d2 9f3c
000003f0: 391d 823a 3c1f d73b cb35 443c 9131 ad3b
0.0006911543 0.0056162835 0.018367196 0.012779112 -0.0029576565 -0.0028420475 0.00096930744 -0.0042390316
0.0063129975 0.01522419 0.006032387 -0.0022917215 -0.004540934 -0.011925033 0.00840074 0.008711499
0.0045265597 0.002161472 0.0008013637 0.009712041 0.0006609471 -0.00017919639 0.007483032 0.006153205
0.003854086 0.007459464 0.013689006 0.009468618 0.0075068222 0.011910421 0.0030736234 0.0010640114
0.009260286 -0.0014241982 0.007451632 0.0074130073 0.013501895 0.014332656 0.01243605 0.004159274
0.007185267 0.012700302 -0.010847166 0.011559204 0.0031792335 0.007389354 -0.003028421 0.013288781
0.00439156 -0.008978434 0.0060663233 0.0060089454 0.012737407 0.009501727 0.008782314 0.0013572412
0.00041806785 0.009139604 -4.399202e-05 0.005161969 0.001052826 0.0004665295 -0.0002658709 0.0007478693
0.017801631 0.007995737 0.0068224804 0.013321694 -0.0028381066 -0.005497859 0.012901488 0.009468462
-0.0054448363 0.017629199 0.0067634424 0.0025745076 0.0034760616 0.013998467 0.011277891 -0.0065030674
0.004894923 0.0137854805 -0.0010653787 0.016156865 0.00580265 -0.0048512686 0.0020389627 0.0053559244
-0.005673204 0.0018418564 0.0054174867 0.006891852 -0.002971406 0.013851566 0.00328884 0.0074260896
0.0071630348 -0.0038096423 0.005279841 0.017012399 -0.0052580447 0.0039889915 0.0072097387 0.012807202
0.0011887794 0.0005617532 0.000591846 0.012889912 0.011052817 0.0020525446 0.0008698899 -0.007953353
-0.001964107 0.00046653594 0.017276183 0.0031292916 0.008123841 -0.0046552587 0.009252879 0.011714239
0.012869398 -0.0045308047 0.00257215 0.0038743527 -0.004028234 0.004834376 0.0026903928 0.007259757
0.0033363665 0.007775975 0.006741329 -0.0029650398 -0.00016883064 -0.0020391976 0.018820282 0.005563908
-0.0009370433 0.0031598238 -0.0035800852 0.00872171 0.0011301788 -0.0014426707 0.001056481 0.011577425
0.004134921 0.004849465 0.010088375 0.009307585 0.0034460367 0.0072695278 -0.0033388922 0.008170356
-0.011502362 0.01497978 0.011267242 0.0014423545 -0.0029710904 -0.0075345584 0.009730889 0.011408613
0.0108618755 0.0034819893 -0.010245282 0.0024395285 0.006071948 0.006666684 -0.00020885102 0.004015444
0.012335532 -0.004464756 0.009823882 0.0054530655 0.009704737 0.009581185 0.0072299987 0.018478291
-0.0011329157 -0.0035944167 0.0057906895 0.00418385 0.00328078 -0.0035044593 0.0017939445 -0.0010107205
0.0071055517 0.0009792704 0.011499408 0.004229805 -0.0065266057 0.002491378 0.0053141923 0.005948787
0.000100051555 0.00065925444 0.0027768817 -0.0038757336 0.0041448735 0.015949965 -0.01062619 0.020278675
0.00055516826 0.00037733206 -0.0032465064 0.011895203 -0.003908485 0.010384371 0.014046829 0.0024952537
0.0018916292 0.001972885 -0.0010162422 0.0005667161 0.006789355 0.012972321 0.0161459 0.009096983
0.011371324 -0.0043597063 0.0009625552 0.016792627 0.0038698763 0.00093873375 0.013827821 0.013036938
0.0155292945 0.00718071 -0.0020775413 -0.0058181034 0.00025261243 0.0054321387 0.0024108277 0.0011549387
-0.0030133107 0.0062879827 0.0010881075 0.011573627 0.0087849805 0.016209107 -0.004878911 0.01562513
-0.0041964264 -0.0041857925 0.00814775 0.016956953 0.008109005 0.0035099008 -0.0043645 0.002684662
0.0036500287 0.0030803508 0.012915624 0.019509315 0.0009926922 0.0065650027 0.011975716 0.00528545

action_model._continuous_distribution.log_sigma f4 [1, 2]
00000000: c917 22be 6459 503d
-0.15829386 0.0508665

action_model._continuous_distribution.mu.weight f4 [2, 256]
00000000: 7058 703c 4b81 dbbb 9495 c9bc 177b 4b3c
00000010: ed94 133d e0c4 bdbc 9d6a ec3a ca15 b83b
00000020: 8623 2ebb 82fd 73bc 2189 033c eebf 1fbc
00000030: f48b 82bb 2bf1 b43c 9944 253b 5fe5 d1bc
00000040: a464 a738 b706 5fbc 9cc3 a83c af15 6bbb
00000050: f276 cebc 7220 acbb 692d 713b ac9d 64bc
00000060: a640 ce3c 005d 92bb ff61 573b 943a 35bc
00000070: a6e2 b9bc e866 8a3c fd79 80bb 10cd 75bc
00000080: 0d1d 773b e3f1 0f3d 8a51 89bb b921 3dbc
00000090: 9c92 06bc 178f 96bb fa9b 7abc 2343 0cbd
000000a0: 4936 863b 0533 efbc c922 8d3c 518f 0bbd
000000b0: c27d 5f3c 7db7 faba 357a 24bb c02c d13c
000000c0: cb71 4b3d e0e1 f83b 5eab ee3c 881c 51bc
000000d0: ef3e 963c 44d8 a53c 9126 143b 9eb2 14bb
000000e0: 48f8 d93b a91b ffbc 58a6 a33c 2507 41bc
000000f0: aa0c cbbc 4f35 623c 1e8a 073d fa99 233c
00000100: 7ae9 9639 ee3f 0abc da5e d73c b42a 75bb
00000110: b033 633c e795 d13c bd42 1ebc 6e84 bebc
00000120: 1500 843c d65e a5bc 718e 383c 94ff f93a
00000130: 5332 babc 9440 50bc 2ff9 aebc 8be2 00bb
00000140: 84d6 d03c c809 94bc e8e9 32bb 3c00 2f3b
00000150: ef5f bdbc 1f4f a9b9 1e84 70bc 03dd 6abc
00000160: 92ee 6e3c d75c 313d bb10 d33b 9c21 133c
00000170: feaa 713b 8f7e 51bc 0fc1 733c 0505 96ba
00000180: 0251 923c 84be 6c3c ed80 d93c a56d 12bc
00000190: 5cb4 57b9 d3a6 8ebc 697f 0f3b e390 9dba
000001a0: b67b a2bb f2d6 b93c 7246 693c 3df9 bebc
000001b0: 57e4 38bc a17b b3bc cef4 a8bb 6173 bb3c
000001c0: 127c ccba c381 373d 2c73 2bbd 568f 453d
000001d0: 2593 243b 4465 e83c 17db 1bbc f375 a6bc
000001e0: d367 8e3c b42f ec3c 34d2 113c 37c5 d3bc
000001f0: 23cf 2fbc ad4f aa3c c8ee 28bc c24f 96bc
00000200: 81ad 22bc 07df 02bd 301a 833c c98b cabc
00000210: 9e40 f339 30ee 833c 38aa 413a 1c7b 72bd
00000220: 1fcd 473c 2dd0 5c3c 046a 333c 8bad 8bbc
00000230: abf0 463c da4c 063c e3cb 083d 3c64 24bc
00000240: dc3f df3b 420a 233d aee2 80bc 305d 0b3d
00000250: 8bf9 aa3c 345d b9bb daaf f63c a2de ce3c
00000260: 1a27 823c 4d1e dcbb 1675 573b 2101 c73c
00000270: 82c6 3b3b a682 863c 48cc 583b ab62 eabc
00000280: a0ca c2bc f2fb 19bc 2c63 98bb aacf bb3c
00000290: e443 a23c aa34 c53c fb66 abbb 2a24 643c
000002a0: be55 0ebc e48a 873c 1013 4b3d b08d 31bd
000002b0: c886 e9bc ff0b 8c3b f23e 16bc 2171 afbb
000002c0: 8041 0f3d fedb 553c c640 313c 531f 5fbc
000002d0: d584 9f3c 0af6 81bb 5f73 9f3c 56c8 693c
000002e0: 881c 16bd 34f6 70bc 475c 95bb f2bc ebba
000002f0: aaa2 a43c d4c6 1a3d 8e7b f7bc caba 8ebc
00000300: dfba 363d 64e3 b7bb 0db2 8abc 241d f53b
00000310: 961a ccbc ab60 79bc 577c b83b eb6a a8bb
00000320: c5c4 a33c 3109 2bbc f040 15bc 05fe 70bb
00000330: 2fa7 85bc 910b fe3b b2ec 6239 f243 853a
00000340: 4161 7fbb 6394 8fbc 9aed 8d3c 584d 143d
00000350: 1163 91bb c092 ac3c 3cab f03b 24e9 27bd
00000360: 651d c7bc 9fad d93c f7fe 81bc 000e 88bc
00000370: e208 c3bc eb4e 3b3b cc1f efbb 0eb8 22bc
00000380: 9adf 25bc a8a5 2ebc c966 1b3d e0d8 5f3c
00000390: e113 d53c 6eed 40bc 5437 133d 76d6 643d
000003a0: 27a8 c63b 0ce7 91bc 8b2f 3bbc 51cc abbb
000003b0: 37b4 34bb cade 47bb f98c 103d bcc9 3dbc
000003c0: 77b0 133c 4b10 61bc d45f 6fbc e9f6 843b
000003d0: 551e b2bb 6bf9 22bd 34dd 3dbc ee48 40bc
000003e0: 9c88 4c3c 4a6b 613d ade3 9ebb acb9 50bc
000003f0: 27c7 653c cffe fc3c 8882 dd3b 9cb5 50bd
0.014669523 -0.0066987625 -0.024607457 0.012419484 0.0360307 -0.023165166 0.0018037144 0.005617832
-0.0026571467 -0.014891984 0.0080283 -0.009750349 -0.003983969 0.022087654 0.002521789 -0.025622068
7.981926e-05 -0.013612441 0.020601086 -0.0035871079 -0.025203202 -0.005252891 0.0036800748 -0.0139536075
0.025177311 -0.004466653 0.0032864807 -0.011061329 -0.022691082 0.016894773 -0.003920792 -0.015002504
0.0037706525 0.03514279 -0.0041906284 -0.011543685 -0.008213665 -0.0045946944 -0.015295977 -0.034243714
0.0040958268 -0.029199133 0.0172285 -0.034072224 0.013640823 -0.001912817 -0.0025097255 0.025534034
0.04966907 0.007595286 0.029134449 -0.01276315 0.018340556 0.020244725 0.0022605995 -0.0022689472
0.006651912 -0.03114112 0.01997678 -0.011781489 -0.024786312 0.013806655 0.033090703 0.009985441
0.00028784183 -0.008438094 0.026290346 -0.0037409486 0.013867304 0.025584174 -0.009659466 -0.023256507
0.01611332 -0.020186823 0.011264429 0.0019073361 -0.022729075 -0.012710709 -0.021359054 -0.001966628
0.025492914 -0.01807107 -0.0027300064 0.002670302 -0.023117034 -0.00032293142 -0.014679937 -0.01433492
0.014583247 0.04330143 0.0064412034 0.008980181 0.00368756 -0.012786522 0.014877572 -0.0011445588
0.017860893 0.014449719 0.026550734 -0.008937274 -0.00020571187 -0.017413532 0.002189601 -0.0012021329
-0.004958595 0.022685502 0.014237987 -0.023312205 -0.011284909 -0.021909537 -0.005156136 0.022882165
-0.0015600941 0.044801485 -0.041857883 0.0482324 0.002511212 0.0283686 -0.009512684 -0.020319914
0.017383492 0.02883134 0.008900214 -0.025850875 -0.010730538 0.020789945 -0.010310836 -0.018348578
-0.009929062 -0.031950977 0.016003698 -0.024724858 0.00046396715 0.016104788 0.00073877303 -0.059199437
0.012194901 0.013477367 0.010950569 -0.017050525 0.012142341 0.008197034 0.033397567 -0.010033663
0.0068130326 0.039804704 -0.01573309 0.034024417 0.020870944 -0.0056568626 0.03011315 0.025252644
0.015887786 -0.0067174793 0.0032876185 0.02429253 0.0028652255 0.01641972 0.0033080745 -0.028611502
-0.02377826 -0.009398447 -0.004650494 0.02292617 0.019807763 0.024072964 -0.005230782 0.013924638
-0.008687435 0.01654572 0.049578726 -0.043348014 -0.028506652 0.004273891 -0.009170281 -0.005354062
0.034974575 0.0130529385 0.010818666 -0.013618308 0.019472519 -0.0039660977 0.019464193 0.014268955
-0.036648303 -0.014707137 -0.0045581195 -0.0017985387 0.020097096 0.037787274 -0.030210283 -0.017423052
0.044611808 -0.005611824 -0.016930604 0.0074802805 -0.02491502 -0.015220801 0.005630057 -0.0051396987
0.019991288 -0.010439203 -0.009109721 -0.0036772501 -0.01631507 0.0077528437 0.00021641215 0.0010167344
-0.003896788 -0.017526811 0.017325211 0.036206573 -0.0044368585 0.02106607 0.0073446315 -0.040993825
-0.024306009 0.026572047 -0.015868647 -0.016608238 -0.023807947 0.0028580974 -0.0072974917 -0.009931577
-0.010124112 -0.010659613 0.03793982 0.013662547 0.026010456 -0.011775358 0.035941437 0.05586859
0.006062526 -0.017810367 -0.011424909 -0.0052428623 -0.0027573237 -0.0030497783 0.035290692 -0.011583742
0.0090142405 -0.013736795 -0.01461025 0.0040577543 -0.0054357448 -0.039788645 -0.0115883835 -0.011736138
0.012483742 0.05503396 -0.0048489184 -0.01273958 0.014024532 0.030883221 0.0067599453 -0.050954446

action_model._continuous_distribution.mu.bias f4 [2]
00000000: 2a8e 8ebb a15c 7f3b
-0.0043504434 0.0038965123
