Assets/Training/results/zombiekiller2/AgentController/AgentController-1054879.onnx (onnx, 670568 bytes, 11 tensors)

network_body._body_endoder.seq_layers.0.weight f4 [256, 128]
-0.09873757 -0.06960185 -0.10529104 0.26873642 -0.00071602565 0.008309371 0.114179045 0.061861526
0.1766966 -0.048069283 -0.112512596 0.0660925 0.03643459 -0.03541352 0.13690305 0.10220891
0.020428615 -0.19227338 -0.0103263175 0.022179358 0.19215244 -0.08581721 0.1659622 0.08680591
-0.010352328 0.0063524856 0.08710909 0.012620189 0.05932318 0.17732394 -0.23071668 -0.01318568
0.15980674 -0.030055806 0.18246962 0.042251755 0.09335759 0.006431316 0.028985944 0.16254874
-0.11020067 -0.085168004 0.13274977 -0.015724398 0.09601904 0.012511886 0.030534098 -0.113074325
-0.13423592 0.074775845 -0.015734745 -0.0014664406 0.089449316 0.12911563 0.08681521 0.053400997
-0.10502075 -0.17789827 -0.024507102 0.009412713 -0.12006549 0.03271029 -0.002210618 0.041450933
0.08997434 -0.016563004 0.0740089 -0.11510988 -0.0049469997 0.0984919 -0.053959336 0.007285616
-0.13134505 -0.06711776 -0.115676396 -0.02671939 -0.063120864 0.10148077 0.18498322 -0.1018036
-0.112547725 0.03828398 -0.09885032 -0.07260676 0.043087672 0.051533677 0.030814594 -0.02213802
-0.07374454 -0.02639491 -0.0893598 0.08915572 0.001580173 0.094336204 -0.13094118 0.0419365
0.07764361 -0.09656237 -0.008386629 0.053720526 0.020714587 0.040291846 0.024446018 0.08947162
-0.1396552 -0.016749136 0.11371779 0.08360726 0.063452 -0.08713693 -0.03904021 -0.035591338
0.02093549 0.1096516 0.012993216 -0.0011287704 0.01388471 0.19362377 0.15801667 0.11771463
0.056010213 0.16156425 0.005667949 0.051662203 0.113263495 0.041432958 0.08052883 0.030620312
0.1482369 -0.1153051 -0.06867634 -0.1335081 -0.07537457 0.05029682 -0.06874078 -0.030557457
0.026318787 -0.057657328 0.13911948 0.025943197 -0.15627223 0.017118355 0.0023428516 -0.09483428
0.06880455 -0.123882905 -0.11471223 0.17211145 0.025276752 -0.038165007 -0.06486548 0.031409543
-0.19795735 -0.08611798 0.027651235 -0.0006946931 0.017637288 -0.14136025 -0.13195054 -0.16317102
-0.10243371 0.06790665 -0.008204543 0.015942087 0.0719997 0.17936951 -0.043095395 0.047068216
-0.03370502 0.028784482 0.0075421757 -0.0819745 0.039543595 0.014718435 0.0964806 -0.11753462
-0.049729113 0.01733701 0.041209232 0.119514614 -0.015471099 -0.06238866 0.13050713 0.0635331
-0.06143121 -0.012631276 0.039864592 -0.075158894 0.07190646 0.14147058 0.036647867 0.035740394
0.11922399 -0.10391451 -0.035530314 9.1040565e-05 0.12327884 0.026082164 0.04816099 0.029158494
-0.1999289 0.11737137 -0.1893303 -0.013083959 -0.010941402 -0.03648422 0.12334073 -0.0075528435
-0.09122745 0.109253526 -0.09573803 -0.058709204 0.12581939 -0.0578899 -0.16498722 0.074949406
-0.020754589 0.22842851 -0.053110607 -0.085189275 0.06902191 -0.011118948 -0.076554045 -0.06975427
-0.103785895 0.21103741 0.17369121 -0.0034702744 0.071746185 -0.12292407 -0.12834859 -0.09187219
0.071192235 -0.022732832 0.1616318 0.035730127 0.07470874 0.08841578 0.030550687 -0.0065119653
0.13549344 0.0454606 -0.0053720027 0.12130945 -0.09645296 -0.063710436 -0.0945415 -0.06266851
-0.034642152 -0.0880365 0.0060075005 0.023954205 -0.074196 -0.07183828 0.1176318 -0.058553804
00000000: ec36 cabd 6a8b 8ebd d4a2 d7bd d297 893e
00000010: abb3 3bba 0724 083c b4d6 e93d 8362 7d3d
00000020: f4ef 343e 4ce4 44bd 016d e6bd 815b 873d
00000030: 703c 153d c40d 11bd 5030 0c3e e852 d13d
00000040: e959 a73c 50e3 44be b72f 29bc 7cb1 b53c
00000050: 9cc3 443e efc0 afbd fff1 293e 4cc7 b13d
00000060: d09c 29bc 8328 d03b 4066 b23d e9c4 4e3c
00000070: ddfc 723d 6894 353e fe40 6cbe c008 58bc
00000080: 61a4 233e 9837 f6bc 51d9 3a3e 2d10 2d3d
00000090: 4432 bf3d cabd d23b ee73 ed3c 2d73 263e
000000a0: e4b0 e1bd 906c aebd 8eef 073e 74d0 80bc
000000b0: a1a5 c43d a7fe 4c3c a522 fa3c 8393 e7bd
000000c0: 2475 09be 1424 993d 27e6 80bc 9535 c0ba
000000d0: 3431 b73d e336 043e 2ccc b13d 01bb 5a3d
000000e0: 1e15 d7bd f72a 36be 1ec3 c8bc c837 1a3c
000000f0: e5e4 f5bd 3afb 053d 04e0 10bb 74c8 293d
00000100: 7744 b83d 23af 87bc fa91 973d bbbe ebbd
00000110: 711a a2bb 1fb6 c93d 7704 5dbd 2dbc ee3b
00000120: 517f 06be 0975 89bd bfe7 ecbd 9fe2 dabc
00000130: 8345 81bd 26d5 cf3d 3e6c 3d3e 687e d0bd
00000140: 6c7f e6bd aacf 1c3d 0972 cabd dab2 94bd
00000150: b37c 303d fa14 533d e36e fc3c cb5a b5bc
00000160: 6107 97bd 233a d8bc 4502 b7bd 4697 b63d
00000170: cf1d cf3a 5733 c13d 7215 06be 9cc5 2b3d
00000180: 9d03 9f3d 7ec2 c5bd 1268 09bc 0e0a 5c3d
00000190: a3b1 a93c 1009 253d 0443 c83c e63c b73d
000001a0: c601 0fbe 7c35 89bc dfe4 e83d 483a ab3d
000001b0: 1ff3 813d d974 b2bd a1e8 1fbd 39c8 11bd
000001c0: e880 ab3c 0591 e03d 7fe1 543c 40f3 93ba
000001d0: b27c 633c 4f45 463e 1fcf 213e 5e14 f13d
000001e0: f76a 653d 1971 253e 34ba b93b bf9b 533d
000001f0: b1f6 e73d 9bb5 293d 4dec a43d 73d7 fa3c
00000200: 6acb 173e 1525 ecbd 2ea6 8cbd 59b6 08be
00000210: fc5d 9abd 0a04 4e3d f7c7 8cbd a253 fabc
00000220: 7f9a d73c 172a 6cbd 5675 0e3e d486 d43c
00000230: d405 20be cb3b 8c3c 878a 193b 7a38 c2bd
00000240: 66e9 8c3d 52b6 fdbd 3fee eabd fc3d 303e
00000250: 3111 cf3c e952 1cbd 31d8 84bd 4ba7 003d
00000260: 55b5 4abe a05e b0bd d884 e23c 111c 36ba
00000270: 137c 903c bec0 10be 0b1e 07be 4e16 27be
00000280: c4c8 d1bd a412 8b3d 596c 06bc fb98 823c
00000290: 9474 933d a4ac 373e cc84 30bd 9aca 403d
000002a0: 460e 0abd 6fcd eb3c 5b24 f73b 3fe2 a7bd
000002b0: 77f8 213d 9725 713c 9f97 c53d feb5 f0bd
000002c0: c1b0 4bbd 5806 8e3c 03cb 283d 14c4 f43d
000002d0: 7e7a 7dbc 408b 7fbd a9a3 053e a41d 823d
000002e0: 4b9f 7bbd 69f3 4ebc 0e49 233d e8ec 99bd
000002f0: b243 933d aadd 103e 131c 163d 8564 123d
00000300: b52b f43d 21d1 d4bd 3c88 11bd 08ed be38
00000310: 9e79 fc3d 43aa d53c 7544 453d cbdd ee3c
00000320: 29ba 4cbe 6760 f03d cddf 41be 1a5e 56bc
00000330: 9143 33bc 7a70 15bd 119a fc3d d87d f7bb
00000340: 75d5 babd 50c0 df3d 4d12 c4bd 1079 70bd
00000350: ccd6 003e f61d 6dbd 69f2 28be 137f 993d
00000360: 8705 aabc 2ae9 693e 828a 59bd b777 aebd
00000370: 5c5b 8d3d 402c 36bc 5ec8 9cbd 54db 8ebd
00000380: b38d d4bd 311a 583e 1cdc 313e 8b6d 63bb
00000390: aaef 923d 9dbf fbbd d06d 03be 7d27 bcbd
000003a0: 3ccd 913d 343a babc ce82 253e c159 123d
000003b0: e500 993d 5513 b53d 6f45 fa3c 5362 d5bb
000003c0: cbbe 0a3e e534 3a3d a007 b0bb 1771 f83d
000003d0: 2189 c5bd 9e7a 82bd f99e c1bd 5958 80bd
000003e0: eee4 0dbd 7b4c b4bd 91da c43b 9c3b c43c
000003f0: 13f4 97bd f31f 93bd f1e8 f03d 1dd6 6fbd

network_body._body_endoder.seq_layers.0.bias f4 [256]
0.011195667 0.0076451 0.0037451163 0.008100131 0.01843267 0.015633369 -0.0078050313 0.0032003906
0.0048029837 0.010975341 0.013672398 -0.04313529 -0.011492701 0.019144941 0.011856789 0.009674385
0.0034026233 0.010717482 0.016090952 0.0044042156 0.002491301 0.014238924 0.0062145726 0.0075093317
0.0073333913 0.011043877 0.00091751915 0.0013981386 -0.00542329 0.0023242638 0.0065356637 0.0069946647
0.01592825 0.006474537 -0.009590787 0.002913253 0.014360928 0.0024086095 0.0032294884 0.0009957523
-0.012067789 0.0016564942 -0.007925202 0.008630525 -0.004633994 0.0035332015 0.01224395 0.009937018
0.009541643 0.01962343 -0.004577488 0.011979979 0.007831057 0.0037787613 0.014922068 0.012611808
0.019869054 0.0134145515 0.03003627 0.011428137 0.019333558 0.0010582415 -0.00077521655 -0.005031901
0.005297133 0.006763011 -0.0006229188 -0.0049874475 0.017765554 0.010041463 -0.0018937994 -0.008788764
-0.001079996 -0.011455986 0.004242361 0.011164817 0.0045456346 0.016480165 0.0035480536 0.0036213363
0.01206787 0.0029283531 0.01357437 0.009711841 0.009427746 -0.00087654364 0.013723683 0.015482875
0.0077908067 0.00483266 0.0062461523 -0.006241996 0.0034854822 0.0051808283 0.009700446 0.0010071963
0.0091720065 0.010084575 0.0033393581 0.016318763 0.011137313 0.00022412722 -0.004005463 0.004166526
0.008635049 0.00084439164 -0.012162394 -0.00077277434 0.008058157 0.004276095 0.006160851 0.00053031824
-0.005229388 -0.00047517163 0.008178271 -0.0051407623 -7.054863e-05 -0.0038116942 -0.0015317621 0.010228594
-0.001648625 0.0035420435 0.008884708 -0.0088673355 -0.003158185 -0.009914214 0.0016524812 -0.0070950086
0.0076633957 0.0084893415 -0.019531917 0.0012883494 -0.0076985788 0.0079152575 -0.011227853 -0.0031476547
-0.0008210887 0.011610557 0.0034636173 0.00079251564 0.008228841 -0.01333566 0.008086075 0.013874298
-0.0052453293 -0.026257604 -0.017609086 0.00827074 0.01655044 0.0031663603 0.0075928173 0.009203995
0.0040909615 -0.019736776 0.009301035 -0.0017450167 0.0072878464 0.010339755 0.007354637 0.008162284
0.0027593467 0.016784556 0.0060033523 0.0041243737 0.001462517 0.0011709665 -0.0018679303 0.005344047
0.01825397 0.0098342225 0.01486526 -0.0016804788 0.0028191297 0.018517943 0.012014465 0.017567493
0.0017694106 0.0034346753 0.006711223 0.013081008 0.006306742 -0.014577222 0.00835749 -0.0034195555
0.0042086733 -0.0037975104 0.026009718 0.006402392 0.006203326 0.0034827837 0.0030158109 0.0032629052
0.01159622 -0.00038274407 0.0007071272 0.0077900477 0.011967326 0.0109809665 0.018025158 -0.002328376
-0.00806721 0.00974485 0.01243455 0.01519413 0.009900817 0.020729924 0.007478145 -0.002585333
0.007608767 0.012727622 0.010356734 0.011250932 0.016560985 -0.0039583137 0.004705761 0.008067803
0.005890393 0.012186095 -0.006657595 0.009221452 -0.018085362 -0.006830365 -0.0026844756 0.010696039
-0.0072327033 0.014510427 0.0035645782 -0.0063896133 -0.0005537437 0.007334785 -0.00182948 0.005290684
0.0123837525 -0.0005992269 0.022582559 0.018720921 0.008566797 0.0074665104 -0.002258392 0.023288071
0.013134335 0.011688869 -0.016712034 0.012115466 0.009048268 0.012296046 0.013892194 0.021451524
0.004445679 -0.00039250666 0.014880684 0.0018451243 -0.00010513605 0.010405362 0.0069812313 0.0064214086
00000000: 086e 373c bf83 fa3b a070 753b 69b6 043c
00000010: 1c00 973c 8d11 803c 59c1 ffbb a5bd 513b
00000020: 5962 9d3b ebd1 333c 3202 603c a1ae 30bd
00000030: e24b 3cbc dad5 9c3c fa42 423c 5081 1e3c
00000040: 8cfe 5e3b 6198 2f3c 2cd1 833c 3d51 903b
00000050: 1845 233b 604a 693c 9da3 cb3b d710 f63b
00000060: f24c f03b 61f1 343c ab85 703a bf41 b73a
00000070: dbb5 b1bb ad52 183b 1f29 d63b 8033 e53b
00000080: f67b 823c 5a28 d43b ad22 1dbc 46ec 3e3b
00000090: 194a 6b3c c3d9 1d3b d3a5 533b e783 823a
000000a0: fab7 45bc b91e d93a b5d8 01bc 0c67 0d3c
000000b0: c2d8 97bb 498d 673b d99a 483c e0ce 223c
000000c0: 8d54 1c3c 51c1 a03c c1fe 95bb ad47 443c
000000d0: d54d 003c 18a5 773b b17b 743c c2a1 4e3c
000000e0: 6dc4 a23c b5c8 5b3c a00e f63c 153d 3b3c
000000f0: 6961 9e3c b1b4 8a3a e737 4bba a5e2 a4bb
00000100: 9293 ad3b 409c dd3b 5f4b 23ba be6d a3bb
00000110: 1189 913c f384 243c 5d39 f8ba bffe 0fbc
00000120: a78e 8dba e3b1 3bbc 8103 8b3b a3ec 363c
00000130: 8cf3 943b 6901 873c 7686 683b f153 6d3b
00000140: 51b8 453c 9de9 3f3b 0967 5e3c 6a1e 1f3c
00000150: d576 1a3c d9c7 65ba 4cd9 603c e2ab 7d3c
00000160: 064a ff3b 4a5b 9e3b 86ac cc3b a889 ccbb
00000170: b06c 643b f0c3 a93b 9fee 1e3c e603 843a
00000180: 2f46 163c c639 253c 22d9 5a3b edae 853c
00000190: 4779 363c b103 6b39 4240 83bb 5a87 883b
000001a0: 057a 0d3c 2a5a 5d3a c744 47bc 0294 4aba
000001b0: 5c06 043c 7c1e 8c3b f7e0 c93b 0e05 0b3a
000001c0: 495b abbb 7520 f9b9 28fe 053c d773 a8bb
000001d0: 82f3 93b8 9ecd 79bb 68c5 c8ba d595 273c
000001e0: ad16 d8ba a121 683b 2b91 113c 4d48 11bc
000001f0: 8df9 4ebb 3a6f 22bc 1198 d83a 3f7d e8bb
00000200: 391d fb3b e116 0b3c 6601 a0bc d5dd a83a
00000210: 5c44 fcbb ffae 013c 07f5 37bc e248 4ebb
00000220: 543e 57ba 353a 3e3c dbfd 623b d3c0 4f3a
00000230: 43d2 063c d07d 5abc 757b 043c 0651 633c
00000240: 03e1 abbb 301a d7bc ee40 90bc ff81 073c
00000250: ca94 873c b682 4f3b 2bcd f83b 5acc 163c
00000260: 790d 863b 05af a1bc 5e63 183c 0bb9 e4ba
00000270: e3ce ee3b 1368 293c 2bff f03b 1abb 053c
00000280: 28d6 343b c47f 893c c5b7 c43b c125 873b
00000290: edb1 bf3a 1e7b 993a 57d5 f4ba 1e1d af3b
000002a0: 5a89 953c b81f 213c 6b8d 733c 8343 dcba
000002b0: 26c1 383b f1b2 973c 52d8 443c b4e9 8f3c
000002c0: 91eb e73a 4a18 613b d2e9 db3b b951 563c
000002d0: c9a8 ce3b 4dd5 6ebc dbed 083c 9f1a 60bb
000002e0: e9e8 893b a7df 78bb 5512 d53c 28cb d13b
000002f0: 4545 cb3b 6a3f 643b e9a4 453b 77d6 553b
00000300: 12fe 3d3c 0aab c8b9 815e 393a a843 ff3b
00000310: 9a12 443c 83e9 333c 7fa9 933c ab97 18bb
00000320: 552c 04bc dda8 1f3c 48ba 4b3c cdf0 783c
00000330: 0937 223c cdd1 a93c 3a0b f53b b16e 29bb
00000340: f752 f93b 8487 503c 4aaf 293c d455 383c
00000350: e7aa 873c beb4 81bb c932 9a3b d22e 043c
00000360: 3304 c13b 30a8 473c f427 dabb 9315 173c
00000370: c127 94bc 41d1 dfbb 07ee 2fbb 703e 2f3c
00000380: 5000 edbb 24bd 6d3c b39b 693b f65f d1bb
00000390: 1c29 11ba a358 f03b 2acb efba 795d ad3b
000003a0: 39e5 4a3c 7015 1dba 0fff b83c 9e5c 993c
000003b0: c05b 0c3c a1a9 f43b 8801 14bb a0c6 be3c
000003c0: 6531 573c ac82 3f3c ade7 88bc f37f 463c
000003d0: 303f 143c 5b75 493c 169c 633c 1bbb af3c
000003e0: 0fad 913b 5ac9 cdb9 1dce 733c 19d8 f13a
000003f0: 7d7c dcb8 407b 2a3c d0c2 e43b ae6a d23b

network_body._body_endoder.seq_layers.2.weight f4 [256, 256]
0.011064711 0.073730595 -0.036118105 0.0107709635 -0.0036126697 0.027168725 0.004662509 0.03605674
0.10131635 -0.057104826 -0.11198801 -0.06666128 0.07483745 0.041081775 -0.08953193 0.0102650905
0.0021272271 0.04943079 0.14752391 0.06503574 0.0046719695 -0.003539059 -3.3902394e-05 0.1596612
-0.07812802 -0.15908162 0.005686763 -0.073133826 0.09876215 0.059216466 -0.061787233 0.03281855
0.05686623 0.054566395 -0.074054435 -0.09849885 -0.053889137 0.04129239 0.024812138 -0.03464944
0.035678294 0.018558677 -0.054556366 0.04410472 -0.04360582 0.10252056 0.018909566 -0.0034305176
-0.09665923 0.0059670503 0.048085075 0.046062868 0.0015798127 0.05070525 0.04176543 0.06625633
0.013933211 -0.010531769 0.021646416 0.03978467 0.035361294 0.053875484 -0.071832396 0.030347956
0.008985982 -0.022285176 0.013839806 -0.044405777 0.0007570662 0.15843315 -0.10922864 0.009042227
0.04534635 -0.07659578 -0.0035924143 0.061064422 -0.07452764 0.05910106 -0.0899838 -0.11389556
0.016858816 0.026265157 0.021051535 0.007470582 0.16458078 -0.03451452 0.008007257 0.040449027
0.0015260483 0.1596534 -0.005774986 -0.023779627 0.049844544 -0.04488619 -0.014705121 -0.032881577
0.026784733 0.10642607 0.009115557 0.050692473 -0.059707116 -0.056337662 -0.0914317 0.002276374
0.016688196 -0.003717113 0.080995366 0.036528297 -0.026995152 -0.024970725 -0.018194022 0.04214601
0.03010754 -0.039009966 0.07517499 0.048518904 -0.11322293 0.048642106 -0.09612179 -0.017823458
0.04174451 0.0030295723 -0.04743532 -0.042371273 -0.10707448 0.09558471 -0.030909773 -0.00073872996
-0.09562517 0.02441967 -0.01715215 0.05759281 -0.0320305 -0.043861773 0.042724542 0.0022749112
-0.13120177 -0.14331855 -0.04532142 0.009723514 -0.04435861 -0.08417496 -0.12463274 -0.012052405
-0.008915918 -0.07263256 -0.08156537 -0.099376336 0.03858046 -0.13582905 0.0059531117 -0.016777767
-0.035335496 -0.030013049 -0.036689244 -0.054307207 -0.02352438 0.045078646 0.024306925 0.15183719
-0.021141715 -0.101575084 0.06400207 -0.02166665 0.05657112 0.033499796 -0.09841587 -0.057559565
-0.055355366 0.014427435 0.04151467 0.00021040843 0.035441805 0.08351222 -0.0008873767 0.035169557
0.0055803363 -0.06035254 -0.022128131 0.030233711 -0.06854387 0.043582745 -0.037710994 -0.02933794
0.09512132 -0.016050942 0.048563246 0.010728099 0.060140647 0.03889186 0.048234373 0.046554375
0.032561604 -0.070555694 -0.0012217254 0.026467176 0.009536568 0.08843595 -0.10042381 0.07132761
0.046978723 0.043695606 0.035213593 0.021374175 0.087663345 0.09704964 -0.037983786 -0.032154184
-0.03543974 -0.0012934093 0.04439087 -0.09578708 -0.07554254 -0.13877144 0.038307298 0.051291473
-0.1102538 -0.116363436 -0.060436897 0.02068353 -0.021744458 -0.040299073 0.14227879 0.02281348
0.03259391 0.02983424 -0.021571567 0.009002604 0.011735412 0.007161191 0.030780286 0.048948444
0.037270404 0.057137992 -0.061486598 0.15168974 0.0105335545 -0.13031341 -0.04426311 0.09081206
0.17485979 0.0048545497 -0.051070753 0.06667283 0.053462032 -0.062055487 -0.027552444 0.011638213
0.011417437 -0.09592826 -0.061625466 0.08491629 -0.054807365 -0.048832044 -0.053589396 0.0066515557
00000000: c348 353c 1100 973d 94f0 13bd b278 303c
00000010: 8ac2 6cbb f290 de3c f6c7 983b 3bb0 133d
00000020: f27e cf3d c0e6 69bd f859 e5bd b685 88bd
00000030: 6144 993d 5d45 283d 845c b7bd e92e 283c
00000040: f368 0b3b f177 4a3d 8210 173e 7531 853d
00000050: 5217 993b 8fef 67bb 6b32 0eb8 3a7e 233e
00000060: 9501 a0bd 4be6 22be 0758 ba3b 30c7 95bd
00000070: cf43 ca3d f78c 723d 9c14 7dbd be6c 063d
00000080: 90ec 683d 0381 5f3d daa9 97bd c4b9 c9bd
00000090: dbba 5cbd 3622 293d d342 cb3c 92ec 0dbd
000000a0: 6723 123d 5e08 983c 7f76 5fbd 27a7 343d
000000b0: 049c 32bd 4df6 d13d 3ce8 9a3c 89d2 60bb
000000c0: 46f5 c5bd 3f87 c33b dbf4 443d 6bac 3c3d
000000d0: b811 cf3a 4fb0 4f3d 3a12 2b3d 66b1 873d
000000e0: 1f48 643c 718d 2cbc d353 b13c 40f5 223d
000000f0: 01d7 103d 8aac 5c3d dd1c 93bd 479c f83c
00000100: f139 133c 678f b6bc 5bc0 623c d5e2 35bd
00000110: da75 463a 4d3c 223e 44b3 dfbd d925 143c
00000120: 18bd 393d 40de 9cbd b66e 6bbb b01e 7a3d
00000130: f3a1 98bd f413 723d 6d49 b8bd 1342 e9bd
00000140: 801b 8a3c 072a d73c 4574 ac3c c9cb f43b
00000150: dd87 283e 195f 0dbd df30 033c e1ad 253d
00000160: af05 c83a 2e7c 233e 183c bdbb 7ecd c2bc
00000170: cb29 4c3d 95da 37bd bfed 70bc d5ae 06bd
00000180: a86b db3c e9f5 d93d 6b59 153c e9a2 4f3d
00000190: 738f 74bd 52c2 66bd 8b40 bbbd 382f 153b
000001a0: afb5 883c cf9a 73bb e6e0 a53d b29e 153d
000001b0: f024 ddbc 688f ccbc a10b 95bc 4ba1 2c3d
000001c0: 16a4 f63c eac8 1fbd 58f5 993d c2bb 463d
000001d0: 6ce1 e7bd f23c 473d 80db c4bd 8002 92bc
000001e0: 4bfc 2a3d ca8b 463b 8a4b 42bd 808d 2dbd
000001f0: dd49 dbbd ebc1 c33d 7e36 fdbc 54a7 41ba
00000200: 21d7 c3bd c30b c83c aa82 8cbc 70e6 6b3d
00000210: 6a32 03bd 67a8 33bd eeff 2e3d ad16 153b
00000220: c259 06be 19c2 12be f4a2 39bd 604f 1f3c
00000230: 60b1 35bd ec63 acbd 733f ffbd 7377 45bc
00000240: 1214 12bc 61c0 94bd bf0b a7bd d285 cbbd
00000250: 8b06 1e3d c516 0bbe 5212 c33b 8771 89bc
00000260: f4bb 10bd eddd f5bc 7647 16bd 3c71 5ebd
00000270: 33b6 c0bc 63a4 383d 511f c73c 357b 1b3e
00000280: 6431 adbc 9906 d0bd 8413 833d 427e b1bc
00000290: 1eb7 673d 1537 093d 428e c9bd 94c3 6bbd
000002a0: 4fbc 62bd 0c61 6c3c 490b 2a3d 15a1 5c39
000002b0: 6d2b 113d 7408 ab3d d89e 68ba f40d 103d
000002c0: 41db b63b 3a34 77bd 0e46 b5bc b0ac f73c
000002d0: ba60 8cbd d283 323d d876 1abd 1f56 f0bc
000002e0: f7ce c23d 447d 83bc 41ea 463d e9c4 2f3c
000002f0: 0a56 763d 124d 1f3d 6891 453d cdaf 3e3d
00000300: 515f 053d 817f 90bd 4d22 a0ba b1d1 d83c
00000310: 443f 1c3c e81d b53d 00ab cdbd 3614 923d
00000320: c36c 403d 2afa 323d 213c 103d e518 af3c
00000330: d788 b33d f6c1 c63d e394 1bbd 1bb4 03bd
00000340: 4329 11bd 9d87 a9ba 33d3 353d 042c c4bd
00000350: 0cb6 9abd 1a1a 0ebe 1de8 1c3d 0217 523d
00000360: bfcc e1bd f44f eebd ae8c 77bd 8270 a93c
00000370: 6f21 b2bc a410 25bd 88b1 113e 56e3 ba3c
00000380: 3181 053d f066 f43c dbb6 b0bc a87f 133c
00000390: e345 403c 6da8 ea3b f026 fc3c 2a7e 483d
000003a0: daa8 183d 8709 6a3d 5fd9 7bbd 8e54 1b3e
000003b0: ee94 2c3c e170 05be 3c4d 35bd acfb b93d
000003c0: 720e 333e ea12 9f3b 912f 51bd c48b 883d
000003d0: 01fb 5a3d e52d 7ebd aab5 e1bc 34ae 3e3c
000003e0: 3410 3b3c 0976 c4bd fc6a 7cbd 98e8 ad3d
000003f0: b07d 60bd 1c04 48bd 8e80 5bbd 4bf5 d93b

network_body._body_endoder.seq_layers.2.bias f4 [256]
0.004844992 0.0043676742 0.013479413 0.012720341 0.00087333185 0.0032177614 0.010719079 0.012379086
0.006698497 0.0098625505 0.0031811323 -0.00038155963 0.018996354 -0.0053445734 0.009549418 0.0074876063
0.0014796383 -0.004211122 -0.0005802759 0.0049786293 0.014857984 0.0018710492 0.010478624 -0.0005012541
0.0055516907 0.01685047 -0.009339656 0.014739112 0.010547113 0.004654611 -0.0035227053 0.014081232
0.00426778 0.0045885234 -0.0055305217 0.003467598 0.01344631 0.018551992 0.00541448 0.006398972
0.0022591155 0.0030762544 -0.003245683 0.015197527 0.0027385538 0.012274169 0.011656105 0.011197163
0.008334336 0.0056320876 0.011392573 -0.0010926578 -0.01498396 0.006928217 0.009071722 0.0017099687
0.0028027613 0.0072853323 0.0024889489 0.016307775 0.0076751364 0.0061928337 0.015146869 0.0023871495
-0.010588589 0.00881201 0.0069157337 0.0052593136 0.011416703 0.004842242 3.7988615e-05 0.012702841
0.006292583 0.004909622 0.01369869 0.009507251 0.0058589517 -0.003317181 0.016994039 0.0035960104
0.0070516877 0.007221598 -0.0059410185 0.009309275 0.010675015 0.0028254336 0.020767558 -0.00055503135
0.0084325485 0.0021008502 -0.005704811 0.004409459 0.0041037085 0.007835601 -7.344644e-05 0.010310736
-0.005820316 0.003143171 0.016222445 -0.0031542364 0.011263018 0.010617801 0.009819867 0.012477315
-0.0020970393 0.011837579 -0.00017950819 -0.0037780483 0.0002084877 -0.0019116588 -0.0023066883 -2.0078398e-05
0.010054071 -0.00054518116 0.002277938 0.017213685 -0.00031336493 -0.0011313419 0.011459007 0.0052915365
0.009210867 0.005597514 0.016376058 -0.00301301 0.0043502683 0.017369818 0.011832149 -0.0011847874
-0.0026287483 0.010347004 0.009808656 0.0058216066 0.014195247 -0.019406343 0.011037883 0.014066668
-0.0015925097 -0.0017393589 0.007246161 0.0065524294 0.008288518 0.0077418075 0.009944072 0.0051024705
-0.011496143 0.013747273 0.007859509 0.009499415 -0.0005668365 -0.0009450575 -0.008124693 0.0025627024
0.004774267 0.010871341 0.017109642 -0.00208314 -0.00060964 0.014420465 0.005701457 -0.010614918
0.0036670403 0.0064513786 -0.0025888379 -0.02283496 0.003488197 0.008058552 0.0080958465 -0.0057000197
-0.0032211347 -0.0004298161 0.0054005804 0.0093527045 0.0033520504 0.00086626643 0.0025561117 0.0043407963
0.0030088427 0.015279302 0.012681603 -0.0005362254 -0.00086480635 -0.0021169416 0.015605978 0.0022093938
-0.0039378772 -0.00857566 0.0016545955 0.009584757 0.008078477 -0.0018949282 0.0019799166 0.009887889
-0.0022949572 0.0035012802 -0.001364652 0.008186006 -0.0018922534 0.008903429 0.002468707 0.0019712439
0.01098757 0.008657702 0.0037020713 0.0026452956 7.690245e-05 -0.0023602797 0.014616598 -0.0010079922
-0.007926533 0.0018323676 0.0019437508 0.012203386 0.0063808747 0.012709243 0.010308524 -0.007127465
0.004165134 0.0024933917 -0.0036958195 -0.0032599948 0.011268265 0.014942105 0.0018664992 0.009890078
0.0016033793 0.011672963 0.012177236 0.013159497 0.010741174 0.008782624 0.006077746 0.009968448
0.013862737 0.008076096 -0.007794872 0.004164169 0.013348156 0.0047094165 -0.0023405524 0.004148107
0.006498756 -0.0031833579 0.0045556147 0.0019833902 0.01393187 0.0007496217 0.0075617954 -0.006935547
0.014119478 0.007939684 -0.010604628 0.011777175 -0.00667052 -0.0059106746 0.01205548 0.0119893085
00000000: bdc2 9e3b b51e 8f3b c2d8 5c3c fa68 503c
00000010: 4ff0 643a 14e1 523b 139f 2f3c a6d1 4a3c
00000020: 117f db3b 8996 213c 8b7a 503b 110c c8b9
00000030: 3e9e 9b3c 8821 afbb 2a75 1c3c 985a f53b
00000040: 6cf0 c13a 74fd 89bb a81d 18ba c523 a33b
00000050: e76e 733c fe3d f53a 89ae 2b3c 9866 03ba
00000060: f5ea b53b ff09 8a3c 5b05 19bc 517c 713c
00000070: cccd 2c3c b585 983b 30dd 66bb f8b4 663c
00000080: bcd8 8b3b 535b 963b 6139 b5bb a440 633b
00000090: e94d 5c3c 59fa 973c f36b b13b 78ae d13b
000000a0: ab0d 143b fc9a 493b 86b5 54bb 0cff 783c
000000b0: 4f79 333b 9919 493c 3ff9 3e3c 4e74 373c
000000c0: bd8c 083c 608d b83b eaa7 3a3c 8337 8fba
000000d0: 497f 75bc 1906 e33b 8fa1 143c 0721 e03a
000000e0: 88ae 373b ccb9 ee3b a21d 233b e297 853c
000000f0: b67f fb3b 41ed ca3b 932a 783c b971 1c3b
00000100: c37b 2dbc 4060 103c 619d e23b 5256 ac3b
00000110: 200d 3b3c acab 9e3b f755 1f38 941f 503c
00000120: 0332 ce3b e5e0 a03b 7870 603c 4dc4 1b3c
00000130: 73fc bf3b 1065 59bb 1537 8b3c 0bab 6b3b
00000140: d811 e73b 28a3 ec3b e0ac c2bb ee85 183c
00000150: 42e6 2e3c e92a 393b ba20 aa3c 867f 11ba
00000160: ac28 0a3c 6bae 093b 6cef babb 397d 903b
00000170: 6778 863b e560 003c 4207 9ab8 5cee 283c
00000180: 59b8 bebb a9fd 4d3b efe4 843c 4eb7 4ebb
00000190: 8588 383c 49f6 2d3c 82e3 203c a76d 4c3c
000001a0: 7b6e 09bb 68f2 413c 5d3a 3cb9 2299 77bb
000001b0: 7e9d 5a39 a090 faba cf2b 17bb 086e a8b7
000001c0: d5b9 243c 7dea 0eba 7549 153b b703 8d3c
000001d0: 214b a4b9 8949 94ba 8fbe 3b3c a064 ad3b
000001e0: 2de9 163c 5a6b b73b 1527 863c eb75 45bb
000001f0: b28c 8e3b 264b 8e3c a1db 413c de4a 9bba
00000200: 1447 2cbb 7b86 293c 7cb4 203c 2dc3 be3b
00000210: 2e93 683c 0dfa 9ebc 3dd8 343c e277 663c
00000220: c2bb d0ba 33fb e3ba 3471 ed3b c3b5 d63b
00000230: 90cc 073c fdae fd3b 76ec 223c a032 a73b
00000240: 525a 3cbc 3e3c 613c 2cc5 003c 6fa3 1b3c
00000250: c197 14ba bcbd 77ba 6f1d 05bc 03f3 273b
00000260: 7471 9c3b b61d 323c 8529 8c3c 4a85 08bb
00000270: 3fd0 1fba d043 6c3c 4ad3 ba3b 31ea 2dbc
00000280: ba52 703b 1666 d33b 7ea9 29bb 6210 bbbc
00000290: 3c9a 643b 0408 043c 71a4 043c 3bc7 babb
000002a0: ac19 53bb f158 e1b9 5af7 b03b 163c 193c
000002b0: 13ae 5b3b 2816 633a 7084 273b 3d3d 8e3b
000002c0: 0130 453b 0a56 7a3c 80c6 4f3c 7a91 0cba
000002d0: 2cb4 62ba 63bc 0abb 37b0 7f3c 7acb 103b
000002e0: 4f09 81bb ed80 0cbc 03df d83a 6209 1d3c
000002f0: 975b 043c 3d5f f8ba 7dc1 013b d000 223c
00000300: fe66 16bb bc75 653b 1fde b2ba 991e 063c
00000310: 7d05 f8ba b0df 113c 08ca 213b fc2f 013b
00000320: 3505 343c 09d9 0d3c 739e 723b b25c 2d3b
00000330: b046 a138 ecae 1abb 757a 6f3c 9b1e 84ba
00000340: 4ade 01bc 0e2c f03a 74c5 fe3a b6f0 473c
00000350: a816 d13b 6e3a 503c 15e5 283c 838d e9bb
00000360: ad7b 883b 2c68 233b 9035 72bb a3a5 55bb
00000370: 879e 383c bbcf 743c 52a5 f43a fe09 223c
00000380: 7b28 d23a f53f 3f3c 0883 473c ee9a 573c
00000390: c0fb 2f3c ffe4 0f3c d427 c73b b452 233c
000003a0: 8920 633c 9a51 043c 206c ffbb 9573 883b
000003b0: 39b2 5a3c 7351 9a3b f463 19bb d8ec 873b
000003c0: 84f3 d43b e29f 50bb 4447 953b c4fb 013b
000003d0: 8042 643c 4382 443a f0c8 f73b 9643 e3bb
000003e0: 6255 673c 7315 023c 09bf 2dbc 0df5 403c
000003f0: 6194 dabb 55ae c1bb 5984 453c ce6e 443c

network_body._body_endoder.seq_layers.4.weight f4 [256, 256]
0.07329779 -0.010019318 0.08337701 -0.036487352 -0.07978379 -0.065347455 -0.012555801 0.00030197133
0.094062224 0.022852058 0.043322522 0.06357135 0.09983178 -0.14268762 0.08897329 -0.09604491
0.084406234 0.08788958 0.026755735 -0.06321999 0.030068003 0.029753627 0.10635127 0.0045240046
0.032649145 -0.014989407 0.065488584 0.0060835127 0.11522847 -0.07742963 -0.06641308 0.008498548
0.07001363 0.016851459 0.008626925 -0.033097547 0.013686449 -0.029276835 -0.064180836 0.009837247
0.019366598 -0.0010061176 -0.04326399 -0.014829226 0.015944209 -0.076765604 0.06684879 0.063853614
0.1049489 -0.11066951 0.06181751 -0.04644362 0.02187651 0.052859776 0.06446055 0.10841118
-0.11365733 -0.070208155 -0.045466598 0.023216581 0.019275967 0.027704056 -0.033687823 -0.01638243
0.014755621 -0.08555866 0.0037330282 -0.08957783 0.09930681 0.045550402 0.06145173 -0.049862664
0.0005442769 -0.003256239 -0.018600602 0.03595478 -0.08603276 -0.07202655 -0.09758569 0.10673858
-0.006591805 -0.0053612306 0.057986412 -0.03983127 -0.0337774 -0.07073164 0.025879176 0.041361276
-0.083147995 -0.11418162 0.059263766 0.022275388 -0.035208166 -0.0006230048 -0.036018223 -0.1372198
-0.08726041 -0.12404412 0.11372236 0.00641414 0.06345004 0.12017321 -0.040402595 -0.056691192
-0.042049497 -0.014461379 -0.07992323 0.052655663 0.015955362 0.044049624 0.049204215 0.05926149
0.063505284 -0.11529322 -0.008620288 0.0875964 -0.02801953 0.050965484 -0.014971362 0.027940601
-0.03537717 0.010949988 0.04928512 0.04983897 0.042541403 -0.1108132 -0.030769175 0.06009481
0.07195939 -0.08174674 -0.14871755 -0.17021264 0.10320583 0.005885697 -0.028552685 0.1003501
0.14413895 0.07141454 -0.031693444 -0.05911847 -0.034427077 -0.00932958 -0.014132993 0.103427
-0.038489766 0.120821595 0.18505393 -0.05970332 -0.068474226 0.10515581 -0.00313641 0.029521693
0.08499701 0.0852254 0.00021028289 0.033515032 0.007873506 0.04059846 0.10835178 0.0664548
0.06224448 -0.020070754 0.014339205 -0.077116266 -0.042166013 0.048576884 -0.054649796 -0.070934944
0.054627135 0.04237402 -0.13002935 -0.07863709 -0.03283921 -0.05309369 0.060304053 0.11086975
-0.034122262 -0.008405788 0.08165711 -0.059568707 0.024677495 -0.025151752 0.04652929 0.025189828
0.08557659 -0.067917414 0.010922188 -0.053562656 -0.07720458 -0.041348413 -0.094711326 -0.018342748
-0.061105326 -0.014134448 0.09848215 -0.0020497565 -0.05831782 -0.09344999 -0.08532812 -0.09595963
-0.10656013 0.024251621 0.012500071 0.07024894 0.04246615 0.0055221706 -0.04347875 -0.0062321927
-0.07499972 -0.060482215 0.05115438 0.08433657 0.007283299 -0.038317114 0.028321961 0.050420642
0.08310772 0.049013436 0.017505676 -0.0057339147 0.013478932 -0.07710181 -0.0108198505 -0.014846532
-0.034743033 0.055192724 0.103846304 -0.041806042 0.038377445 0.04320604 0.022143079 0.03498187
-0.0334824 0.010166608 0.06860363 -0.025605341 0.10102583 -0.031736866 0.05292589 0.03231193
-0.19619094 0.07926568 -0.05122822 0.018453185 0.057273846 -0.025433341 -0.024568018 0.05949558
0.12543623 0.05589382 -0.072317414 0.040453315 0.10391613 0.011184978 0.04123281 -0.012223911
00000000: 271d 963d 1128 24bc 91c1 aa3d c373 15bd
00000010: af65 a3bd e3d4 85bd d9b6 4dbc e851 9e39
00000020: b2a3 c03d 3d34 bb3c f572 313d b231 823d
00000030: 9b74 cc3d b41c 12be a137 b63d 32b3 c4bd
00000040: 2ddd ac3d 74ff b33d d82e db3c 7b79 81bd
00000050: 2c51 f63c e1bd f33c b2ce d93d 1a3e 943b
00000060: 1cbb 053d 2196 75bc e11e 863d 3458 c73b
00000070: e7fc eb3d 6d93 9ebd 9503 88bd 7e3d 0b3c
00000080: 4e63 8f3d 120c 8a3c f257 0d3c 4b91 07bd
00000090: 213d 603c f9d5 efbc 3e71 83bd 682c 213c
000000a0: b3a6 9e3c b4df 83ba 9535 31bd 48f6 72bc
000000b0: 6e9d 823c 4937 9dbd 05e8 883d afc5 823d
000000c0: 73ef d63d b2a6 e2bd 5b34 7d3d aa3b 3ebd
000000d0: 5e36 b33c 7e83 583d e503 843d ae06 de3d
000000e0: 2dc5 e8bd 4bc9 8fbd 2f3b 3abd b330 be3c
000000f0: a2e8 9d3c 9ef3 e23c 3efc 09bd 7234 86bc
00000100: 8fc1 713c 6139 afbd d2a5 743b 9574 b7bd
00000110: 5e61 cb3d 0f93 3a3d cfb4 7b3d cb3c 4cbd
00000120: cead 0e3a a066 55bb 4a60 98bc 5245 133d
00000130: f231 b0bd a882 93bd 02db c7bd c299 da3d
00000140: 1100 d8bb 43ad afbb 2983 6d3d 1d26 23bd
00000150: 2c5a 0abd c0db 90bd 9100 d43c 716a 293d
00000160: 7f49 aabd 0ed8 e9bd 90be 723d e07a b63c
00000170: 7036 10bd 2551 23ba d887 13bd 5983 0cbe
00000180: 96b5 b2bd d80a febd 45e7 e83d b52d d23b
00000190: 18f2 813d 5f1d f63d 317d 25bd 0635 68bd
000001a0: 183c 2cbd 6bef 6cbc caae a3bd 77ad 573d
000001b0: d2b4 823c 616d 343d 5c8a 493d 2dbc 723d
000001c0: 0f0f 823d da1e ecbd 1c3c 0dbc be65 b33d
000001d0: 3789 e5bc 2fc1 503d 724a 75bc b0e3 e43c
000001e0: a7e7 10bd 9467 333c 32df 493d f323 4c3d
000001f0: e53f 2e3d 08f2 e2bd a30f fcbc fa25 763d
00000200: 725f 933d d66a a7bd 6a49 18be 394c 2ebe
00000210: 945d d33d cedc c03b 52e7 e9bc 5a84 cd3d
00000220: 2999 133e c941 923d fcd0 01bd 3526 72bd
00000230: 6803 0dbd 18db 18bc 128e 67bc 89d1 d33d
00000240: 72a7 1dbd 5071 f73d c77e 3d3e 788b 74bd
00000250: 373c 8cbd ee5b d73d 3a8c 4dbb 7ad7 f13c
00000260: ea12 ae3d a88a ae3d 627f 5c39 0f47 093d
00000270: e1ff 003c 924a 263d 8ae7 dd3d 7419 883d
00000280: 11f4 7e3d 6c6b a4bc fcee 6a3c 22ef 9dbd
00000290: 45b6 2cbd 8ef8 463d 77d8 5fbd 5746 91bd
000002a0: b4c0 5f3d 6190 2d3d 6a26 05be 7c0c a1bd
000002b0: 6882 06bd c578 59bd 6201 773d ae0f e33d
000002c0: c9c3 0bbd 6eb8 09bc d83b a73d 51fe 73bd
000002d0: 7528 ca3c 0c0b cebc 7f95 3e3d e65a ce3c
000002e0: c742 af3d 4918 8bbd faf2 323c 8464 5bbd
000002f0: 6f1d 9ebd f45c 29bd 03f8 c1bd 8843 96bc
00000300: 9449 7abd 2c94 67bc 02b1 c93d 3555 06bb
00000310: abde 6ebd b562 bfbd 82c0 aebd 7c86 c4bd
00000320: 333c dabd 56ab c63c 19cd 4c3c adde 8f3d
00000330: fcf0 2d3d 53f3 b43b c616 32bd 6c37 ccbb
00000340: 7499 99bd 33bc 77bd 4187 513d a7b8 ac3d
00000350: bea8 ee3b 68f2 1cbd 7503 e83c e085 4e3d
00000360: 6134 aa3d 50c2 483d 1068 8f3c 90e3 bbbb
00000370: bdd6 5c3c 8ee7 9dbd be45 31bc de3e 73bc
00000380: b64e 0ebd c411 623d 5fad d43d d03c 2bbd
00000390: ab31 1d3d d1f8 303d 6765 b53c 2649 0f3d
000003a0: d724 09bd d891 263c 0f80 8c3d 4bc2 d1bc
000003b0: a1e6 ce3d 84fe 01bd d1c8 583d 8459 043d
000003c0: 47e6 48be 0b56 a23d afd4 51bd 222b 973c
000003d0: fb97 6a3d 9559 d0bc de42 c9bc a3b1 733d
000003e0: 5b72 003e ebf0 643d 271b 94bd 60b2 253d
000003f0: fbd1 d43d 3341 373c bce3 283d cc46 48bc

network_body._body_endoder.seq_layers.4.bias f4 [256]
1.1678585e-05 0.005464344 0.018630648 0.012322748 -0.0038561334 -0.0025540593 0.0010667605 -0.004255618
0.006837416 0.015197785 0.006046741 -0.0019258905 -0.00430921 -0.011919729 0.008463486 0.008109922
0.0048549306 0.0014341122 0.00023690297 0.0090663405 0.00091690075 0.0005472744 0.0075639267 0.006265322
0.004154829 0.007530905 0.013662335 0.009926079 0.007979221 0.01243574 0.003311949 0.0016635658
0.009513278 -0.0013419883 0.0076872553 0.008226837 0.014078314 0.014480738 0.0130306585 0.0042613847
0.0074450104 0.012531341 -0.011625598 0.011747938 0.0030949425 0.0071297046 -0.0027744395 0.013956721
0.003853219 -0.008654836 0.0063129445 0.0063973647 0.0127623025 0.009876024 0.008889972 0.0014573298
0.00039287808 0.009380921 -0.0010743923 0.0059812623 0.0014867162 -8.110414e-05 -0.0006703545 -1.817922e-05
0.017897805 0.007931724 0.006154119 0.013367095 -0.0030735626 -0.0065023764 0.01309101 0.009746284
-0.006433052 0.017921666 0.0066352054 0.002577066 0.003520908 0.014314508 0.011371242 -0.0062840665
0.0045501897 0.013737283 -0.00049920805 0.016161457 0.0063220486 -0.005238325 0.0024217851 0.005726968
-0.0065213963 0.0018663536 0.0055340556 0.006648976 -0.0035481646 0.0142881535 0.00315739 0.0077470834
0.0069983206 -0.0041685547 0.0048077693 0.017347315 -0.005490467 0.0046174023 0.0068116994 0.013769869
0.0016968393 0.00027589637 0.0001406557 0.013203477 0.012800093 0.0035708905 0.0011632028 -0.008713503
-0.0016709415 0.00046385548 0.017850766 0.003076693 0.008395937 -0.005144493 0.00965912 0.011423298
0.012371496 -0.0053415056 0.0022141563 0.0037617646 -0.0028067243 0.004255602 0.0031371799 0.0075480775
0.0034385466 0.007876656 0.006675742 -0.0028326819 -6.916283e-05 -0.0024627203 0.019866766 0.0053250217
-0.0012991541 0.0026150409 -0.0036076976 0.008897974 0.0011647367 -0.0014714429 0.000277329 0.011604877
0.0036931336 0.0043630395 0.010048723 0.009164116 0.0027561244 0.007118756 -0.0043159784 0.008289275
-0.012386388 0.014539217 0.011646648 0.001643144 -0.00270707 -0.007981424 0.0095972875 0.011873064
0.0106430985 0.0038403838 -0.010231383 0.0020942045 0.0060764346 0.0075934334 -0.00022595172 0.0037019725
0.01250052 -0.005035731 0.009963157 0.0056632105 0.0100959195 0.00963056 0.0076935263 0.01872687
-0.002102283 -0.0040832297 0.0058901655 0.0040187 0.0026458278 -0.0036024968 0.0017279779 -0.0012528858
0.0072722076 0.0012088995 0.012219043 0.004362405 -0.0073211663 0.0015911877 0.0060208323 0.005616534
-0.00054079556 0.00030963152 0.004065323 -0.0040677553 0.004328902 0.016063547 -0.011477693 0.021279957
0.0004067861 0.00069487805 -0.0028665732 0.0124113625 -0.0036504716 0.010425686 0.014658922 0.002442045
0.002073507 0.0023100437 -0.0014569425 9.8182725e-05 0.0071279495 0.013333418 0.01584998 0.008490565
0.011593914 -0.0052335598 0.00126301 0.016347315 0.0042746514 0.00073360966 0.013735802 0.013208871
0.015168499 0.007330502 -0.002928273 -0.006090179 0.0002810899 0.0060021263 0.0020773239 0.000981134
-0.0023879958 0.006860441 0.0015183674 0.012023841 0.009393859 0.016252171 -0.005873918 0.01726434
-0.0043657855 -0.0039838054 0.007904741 0.016979754 0.008233174 0.0039218715 -0.0034669652 0.0027665126
0.0034712283 0.002962408 0.013404316 0.01966622 0.0005038924 0.0070971306 0.011881449 0.0049631647
00000000: 24ef 4337 3d0e b33b 4d9f 983c 5ae5 493c
00000010: 2fb7 7cbb 0162 27bb 8bd2 8b3a b672 8bbb
00000020: 670c e03b 2100 793c bd23 c63b 296e fcba
00000030: 4634 8dbb f84a 43bc 6faa 0a3c 7adf 043c
00000040: 1c16 9f3b d2f8 bb3a 2869 7839 fd8a 143c
00000050: 2b5c 703a f776 0f3a d1da f73b 554d cd3b
00000060: 3b25 883b cfc5 f63b fdd7 5f3c fea0 223c
00000070: 47bb 023c 46bf 4b3c 490d 593b 010c da3a
00000080: 94dd 1b3c a8e5 afba 5fe5 fb3b dbc9 063c
00000090: bba8 663c 9e40 6d3c 8b7e 553c 16a3 8b3b
000000a0: 46f5 f33b 4150 4d3c 4b79 3ebc 6c7a 403c
000000b0: 85d4 4a3b 4ca0 e93b 5fd3 35bb bbaa 643c
000000c0: 4a86 7c3b 03cd 0dbc d1dc ce3b fca0 d13b
000000d0: fa18 513c 0ccf 213c 3fa7 113c e003 bf3a
000000e0: 34fb cd39 6fb2 193c a0d2 8cba 77fe c33b
000000f0: ebdd c23a 7416 aab8 bbba 2fba 947f 98b7
00000100: 6b9e 923c 10f4 013c 7ea8 c93b a901 5b3c
00000110: d36d 49bb e311 d5bb ad7b 563c e1ae 1f3c
00000120: 5acc d2bb 75d0 923c 236c d93b fee3 283b
00000130: 09bf 663b 6687 6a3c 724e 3a3c 92ea cdbb
00000140: c219 953b 5712 613c 49dd 02ba 0865 843c
00000150: 3029 cf3b 41a6 abbb d0b6 1e3b 4aa9 bb3b
00000160: 70b1 d5bb 6fa0 f43a 0657 b53b a7df d93b
00000170: 5388 68bb dc18 6a3c 37ec 4e3b 3fdb fd3b
00000180: 2b52 e53b 5f98 88bb 7e8a 9d3b f51b 8e3c
00000190: 60e9 b3bb 944d 973b ad34 df3b 049b 613c
000001a0: 7b68 de3a 2fa6 9039 fa7c 1339 6553 583c
000001b0: 7bb7 513c 9a05 6a3b 9c76 983a 15c3 0ebc
000001c0: 7e03 dbba a131 f339 c53b 923c 58a2 493b
000001d0: 1d8f 093c 2393 a8bb 4941 1e3c c928 3b3c
000001e0: d1b1 4a3c cc07 afbb 611b 113b f087 763b
000001f0: 05f1 37bb 9472 8b3b 2599 4d3b dd55 f73b
00000200: 3d59 613b 170d 013c 2fc0 da3b 84a4 39bb
00000210: 830b 91b8 9765 21bb a1bf a23c 857d ae3b
00000220: 6148 aaba 1b61 2b3b 1f6f 6cbb cfc8 113c
00000230: 14aa 983a 6edd c0ba 7866 9139 6222 3e3c
00000240: 8008 723b d4f7 8e3b 66a3 243c 1725 163c
00000250: 18a0 343b 7444 e93b 0d6d 8dbb bdcf 073c
00000260: 47f0 4abc e535 6e3c 95d1 3e3c c35e d73a
00000270: 1969 31bb 85c4 02bc f13d 1d3c 3d87 423c
00000280: 6460 2e3c f3ae 7b3b 88a1 27bc ec3e 093b
00000290: d41c c73b 56d2 f83b 74ed 6cb9 cb9c 723b
000002a0: fbce 4c3c c602 a5bb 823c 233c 7492 b93b
000002b0: 5b69 253c 7fc9 1d3c fa19 fc3b 1869 993c
000002c0: 75c6 09bb 9dcc 85bb 4a02 c13b 4daf 833b
000002d0: a065 2d3b de17 6cbb 517d e23a df37 a4ba
000002e0: b34b ee3b f073 9e3a 6232 483c 81f2 8e3b
000002f0: 65e6 efbb 668f d03a 674a c53b e70a b83b
00000300: 2dc4 0dba 0a56 a239 6736 853b ce4a 85bb
00000310: 76d9 8d3b b397 833c ef0c 3cbc 4e53 ae3c
00000320: e845 d539 7a28 363a 1edd 3bbb 0759 4b3c
00000330: c03c 6fbb 7fd0 2a3c fa2b 703c b70a 203b
00000340: ade3 073b 1a64 173b e1f6 beba 73e7 cd38
00000350: 9391 e93b 6974 5a3c d1d7 813c 031c 0b3c
00000360: 66f4 3d3c 487e abbb 958b a53a ceea 853c
00000370: 6012 8c3b b64f 403a 210c 613c 056a 583c
00000380: 4c85 783c b534 f03b 45e8 3fbb 2090 c7bb
00000390: 3f5f 9339 7cad c43b b623 083b 6599 803a
000003a0: ec7f 1cbb 8dcd e03b f503 c73a a5ff 443c
000003b0: b3e8 193c 4623 853c ff79 c0bb f26d 8d3c
000003c0: dd0e 8fbb 958a 82bb e382 013c 2019 8b3c
000003d0: 6fe4 063c 0b83 803b 0636 63bb 614e 353b
000003e0: 8c7d 633b f524 423b c79d 5b3c 0d1b a13c
000003f0: a617 043a 0c8f e83b 69aa 423c 0ba2 a23b

action_model._continuous_distribution.log_sigma f4 [1, 2]
-0.1686425 0.04644883
00000000: 9fb0 2cbe 2141 3e3d

action_model._continuous_distribution.mu.weight f4 [2, 256]
0.013887874 -0.007056898 -0.024365224 0.011283099 0.03645875 -0.022364393 0.0013851993 0.00390444
-0.003764573 -0.014983625 0.0076152715 -0.009793173 -0.0042659603 0.022669135 0.0026655558 -0.025672609
0.00054892903 -0.008880253 0.01954992 -0.003415291 -0.025155876 -0.005368513 0.003378791 -0.0139196655
0.023881683 -0.0043498725 0.0016918592 -0.010850933 -0.02236651 0.015772782 -0.003968094 -0.015525221
0.002617044 0.03322226 -0.0045640096 -0.012695817 -0.006489207 -0.0053059934 -0.015044614 -0.03338313
0.00380667 -0.029354548 0.017135775 -0.033895046 0.012382496 -0.0016358431 -0.0030535208 0.02433701
0.048639555 0.007804256 0.028398054 -0.012579677 0.017186236 0.018583413 0.00088451785 -0.0029060193
0.005603256 -0.029527707 0.018957658 -0.012213624 -0.024419654 0.013032844 0.0317976 0.010492565
0.00037470774 -0.008648242 0.025670314 -0.003088961 0.013683241 0.02582198 -0.010099473 -0.023206752
0.016299725 -0.020444194 0.009783116 0.0017694046 -0.022628665 -0.0126810325 -0.021882948 -0.0012307767
0.024458662 -0.017751357 -0.0021883093 0.0024526943 -0.023577161 0.0005495052 -0.014435416 -0.013999255
0.014722432 0.04251859 0.006209858 0.0075319693 0.0019540628 -0.012881865 0.014827773 -0.0018214101
0.01657308 0.012815006 0.025237923 -0.009338434 0.0017171013 -0.018712781 0.0014303837 -0.0011061693
-0.005419568 0.022283373 0.014509813 -0.023140175 -0.013222389 -0.02152606 -0.0050131227 0.021431714
-0.0031327424 0.043784328 -0.041694682 0.04745452 0.0028787882 0.02908346 -0.009814989 -0.020360416
0.015773186 0.028625008 0.009102596 -0.02553469 -0.011991092 0.020092256 -0.010246999 -0.018034356
-0.009510817 -0.030635294 0.01503115 -0.024729352 0.0005534048 0.01581895 -0.00067284383 -0.05775955
0.011183159 0.013074348 0.010111264 -0.017433438 0.011433748 0.008373817 0.032809224 -0.010058633
0.0075139925 0.03859704 -0.015928786 0.033110008 0.0195824 -0.005655659 0.030627212 0.024246184
0.01427081 -0.007062013 0.0020164098 0.023490435 0.0025588272 0.016455011 0.0032427898 -0.028870586
-0.024106024 -0.0095694745 -0.0042847013 0.021946961 0.018835751 0.02376593 -0.0050389394 0.014564656
-0.00822392 0.015387691 0.048624337 -0.041626357 -0.028651593 0.0048241755 -0.009201728 -0.005370928
0.0344212 0.01198186 0.010213582 -0.012593306 0.019519215 -0.0035951093 0.020312555 0.013649069
-0.036805324 -0.0150767425 -0.0057535945 -0.00042375503 0.020497475 0.036639567 -0.029837022 -0.016305542
0.044276014 -0.0053827465 -0.019166742 0.006904531 -0.023522096 -0.015351652 0.0058156066 -0.006931235
0.020008553 -0.010858918 -0.0091957 -0.0053255036 -0.016450578 0.006658191 -0.00027222926 0.0011305455
-0.0044342014 -0.017155897 0.016326994 0.035066802 -0.0039806454 0.019877393 0.0060067205 -0.038641486
-0.02468601 0.026436225 -0.015497348 -0.016323324 -0.024481313 0.0020561132 -0.0077281995 -0.00977592
-0.010165076 -0.008727096 0.037818853 0.01353802 0.025460217 -0.013565031 0.03500187 0.054752007
0.0059871185 -0.016580142 -0.0117255915 -0.0061684013 -0.0036333294 -0.0036336726 0.034224115 -0.013525325
0.008820693 -0.012610797 -0.014589932 0.0032599263 -0.004612068 -0.03930716 -0.011897261 -0.011276566
0.012705501 0.054294195 -0.005074155 -0.013166673 0.013381415 0.03017648 0.0064798505 -0.04868414
00000000: f789 633c 8d3d e7bb 9499 c7bc bfdc 383c
00000010: c555 153d 8835 b7bc 938f b53a a2e1 7f3b
00000020: 0eb7 76bb e17d 75bc 8789 f93b 8b73 20bc
00000030: 78c9 8bbb 9fb4 b93c 9bb0 2e3b 5d4f d2bc
00000040: 01e6 0f3a 7b7e 11bc 2727 a03c 13d3 5fbb
00000050: b213 cebc 5aea afbb b56e 5d3b 4f0f 64bc
00000060: 85a3 c33c 6089 8ebb 60c1 dd3a 1dc8 31bc
00000070: f939 b7bc ec35 813c c906 82bb 7f5d 7ebc
00000080: b682 2b3b 1114 083d b08d 95bb 1e02 50bc
00000090: 6aa3 d4bb e6dd adbb af7d 76bc c0bc 08bd
000000a0: 5379 793b f378 f0bc 5360 8c3c 88d5 0abd
000000b0: f4df 4a3c c969 d6ba 941d 48bb 695e c73c
000000c0: 453a 473d d8ba ff3b 09a3 e83c fd1a 4ebc
000000d0: 26ca 8c3c 3e3c 983c fdde 673a ea72 3ebb
000000e0: 859b b73b 17e4 f1bc 174d 9b3c a71b 48bc
000000f0: ba0b c8bc b687 553c 333e 023d 02e9 2b3c
00000100: 6c74 c439 5bb1 0dbc 8d4a d23c 2a70 4abb
00000110: ac2f 603c 9e88 d33c 4378 25bc 161c bebc
00000120: 0087 853c 957a a7bc 5d49 203c 5eeb e73a
00000130: c05f b9bc 1bc4 4fbc de43 b3bc 0352 a1ba
00000140: 885d c83c 4b6b 91bc bd69 0fbb 62bd 203b
00000150: e424 c1bc ab0c 103a 8682 6cbc 225d 65bc
00000160: 5b36 713c f927 2e3d 117c cb3b bdce f63b
00000170: bc0f 003b 750e 53bc 30f0 723c 62bc eeba
00000180: 45c4 873c 08f6 513c c3bf ce3c 3b00 19bc
00000190: 5c10 e13a 8c4b 99bc b67b bb3a e2fc 90ba
000001a0: a296 b1bb 9f8b b63c 91ba 6d3c 7790 bdbc
000001b0: b8a2 58bc 6b57 b0bc 1f45 a4bb 9091 af3c
000001c0: b24e 4dbb 3257 333d 0bc8 2abd ac5f 423d
000001d0: 0daa 3c3b 7040 ee3c 0ccf 20bc e3ca a6bc
000001e0: c536 813c fe7e ea3c 0e23 153c 202e d1bc
000001f0: 4976 44bc 8498 a43c 07e3 27bc c9bc 93bc
00000200: 42d3 1bbc def6 fabc 3645 763c 3695 cabc
00000210: 5e12 113a be96 813c c961 30ba 4795 6cbd
00000220: 9239 373c ca35 563c b7a9 253c 92d0 8ebc
00000230: 9d54 3b3c 5632 093c f762 063d f7cc 24bc
00000240: f037 f63b ee17 1e3d 167d 82bc 5c9e 073d
00000250: 456b a03c 1b53 b9bb ebe5 fa3c ef9f c63c
00000260: 1ed0 693c 7568 e7bb be25 043b 036f c03c
00000270: ffb1 273b a9cc 863c fc84 543b 0282 ecbc
00000280: ff79 c5bc 49c9 1cbc ae66 8cbb 1dca b33c
00000290: 6f4d 9a3c c5b0 c23c b01d a5bb 98a0 6e3c
000002a0: 9fbd 06bc a71c 7c3c 502a 473d 6680 2abd
000002b0: bfb6 eabc 1e14 9e3b d8c2 16bc 9cfe afbb
000002c0: 3ffd 0c3d 904f 443c de56 273c 2754 4ebc
000002d0: c3e6 9f3c ed9b 6bbb 8466 a63c 58a0 5f3c
000002e0: 2ec1 16bd 7104 77bc a688 bcbb 702b deb9
000002f0: 52ea a73c 5f13 163d c56c f4bc 3393 85bc
00000300: c45a 353d c061 b0bb 9203 9dbc 673f e23b
00000310: 69b1 c0bc 7f85 7bbc d890 be3b 6a1f e3bb
00000320: fae8 a33c 9ae9 31bc 90a9 16bc 9081 aebb
00000330: 5dc3 86bc f42c da3b feb9 8eb9 d02e 943a
00000340: c74c 91bb 868a 8cbc 30c0 853c 35a2 0f3d
00000350: 1370 82bb ead5 a23c 06d4 c43b 8946 1ebd
00000360: 513a cabc c890 d83c 97e8 7dbc 7eb8 85bc
00000370: 098d c8bc dbbf 063b d63c fdbb 2e2b 20bc
00000380: 6b8b 26bc 18fc 0ebc f1e7 1a3d 92ce 5d3c
00000390: f291 d03c dd3f 5ebc 1f5e 0f3d a443 603d
000003a0: 972f c43b 14d3 87bc b21c 40bc 4d20 cabb
000003b0: 271d 6ebb e922 6ebb 962e 0c3d 5399 5dbc
000003c0: ab84 103c 849d 4ebc 9c0a 6fbc 7da4 553b
000003d0: d520 97bb 8b00 21bd bbec 42bc 59c1 38bc
000003e0: bc2a 503c 9763 5e3d 1945 a6bb 07b9 57bc
000003f0: b93d 5b3c aa34 f73c ed54 d43b 0569 47bd

action_model._continuous_distribution.mu.bias f4 [2]
-0.0050727082 0.004164126
00000000: f638 a6bb 3873 883b
