Assets/Training/results/asdadadasad/AgentController/AgentController-205699.onnx (onnx, 670568 bytes, 11 tensors)

network_body._body_endoder.seq_layers.0.weight f4 [256, 128]
0	0xbdda5b9b	-0.106620036
1	0x3e344a2f	0.17606424
2	0x3bc275b0	0.0059344396
3	0x3e184062	0.1486831
4	0xbd8cf2d4	-0.06882253
5	0x3c2255a1	0.009908111
6	0x3d9897c4	0.07450822
7	0x3cfbe091	0.03074673
8	0xbdfcbf69	-0.12341196
9	0x3e05f9e3	0.13083605
10	0x3c386981	0.011255623
11	0x3d5a6fd8	0.05332932
12	0x3d25d06c	0.04048197
13	0x3dcd49fe	0.100238785
14	0x3e5f6eec	0.21819657
15	0xbe13aec1	-0.14422132
16	0xbbebd8e5	-0.0071974867
17	0x3d890483	0.06690314
18	0x3dd53a62	0.10411526
19	0x3d9db172	0.07699861
20	0x3dc71f84	0.09722808
21	0xbc068f5b	-0.00821289
22	0x3dfe4a27	0.12416487
23	0x3de57c2a	0.11205323
24	0x3e366683	0.17812543
25	0xbd6fc13f	-0.058533903
26	0x3dbcb8b3	0.09214916
27	0xbe0ac462	-0.13551477
28	0xbd0934b9	-0.033497546
29	0xbc0f6e45	-0.008754318
30	0xbdc04977	-0.09389012
31	0x3daabaad	0.08336387
32	0x3d25fe08	0.040525466
33	0x3e6a495a	0.22879544
34	0xbcca2b25	-0.024678776
35	0xbd11cc24	-0.035595074
36	0x3d223c13	0.039608072
37	0x3ded7c78	0.11596006
38	0xbd9e8995	-0.077410854
39	0x3d1f9be6	0.038967036
40	0x3dbf4fed	0.093414165
41	0xbda98ad5	-0.08278433
42	0x3d066028	0.032806545
43	0xbd2a63b1	-0.04159898
44	0x3ae35183	0.0017343018
45	0xbd99f9c7	-0.07518344
46	0x3b8db5bd	0.0043246434
47	0x3d22c686	0.039740108
48	0xbdfe218a	-0.12408741
49	0xbafa1a90	-0.0019081403
50	0x3cb6d533	0.022318458
51	0xbdc1c7e0	-0.09461951
52	0x3c2d7ac8	0.010588355
53	0xbde58d0f	-0.112085454
54	0x3db4418e	0.08801566
55	0x3ca2974b	0.019847533
56	0xbd75ee1b	-0.06004153
57	0xbda041e6	-0.07825069
58	0xbdd5dc80	-0.10442448
59	0xbb60a6f2	-0.0034279195
60	0x3d2a9cf6	0.041653596
61	0x3d4873b2	0.04893846
62	0xbd85fe80	-0.06542683
63	0xbaf35f58	-0.0018567843
64	0x3c8ea1a8	0.017411068
65	0xbcc630a3	-0.024193114
66	0x3ceb4f45	0.028724322
67	0xbd925963	-0.071459554
68	0x3d252531	0.04031867
69	0xbd24bd1b	-0.040219408
70	0x3d875b4f	0.066092126
71	0x3ddfd833	0.109299086
72	0xbb4fa2f3	-0.0031682819
73	0xbd6a4828	-0.05719772
74	0xbc26d0aa	-0.010181585
75	0x3d5ac3cb	0.05340938
76	0x3b56f967	0.0032802464
77	0xbd81a8ae	-0.06331001
78	0xbe2e7948	-0.17038453
79	0xbe063545	-0.13106258
80	0xbd97efe9	-0.07418806
81	0x3d4d93c3	0.050189745
82	0x3c9c91ee	0.019112553
83	0x3d252d4c	0.0403264
84	0x3d40c48d	0.047062445
85	0x3d391e4a	0.0451949
86	0x3c09782e	0.0083904695
87	0x3d01eeb7	0.031721797
88	0xbcaecd92	-0.021338258
89	0xbcce32d1	-0.025170716
90	0x3c07e06d	0.008293253
91	0x3dcb2861	0.09919811
92	0x3da72fd7	0.081634216
93	0x3d0d0785	0.034431
94	0x3d72c48a	0.059269466
95	0x3d942547	0.072336726
96	0xbd67b04f	-0.056564625
97	0x3d53e0d6	0.051728092
98	0x3e086476	0.13319573
99	0x3d36211a	0.04446516
100	0x3e4988fa	0.19681159
101	0x3d1ba637	0.03800031
102	0xbdbfc8af	-0.09364449
103	0xbd75432d	-0.059878517
104	0xbbcb5d05	-0.006206157
105	0x3d5480f5	0.051880796
106	0xbda9dac2	-0.08293678
107	0x3e06da40	0.13169193
108	0x3daf13ae	0.085486755
109	0xbc7ce695	-0.015435834
110	0xbc7a08b2	-0.015260862
111	0x3e871bbd	0.2638835
112	0x3cfbc0a3	0.030731505
113	0xbd8e6039	-0.06951947
114	0xbd41905f	-0.047256824
115	0xbe16fa37	-0.14743887
116	0xbde33564	-0.11094168
117	0x3d841ee5	0.06451205
118	0xbcdebac4	-0.027188666
119	0x3d64634a	0.055758752
120	0x3ddea230	0.108707786
121	0x3d75fc63	0.060055148
122	0x3e5d1a6f	0.21592115
123	0x3e2206e7	0.15822946
124	0x3de59260	0.112095594
125	0x3dd94d9f	0.10610508
126	0xbd075ec1	-0.03304935
127	0x3d8609e0	0.06544852
128	0x3d80e981	0.06294537
129	0xbb2a8d99	-0.002602434
130	0x3d0b3be7	0.033992674
131	0x3ce7c1fe	0.028290745
132	0x3b373fa4	0.0027961517
133	0xbe0e9b3c	-0.13926405
134	0xbc9267ca	-0.017871756
135	0x3e161ad0	0.14658666
136	0xbd46fc6b	-0.04858057
137	0xbd6888e4	-0.056771174
138	0xbe3e8ba6	-0.18607959
139	0xbcbd4f1b	-0.02310901
140	0x3c072d90	0.008250609
141	0xbc513f02	-0.01277137
142	0xbdb7ddca	-0.0897785
143	0x3e04f451	0.12983824
144	0xbe3c329d	-0.18378682
145	0xbda6a8ec	-0.08137688
146	0xbdde353b	-0.10849997
147	0xb9995e4e	-0.00029252697
148	0xbcf24ccb	-0.029577633
149	0xbdf6e910	-0.12056172
150	0x3d9ac587	0.075572066
151	0x3d03303e	0.03202843
152	0x3d0b80e8	0.03405848
153	0x3de7cb3c	0.11318061
154	0x3d36783c	0.04454826
155	0x3d1b4ccc	0.037915036
156	0xbd878f45	-0.06619123
157	0xbd1cbe74	-0.038267568
158	0xbd50d1a1	-0.050981168
159	0x3db19212	0.08670439
160	0x3cceacee	0.025228944
161	0x3d53cae4	0.051707163
162	0xbc942ad5	-0.01808683
163	0xbc33451b	-0.010941769
164	0xbd307a92	-0.043085642
165	0xbd0790b0	-0.03309697
166	0xbdbf8afe	-0.093526825
167	0x3d1eac9f	0.038738843
168	0xbdd95753	-0.10612359
169	0xbdb777f7	-0.08958428
170	0x3c1171ec	0.008877259
171	0xbcb70637	-0.02234183
172	0xbd840d4c	-0.06447849
173	0x3da853c9	0.08219106
174	0xbcedd098	-0.02903013
175	0x3e12243f	0.1427164
176	0x3bb87917	0.0056296694
177	0x3da83cd9	0.08214731
178	0xbac4e00c	-0.0015020384
179	0x3d1cb401	0.038257603
180	0x39c135d9	0.00036851948
181	0x3b62f83c	0.0034632822
182	0x3d56e4f3	0.052464437
183	0xbe15731e	-0.14594695
184	0x3d8df4f6	0.06931488
185	0x3e29750e	0.16548559
186	0x3dde87bb	0.10865732
187	0x3d1d5b37	0.038417067
188	0x3e04800c	0.12939471
189	0xbd16d8a3	-0.036827695
190	0x3e02cb4e	0.12772867
191	0x3dac3f80	0.08410549
192	0x3dc0aca3	0.09407928
193	0x3d819db2	0.06328906
194	0xbe427aa8	-0.18992102
195	0xbe1cbab3	-0.15305595
196	0x3d04790e	0.03234201
197	0xbd064d14	-0.03278835
198	0x3df18ce5	0.117944516
199	0xbe2ec26f	-0.17066358
200	0xbd489ab4	-0.04897566
201	0xbe13477a	-0.14382735
202	0x3d107540	0.03526807
203	0xbdc96c18	-0.0983507
204	0xbd9fda30	-0.07805288
205	0x3c5871ad	0.013210696
206	0xbd88f669	-0.06687624
207	0x3c8e7ab7	0.0173925
208	0x3d853f5f	0.06506228
209	0x3c26dea1	0.010184915
210	0xbdaee318	-0.085394084
211	0x3d529934	0.051415637
212	0x3ceeea8b	0.029164573
213	0x3c3b7c16	0.011443159
214	0xbd10d40e	-0.03535848
215	0xbbc291f6	-0.00593781
216	0xbda24707	-0.07923704
217	0xbdde34b5	-0.10849897
218	0x3c129fd7	0.008949242
219	0xbc1fc2af	-0.009751006
220	0x3ca2c381	0.019868614
221	0xbbbb9aa4	-0.0057252217
222	0x3da96fb2	0.08273257
223	0xbbe2c30c	-0.006920224
224	0x3ae96cd0	0.0017808918
225	0xbd87a1e4	-0.06622675
226	0xbe366c32	-0.1781471
227	0x3e247200	0.16059113
228	0xbac0aeb9	-0.0014700509
229	0x3e041547	0.12898742
230	0x3b43c27d	0.0029870563
231	0xbd9c62c9	-0.07636029
232	0xbc642af1	-0.013926254
233	0xbca62321	-0.020280423
234	0x3d86b0f2	0.065767184
235	0xbcac5205	-0.021035204
236	0x3baa74a4	0.005201893
237	0xbdbd8085	-0.09253029
238	0xbd7c0583	-0.061528694
239	0x3cfcf637	0.030879123
240	0xbd09278c	-0.03348498
241	0xbc89cfa3	-0.016822642
242	0xbcc77647	-0.024348391
243	0x3ccfc217	0.025361104
244	0x3e3ebd87	0.18626986
245	0x3c581f9f	0.013191133
246	0x3d5a6700	0.053320885
247	0xbd98faf0	-0.074697375
248	0x3bf31632	0.0074184174
249	0x3dd9aba5	0.10628442
250	0x3cec2be3	0.02882952
251	0xbd943b99	-0.0723793
252	0xb9ce9b32	-0.0003940701
253	0x3d0aacef	0.03385633
254	0xbdc4c051	-0.09606994
255	0xbd3c5623	-0.045980584

network_body._body_endoder.seq_layers.0.bias f4 [256]
0	0x3ba4de8a	0.0050314115
1	0x3b26fe0b	0.0025481011
2	0x3bafc0d5	0.0053635635
3	0xbb759a23	-0.0037475906
4	0x3bf02c6b	0.007329514
5	0x3b13feb3	0.0022582232
6	0x3c75dead	0.015006703
7	0xbabb23b7	-0.0014277612
8	0x3be27157	0.006910484
9	0xb9d5b166	-0.00040758698
10	0x3c23195c	0.009954777
11	0xba85e21e	-0.0010214483
12	0x3b88f3e1	0.0041794633
13	0x3c5a39b7	0.013319424
14	0x3b592a16	0.0033136657
15	0x3b438bef	0.0029838046
16	0x3b6e4f56	0.0036363206
17	0x3b70a7b7	0.003672106
18	0x3ba802d3	0.00512729
19	0x3a912bf1	0.0011075718
20	0x3bc0775c	0.0058736037
21	0x3b1ec435	0.0024225835
22	0xbaa8bf8a	-0.0012874466
23	0x3a140eda	0.0005647965
24	0xbbe873f7	-0.007093902
25	0xba673674	-0.0008820065
26	0x3b75dd7d	0.003751605
27	0x3ba45772	0.005015307
28	0x3ba71b1c	0.0050996672
29	0xbbe262ac	-0.0069087353
30	0x3c35d6c0	0.011098564
31	0xbaf74053	-0.0018863775
32	0x3b9a3209	0.0047056717
33	0xbaa2fa66	-0.0012434244
34	0x3b5abc95	0.0033376564
35	0x3bf27c21	0.007400051
36	0x3bbc29f7	0.0057423073
37	0x3c128983	0.008943918
38	0x3b6ed1d3	0.0036440983
39	0x3bdf2df3	0.0068108975
40	0x393b5cde	0.00017868305
41	0x3bae623d	0.0053217695
42	0xbc8dbae9	-0.01730104
43	0x3c011b00	0.007879972
44	0xbc014d7c	-0.007892009
45	0x3aff1e68	0.0019464018
46	0x3bb62e60	0.0055597275
47	0xbc029682	-0.007970454
48	0xbb7f2a76	-0.003893522
49	0x3b258a41	0.0025259408
50	0x3bd51df5	0.0065038153
51	0xbbde5248	-0.006784711
52	0x3bd9a734	0.0066422466
53	0xbb5c198e	-0.0033584568
54	0x3a0c7763	0.0005358366
55	0xbc241d19	-0.010016703
56	0x3aee230f	0.0018168407
57	0x3c1dd207	0.009632594
58	0x3bb0558f	0.005381293
59	0x3b42051b	0.0029605094
60	0x3becfc35	0.007232214
61	0x3b0b336d	0.002124037
62	0x38869906	6.418121e-05
63	0x3b60ff13	0.0034331724
64	0xbbb658d3	-0.005564788
65	0xba12372e	-0.00055776804
66	0x3b9ed39f	0.0048470045
67	0xb87d35ed	-6.0370123e-05
68	0x3a988e18	0.0011639027
69	0x3b442915	0.0029931713
70	0xb9de1f13	-0.00042366292
71	0x3b8c07a3	0.0042733713
72	0x39215490	0.00015385658
73	0x3b64d52e	0.0034917104
74	0x3c3c7275	0.011501898
75	0xbae17ac1	-0.0017202721
76	0x3c07626f	0.0082632145
77	0x3b632076	0.00346568
78	0xbb4053cd	-0.0029346824
79	0x3a8e807c	0.0010872032
80	0x3a8e0574	0.0010835365
81	0x3c254f49	0.010089704
82	0xbada812e	-0.0016670579
83	0xba3424b2	-0.0006871923
84	0x3c312759	0.010812604
85	0x3becec30	0.007230304
86	0x3ba2a83c	0.0049639028
87	0x3a84f064	0.0010142443
88	0x3bad3ebf	0.005287021
89	0xbb0c4335	-0.0021402363
90	0xbacc283d	-0.0015575957
91	0xb9ced9c9	-0.00039453644
92	0x3a9a1c75	0.0011757748
93	0x3bf43863	0.007453011
94	0xb9debbb3	-0.00042482986
95	0xbab6db75	-0.0013950901
96	0x3c8148c7	0.015781773
97	0x3bc1af64	0.005910801
98	0x3c04adbc	0.008098062
99	0x3be66697	0.0070312726
100	0x3bb5da57	0.00554971
101	0xba9fe84a	-0.0012199965
102	0xbb446eed	-0.0029973343
103	0x3931214a	0.00016892437
104	0x3ae599b8	0.0017517125
105	0xbc2438d3	-0.010023314
106	0x3bbe5d17	0.005809437
107	0xbb7f26fb	-0.0038933146
108	0xbbe711df	-0.007051691
109	0x3c142e20	0.0090442
110	0x3b35193d	0.0027633451
111	0xbb81f029	-0.003965397
112	0x3c1ca340	0.009560406
113	0xbb89d208	-0.004205946
114	0x3bc6fb00	0.006072402
115	0x3b31b9df	0.0027118844
116	0xbb12e47f	-0.0022414026
117	0xbb85e6e0	-0.0040863603
118	0xbbab3f02	-0.005226017
119	0x3bd272be	0.0064223697
120	0x3bf0e924	0.0073520113
121	0xbbab22a4	-0.0052226353
122	0xbb27dc87	-0.0025613622
123	0xbbbdd769	-0.005793501
124	0x3b9605c1	0.0045783226
125	0x3b52387a	0.003207712
126	0x3b43ac80	0.0029857457
127	0x3c1577ac	0.00912277
128	0xbb7e7cf5	-0.0038831804
129	0x3c13e1fe	0.009026049
130	0xb8ef1472	-0.00011400216
131	0xba14bb3e	-0.0005673653
132	0x3b5a4352	0.0033304286
133	0x392e79ad	0.00016639261
134	0x3a80bf28	0.0009822594
135	0x3bd4cc9e	0.006494119
136	0x3b3122c6	0.0027028783
137	0x3b52b65b	0.003215215
138	0xbc066fef	-0.008205398
139	0x3c03595b	0.0080169095
140	0xb86b034e	-5.6031444e-05
141	0x3b6574de	0.0035012285
142	0x3c0edd33	0.00871973
143	0xbab4bad8	-0.0013788594
144	0x3c809016	0.015693706
145	0x3bb943d1	0.0056538363
146	0x3b5af4ef	0.0033410152
147	0x3b19faa5	0.0023495343
148	0x3b0c7f5c	0.0021438217
149	0x3bea94bf	0.007158845
150	0xbb98b1f8	-0.0046598874
151	0x3c04e8d1	0.008112148
152	0x3b6c5c0b	0.0036065604
153	0x3933b2ad	0.00017137332
154	0x3c4955a3	0.012288484
155	0xbb46f6c3	-0.0030359484
156	0x3a0c6b67	0.00053565804
157	0x3a8cc7cc	0.0010740696
158	0x39cb53ef	0.00038781713
159	0x3b465885	0.0030265164
160	0x3a8e098c	0.0010836585
161	0x3ac6365c	0.0015122402
162	0x3a322d1b	0.00067968824
163	0xba953834	-0.0011384548
164	0x3b153b29	0.0022770858
165	0xbaef5fb3	-0.0018262774
166	0xba9e12e8	-0.0012060078
167	0x3c84e7f8	0.016223893
168	0x3b870cb6	0.0041213883
169	0xba9d7ea7	-0.0012015895
170	0x3bb04c8c	0.005380219
171	0x3b929096	0.0044728024
172	0xba4b79cb	-0.0007761984
173	0x3bb1a150	0.0054208413
174	0x3bcd14e3	0.0062585934
175	0x3c07ffa8	0.008300699
176	0x3bba804e	0.0056915646
177	0x3a11f161	0.00055672793
178	0xbadef2c8	-0.001700961
179	0x3b6099ce	0.0034271362
180	0xbaaa8587	-0.0013009765
181	0x3c2b2ca8	0.010447659
182	0x3b1639c5	0.0022922617
183	0x3b2734c0	0.002551362
184	0x3c192e55	0.009349425
185	0x3bb1e3dc	0.0054287743
186	0x3bfc2dd3	0.0076958924
187	0x3bb7c0bb	0.005607692
188	0x3c3b2bcc	0.011424016
189	0xbba5daac	-0.005061468
190	0x3ba72b20	0.0051015764
191	0x3bd619fe	0.00653386
192	0x39b6aeff	0.00034844127
193	0x3a8584bc	0.0010186653
194	0xbb73472a	-0.0037121275
195	0x3b84065c	0.0040290784
196	0xb8f06504	-0.000114629074
197	0x3b2db477	0.002650527
198	0x3bdbcfd1	0.0067081233
199	0x38156b2c	3.562418e-05
200	0x3a43ef20	0.0007474292
201	0xbbb8e2e5	-0.0056422823
202	0x39af67e1	0.00033455997
203	0x3a2e056d	0.0006638382
204	0x3b7845a2	0.0037883301
205	0x3c616ec6	0.013759321
206	0x3b0aef52	0.0021199775
207	0x3bdff8e4	0.00683509
208	0xbc3baf9b	-0.011455442
209	0x3c626b2e	0.013819499
210	0x39c0e622	0.00036792556
211	0xbbf6fed0	-0.0075377002
212	0x3b31d46e	0.0027134675
213	0x3bcc35d2	0.006232002
214	0x3bce0588	0.0062872805
215	0x3af47e48	0.0018653357
216	0xbab89470	-0.0014082324
217	0x3b1bb61e	0.0023759673
218	0xbb91feaf	-0.0044554095
219	0xba12bdd8	-0.0005597747
220	0xb86c45dc	-5.6331846e-05
221	0x3c09afed	0.00840376
222	0x3b834fd4	0.004007319
223	0x3b860619	0.0040900824
224	0xbbaf6be1	-0.0053534363
225	0x3b1b22a3	0.0023671768
226	0x3c1216a4	0.008916531
227	0x3b382a4f	0.002810139
228	0x3aaf5d1f	0.0013379193
229	0xbb9868b9	-0.004651156
230	0x3bd7eec0	0.0065897405
231	0xbc811b3b	-0.015760055
232	0xbb2d58df	-0.0026450676
233	0x3bc40d02	0.005982996
234	0x3c2c7b85	0.010527496
235	0x3b57eb03	0.0032946474
236	0xbc57e62c	-0.013177436
237	0x3bfa365c	0.0076358747
238	0x3bee312e	0.0072690463
239	0x3b0b5281	0.0021258893
240	0x3b945a4f	0.004527367
241	0x3c25bdc9	0.010116049
242	0x3beb593a	0.0071822675
243	0x3bc6c44d	0.0060658813
244	0x3c4bc15b	0.012436236
245	0x3b541660	0.003236197
246	0x3b4e509a	0.0031481148
247	0x3c610ea7	0.013736404
248	0x3b423b09	0.0029637238
249	0x3b4cd0e0	0.003125243
250	0x3b600d00	0.0034187436
251	0x3b28b85d	0.0025744655
252	0x394e5159	0.00019675995
253	0x3c1c5541	0.0095418105
254	0x39e8f879	0.00044435615
255	0x3b9353d1	0.0044960757

network_body._body_endoder.seq_layers.2.weight f4 [256, 256]
0	0xbcc8f6b5	-0.024531702
1	0xbd6bc831	-0.057563964
2	0x3d9c7464	0.07639387
3	0x3ce940e6	0.028473329
4	0xbd786171	-0.060639802
5	0xbd75fdee	-0.06005662
6	0xbd3b011e	-0.045655362
7	0x3d504043	0.050842535
8	0x3d7b0c16	0.061290823
9	0x3df525c0	0.11970091
10	0xbd92e67f	-0.0717287
11	0xbd09eefb	-0.033675175
12	0xbb8512fe	-0.004061102
13	0xbd1121b8	-0.035432547
14	0x3ca776b5	0.020442346
15	0xbd75129a	-0.059832193
16	0x3d905fe8	0.07049543
17	0x3d30c363	0.043155085
18	0xbe072f6e	-0.13201687
19	0xbe0840a0	-0.13305902
20	0x3d97c23f	0.074100964
21	0x3cbac993	0.022801196
22	0x3e0b81ee	0.13623783
23	0xbb8ab4ec	-0.0042329933
24	0x3c44fd5d	0.012023297
25	0x3b262a1b	0.0025354687
26	0xbbcaf29f	-0.0061934735
27	0x3e0cac5c	0.13737625
28	0x3c7c3297	0.015392921
29	0xbd745f02	-0.05966092
30	0x3cc40069	0.023925977
31	0xbc11bbf9	-0.008894914
32	0x3deb1d45	0.11480192
33	0x3d81c51f	0.06336426
34	0x3e052a67	0.13004456
35	0x3d258c57	0.04041704
36	0x3e0b76f7	0.136196
37	0xbde65d28	-0.11248237
38	0xbcb5e720	-0.022204936
39	0xbd3b23ed	-0.04568856
40	0x3e0e265a	0.13881817
41	0x3dfd444d	0.12366543
42	0xbd580796	-0.05274161
43	0x3b910759	0.0044259247
44	0xbc44d798	-0.012014292
45	0x3dbe5bce	0.09294854
46	0x3cf5ae3e	0.029990312
47	0xbd621072	-0.055191465
48	0x3d734400	0.05939102
49	0xbd340e27	-0.04395881
50	0x3d88d1cf	0.06680643
51	0xbd27a0dc	-0.04092489
52	0x3d3c7358	0.046008438
53	0x3c88d006	0.016700756
54	0x3d176fa2	0.036971696
55	0x3e128182	0.14307216
56	0x3c814be8	0.015783265
57	0xbc99cb4d	-0.0187737
58	0x3bec95e4	0.007220017
59	0x3dc78ebe	0.09744023
60	0x3db54998	0.088519275
61	0xbdb7fad2	-0.08983387
62	0x3d546d1e	0.051861875
63	0x3dec9f87	0.11553865
64	0xbdc79a2c	-0.09746203
65	0x3ccfdd15	0.025373975
66	0xbd73e60f	-0.059545573
67	0xbd5f2ba4	-0.05448498
68	0xbd0f345d	-0.034962047
69	0xbd83386e	-0.064072475
70	0xbd5b57e7	-0.053550627
71	0xbdafe6e4	-0.08588961
72	0x3d83d9f5	0.064380564
73	0xbdb2065b	-0.086926185
74	0xbc6f4314	-0.014603395
75	0xbd8ef98b	-0.0698119
76	0xbd67b132	-0.05656547
77	0x3ca44238	0.020051107
78	0xbd260e04	-0.04054071
79	0x3dc3eb87	0.09566408
80	0x3de81645	0.113323726
81	0x3abf6146	0.0014601133
82	0x3be758a0	0.0070601255
83	0xbc80fe60	-0.015746295
84	0xbca6cb49	-0.020360606
85	0x3d496f8e	0.049178652
86	0xbb991fee	-0.004672996
87	0x3d8a3eaf	0.06750237
88	0xbda3f5e9	-0.08005888
89	0xbcc1a1a0	-0.02363664
90	0x3c968651	0.018374594
91	0x3dc98f46	0.0984178
92	0x3d4abfbb	0.049499255
93	0xbc54b47b	-0.012982483
94	0x3dd9a135	0.10626451
95	0xbcb12a6e	-0.021626677
96	0xbc64c15f	-0.013962119
97	0x3d9f738f	0.07785713
98	0x3daabcf7	0.083368234
99	0x3dddbffc	0.10827634
100	0xbd7c00ad	-0.061524082
101	0xbc8f2ebf	-0.017478345
102	0xbd0424b4	-0.032261565
103	0x3d1163d0	0.03549558
104	0xbdd1b126	-0.102388665
105	0x3d811530	0.06302869
106	0xbbe4c9ec	-0.006982079
107	0x3db1d080	0.08682346
108	0xbdbbce79	-0.09170241
109	0x3d95eec1	0.07320929
110	0xbd10a624	-0.035314694
111	0x3e0f3cae	0.13987991
112	0x3d15db67	0.03658619
113	0x3c6ba425	0.014382397
114	0x3d088f1f	0.033339616
115	0x3dc751bc	0.097323865
116	0x3bfa85bc	0.007645337
117	0x3cfad6b9	0.030619966
118	0xbd0efbeb	-0.034908216
119	0x3d39fcc9	0.04540709
120	0xbbd8ba3f	-0.006613999
121	0x3d1a9cee	0.037747316
122	0xbc102c7d	-0.008799669
123	0x3e0bcce9	0.13652386
124	0x3c70e09c	0.014701989
125	0xbdc1eedd	-0.09469388
126	0x3d6a54e7	0.057209875
127	0xbd485661	-0.048910502
128	0x3be9dfbb	0.0071372665
129	0xbd10f327	-0.03538814
130	0xbcc5fb7f	-0.024167774
131	0x3bf278e4	0.007399665
132	0xbc3d35ee	-0.011548502
133	0xbdb7b0c1	-0.0896926
134	0x3d933a36	0.07188837
135	0xbd22f92c	-0.03978841
136	0x3d371a1e	0.04470264
137	0xbcc6526d	-0.024209226
138	0x3db88fcc	0.09011802
139	0x3c4f3b2c	0.012648385
140	0xbcf9be76	-0.030486327
141	0x3ddcfbbc	0.10790202
142	0xbc27c11a	-0.01023891
143	0x3d7a93aa	0.06117598
144	0xbd6b72ce	-0.057482533
145	0xbd84ac47	-0.06478172
146	0xbc695c72	-0.014243232
147	0xbde7785c	-0.113022536
148	0x3ceab3e3	0.02865023
149	0xbd1f576b	-0.038901728
150	0x3d4484cb	0.047978204
151	0x3d6a2814	0.057167128
152	0xbda1cfb4	-0.07900944
153	0xbdf6104c	-0.12014827
154	0x3cfacd59	0.030615496
155	0xbcce738f	-0.025201587
156	0xbcf406cc	-0.029788397
157	0x3da372e0	0.07980895
158	0xbc514e4d	-0.012775016
159	0xbd1ba115	-0.037995417
160	0xbdb08f85	-0.08621124
161	0xbafd681f	-0.0019333399
162	0x3bf4054f	0.007446922
163	0x3d674f94	0.056472376
164	0x3dac238d	0.08405218
165	0x3ceaafe4	0.028648324
166	0xbd727fca	-0.0592039
167	0x3c651e10	0.013984218
168	0xbd18595e	-0.037194602
169	0xbdf40cb2	-0.11916484
170	0xbd063e98	-0.032774538
171	0x3d939105	0.07205395
172	0x3c24f8ac	0.010069054
173	0x3c5426b8	0.012948684
174	0x3ba3afc3	0.0049953177
175	0x3d3eb507	0.04655936
176	0x3cbc2a41	0.022969367
177	0x3c3d382c	0.011549037
178	0xbdd3d990	-0.10344231
179	0x3dc0cd33	0.09414139
180	0xbd89bf6e	-0.067259654
181	0x3d8dabeb	0.069175564
182	0xbd0afb04	-0.033930793
183	0x3c80587d	0.015667195
184	0xbe014e67	-0.12627564
185	0x3dacf94f	0.08445989
186	0xbb44f90b	-0.0030055668
187	0xbd90a714	-0.070631176
188	0x3d239ee4	0.03994645
189	0x3d3f28e5	0.04666986
190	0x3d34c6ea	0.04413501
191	0xbdb2a77a	-0.0872335
192	0x3c2a2d5f	0.010386794
193	0x3ca47b9b	0.02007847
194	0x3c9ee7b2	0.01939759
195	0x3d44b656	0.04802545
196	0x3db0740e	0.08615886
197	0x3d0fb720	0.03508675
198	0xbd2d5fe9	-0.042327795
199	0x3db0dc01	0.086357124
200	0x3c21bca4	0.009871636
201	0xbc951816	-0.018199962
202	0x3d632f64	0.055465117
203	0x3cf3ef82	0.029777292
204	0x3c6e0e8d	0.014529836
205	0xbd584b25	-0.05280604
206	0x3dbd2b07	0.092367224
207	0xbd15470a	-0.0364447
208	0x3aa06505	0.0012237137
209	0xbdae0cac	-0.08498511
210	0xbe259a86	-0.16172227
211	0x3d8775af	0.06614243
212	0x3c68bdfb	0.014205451
213	0x3da08c23	0.07839229
214	0x3dbe45e5	0.09290675
215	0xbc41160a	-0.01178504
216	0x3d9a38af	0.07530343
217	0xbe7531e0	-0.23944807
218	0xbd7f9282	-0.06239558
219	0xbdb0f8f2	-0.086412326
220	0xbc8cc9f6	-0.017186146
221	0x3d6c1963	0.0576414
222	0xbd0560af	-0.032562908
223	0xbe145f09	-0.14489378
224	0xbd0484d7	-0.03235325
225	0xbcf9be38	-0.030486211
226	0x3d52e679	0.051489327
227	0x3d6c8008	0.057739288
228	0x3b999d79	0.0046879617
229	0x3c2ceac3	0.010554018
230	0xbd03a822	-0.032142766
231	0xbd28fc1a	-0.041256048
232	0xbda23479	-0.079201646
233	0xbd46d6d6	-0.048544727
234	0x3d48dc0d	0.04903798
235	0x3ca4d3a2	0.020120446
236	0x3de84041	0.113403805
237	0xbcd8c72f	-0.026462166
238	0x3e1ba3d7	0.15199219
239	0x3d928b1c	0.07155439
240	0xbcfcbb40	-0.030851007
241	0x3caf55f7	0.021403296
242	0xbd8a748d	-0.067605115
243	0x3d9ac28b	0.075566374
244	0x3d044ca2	0.032299645
245	0x3dbe2aef	0.09285533
246	0x3de677d6	0.11253326
247	0x3dd8cba3	0.105857156
248	0xbcf06ff7	-0.029350264
249	0x3c00e06d	0.007866007
250	0xbd78225b	-0.06057964
251	0xbdd0e0e3	-0.10199144
252	0x3d699425	0.057026047
253	0x3c4b9bcc	0.012427282
254	0x3d209056	0.03920015
255	0x3d22f196	0.039781176

network_body._body_endoder.seq_layers.2.bias f4 [256]
0	0xbb242f55	-0.0025052626
1	0x3ba0ff76	0.004913266
2	0x3bb36006	0.0054740934
3	0x3aa389b1	0.0012476948
4	0xbaee8b6c	-0.001819951
5	0x3abc56fb	0.0014369184
6	0x3bd07182	0.0063611874
7	0xbc03f2e2	-0.008053513
8	0x3b477698	0.0030435678
9	0x3be2d423	0.0069222613
10	0x3a89aa6a	0.0010503058
11	0x3a6477b1	0.0008715345
12	0x3b69bedc	0.003566674
13	0xbb1f93d2	-0.0024349582
14	0xbb30d3dc	-0.0026981747
15	0xba5d13f1	-0.00084334525
16	0x3b841ad0	0.0040315166
17	0x3c3a0373	0.011353361
18	0x3af9320d	0.0019012109
19	0x3b097231	0.0020972604
20	0x3aab2e67	0.0013060094
21	0x3ba79f80	0.0051154494
22	0x3b51ea57	0.0032030547
23	0xba2d0aa4	-0.0006601012
24	0x3bb2ff9b	0.0054625995
25	0xb9b734fe	-0.00034943962
26	0x3bde3bf7	0.0067820507
27	0xb9adf768	-0.00033181463
28	0x3a633679	0.000866748
29	0xb8c11b40	-9.208033e-05
30	0x3bb62e80	0.0055597425
31	0x3b3f2a73	0.0029169589
32	0x3b044a7b	0.0020185995
33	0x3afa8b64	0.0019115028
34	0x3a0635dd	0.00051197206
35	0xba403148	-0.0007331562
36	0x3b919460	0.0044427365
37	0xb9c5a24c	-0.0003769569
38	0xbbaff2f4	-0.0053695384
39	0x3b865209	0.004099135
40	0xbb8475d3	-0.004042366
41	0x3b77a87e	0.0037789638
42	0xbb82a3ea	-0.0039868252
43	0xba91c7d7	-0.0011122179
44	0xbb1fb767	-0.002437079
45	0x3bfd94df	0.007738694
46	0x3b748684	0.0037311623
47	0x3ba8ee39	0.0051553515
48	0xbad246f6	-0.0016042877
49	0x3b8ed029	0.0043583107
50	0x3bc657f5	0.0060529658
51	0x3af8931e	0.0018964743
52	0x3bc96e60	0.006147191
53	0x3be8e3f4	0.0071072523
54	0x3b29fd7f	0.002593845
55	0x3b40d9e3	0.0029426746
56	0xbbbe11e7	-0.005800474
57	0xbacf18c2	-0.0015800225
58	0x3a3ca8a0	0.0007196758
59	0xbaca9d20	-0.0015458204
60	0xbb43803d	-0.0029831075
61	0xb9a82fa4	-0.00032078952
62	0x3b2171c1	0.0024634453
63	0xba8edf4b	-0.0010900287
64	0x3b69e62c	0.0035690172
65	0x39ba0cbd	0.00035486175
66	0x3c0710ad	0.008243722
67	0x3a0349c2	0.0005008244
68	0x3b950395	0.004547546
69	0xba2a0f96	-0.0006487308
70	0x3bab9239	0.005235937
71	0x39eb5426	0.00044885388
72	0x3bf0e187	0.0073511037
73	0xba70ca61	-0.000918543
74	0xbbcf3564	-0.0063235033
75	0xb953402a	-0.00020146431
76	0x3b799117	0.0038080865
77	0x3b7068b5	0.0036683504
78	0xbbd53f49	-0.0065077883
79	0x3aec122c	0.0018010787
80	0x3b2a0297	0.0025941485
81	0x3bd4d24a	0.006494795
82	0x3ba12299	0.0049174544
83	0x3a53f528	0.00080855424
84	0xba441f34	-0.0007481456
85	0xb9ec6ee0	-0.00045096036
86	0x3bbc9e86	0.005756202
87	0xbb9c0757	-0.004761617
88	0xbb99d4f6	-0.0046945764
89	0x3ba7c730	0.0051201805
90	0xbc1e7ccc	-0.009673309
91	0x3b0ffab1	0.0021969492
92	0xbaef716d	-0.0018268056
93	0x3af7aac6	0.0018895499
94	0x3b88c538	0.004173901
95	0x3ba0f67c	0.0049121957
96	0x3bec9768	0.0072201975
97	0xbbc81738	-0.0061062835
98	0x3b1c63b1	0.0023863132
99	0xbb2b1d7b	-0.00261101
100	0x3b214125	0.002460548
101	0x3acf7777	0.001582845
102	0xb9804ea5	-0.00024472657
103	0x3c099474	0.00839721
104	0x39f3ff85	0.0004653895
105	0x3ae130f8	0.0017180732
106	0x3c08d552	0.008351641
107	0x3b5ea848	0.0033974815
108	0x3b19ff1c	0.0023498004
109	0x3bf3fad2	0.0074456716
110	0xbbc287aa	-0.0059365826
111	0x3bca5fb7	0.006175961
112	0xbbcfe75a	-0.006344718
113	0xbb1fb5ab	-0.0024369757
114	0x3bca3ac9	0.0061715585
115	0x39b47036	0.0003441588
116	0xbb1d313a	-0.002398564
117	0x3c0f0cf2	0.008731114
118	0x3a8898ff	0.0010421573
119	0x3ab9ff56	0.0014190476
120	0x3b9798aa	0.0046263533
121	0x3bf3e4eb	0.0074430606
122	0x3b89a715	0.004200826
123	0x3ab821e2	0.0014048184
124	0x3a9be4ae	0.0011893713
125	0x3bd32ea4	0.006444769
126	0xbc200177	-0.009765974
127	0x3b1c3ef2	0.002384123
128	0x3a7666a2	0.0009399449
129	0x3a071bf2	0.00051540055
130	0x390d7287	0.00013489473
131	0x3bbb0749	0.0057076556
132	0x3b21e90c	0.0024705557
133	0xbae56c71	-0.0017503632
134	0x3b238432	0.002495062
135	0xb98bbd6a	-0.0002665327
136	0x3b9a74c7	0.004713628
137	0x3c0a2e8a	0.008433947
138	0x39c87eac	0.0003824135
139	0xb8e853ca	-0.00011078229
140	0xbb120a58	-0.0022283997
141	0x3c44490f	0.011980309
142	0x3b9ad758	0.004725378
143	0x3baf12e2	0.005342827
144	0x3bc35c05	0.0059618973
145	0x3bdf8d81	0.0068222885
146	0x3b1b4b27	0.0023695917
147	0x3b6b7d56	0.003593286
148	0x3bb0725f	0.005384728
149	0x3bd0cbfc	0.006371973
150	0x3c0f21db	0.008736099
151	0x3b2b4ab7	0.0026137063
152	0x3adbee18	0.0016779331
153	0x3bd3fd7f	0.006469428
154	0xbb465bfa	-0.0030267225
155	0x3a194c1d	0.00058478286
156	0xbb3243bb	-0.0027201015
157	0xbb7bd43b	-0.003842606
158	0x3c0ad000	0.008472443
159	0x3b091d4c	0.0020922003
160	0xbaa0c9da	-0.0012267188
161	0xbaedf74f	-0.0018155369
162	0xb9f70554	-0.0004711548
163	0x3b20092e	0.0024419534
164	0x3b4c75d8	0.003119817
165	0x3b4a1d61	0.0030840265
166	0x39939579	0.0002814939
167	0x3c0eb5bb	0.00871032
168	0xb978fc51	-0.00023745118
169	0x3b49c839	0.0030789508
170	0x3b772e7e	0.003771692
171	0x391e839b	0.00015117081
172	0x3ae89eb9	0.0017747498
173	0x3aba619d	0.0014219765
174	0x3b9465e8	0.0045287497
175	0xbac827f7	-0.00152707
176	0x3adf8032	0.0017051755
177	0xba6d33f7	-0.0009048576
178	0x3c2a2742	0.010385336
179	0x3a8e63f7	0.0010863532
180	0x3b07aeb2	0.0020703492
181	0x3bbcaef4	0.0057581607
182	0x3c20a540	0.009805024
183	0xbbe66ae0	-0.0070317835
184	0x3a418a64	0.00073829875
185	0x3a8c60d0	0.0010710005
186	0x3baf5805	0.005351069
187	0xbb59fb91	-0.0033261518
188	0xbbdbbbd1	-0.006705739
189	0xbb034c3a	-0.0020034448
190	0x3b409b4c	0.002938944
191	0xbafaed00	-0.0019144118
192	0x3b602e82	0.0034207408
193	0x3b4b63f6	0.0031034923
194	0x3bdc531c	0.0067237746
195	0x3c019cc7	0.007910914
196	0x3bb85938	0.00562587
197	0x3bb08e8e	0.0053880876
198	0x3b55131c	0.003251261
199	0x3c036ef0	0.008022055
200	0xb9e448b0	-0.00043541705
201	0x3bae2f64	0.005315708
202	0x3b06cc2b	0.002056847
203	0x3bd1d8a4	0.0064039994
204	0x39d5b582	0.0004076176
205	0xbb133da0	-0.0022467151
206	0x3bb28756	0.005448262
207	0x3b9f304b	0.004858052
208	0xbaade2ed	-0.0013266482
209	0x3a76860b	0.0009404129
210	0x3c2a675f	0.010400622
211	0x3bdbf361	0.0067123626
212	0x3bd5a9a3	0.0065204664
213	0xbbd7068e	-0.0065620607
214	0x3c39faf6	0.011351338
215	0x3bedffbb	0.0072631515
216	0x3c0569f1	0.008142934
217	0xbb985742	-0.004649074
218	0xb9f8a9eb	-0.00047428845
219	0x3b4ea649	0.003153222
220	0x3b850ae9	0.0040601385
221	0xbace839b	-0.0015755774
222	0x3b59bed8	0.0033225324
223	0x3a6f4054	0.0009126712
224	0x3b479563	0.0030454032
225	0xbb6e599d	-0.0036369332
226	0x3c2dad21	0.010600359
227	0x3aae1d8b	0.0013283951
228	0xbb807483	-0.0039201393
229	0x3a1af534	0.0005911172
230	0x3be864bc	0.0070920866
231	0xbb143613	-0.0022615239
232	0xb8bf4310	-9.120081e-05
233	0x3b808def	0.00392317
234	0xbaa33fcf	-0.001245493
235	0x3b115dd0	0.002218116
236	0xbaee2f1c	-0.0018171999
237	0x3abf6b04	0.0014604037
238	0xbb98976e	-0.0046567237
239	0x3b30fc94	0.0027006017
240	0x3b1b6e28	0.0023716781
241	0x3b36d4af	0.0027897765
242	0x3b82bf1c	0.003990067
243	0xb9e3a7ea	-0.0004342192
244	0x3ba2c870	0.0049677417
245	0x3ba37652	0.00498847
246	0x3b505656	0.0031789741
247	0xbb97bb0a	-0.004630451
248	0x3b79ea55	0.0038134058
249	0xbadfc883	-0.0017073307
250	0x3b44d1ad	0.0030032203
251	0x3bacb284	0.005270304
252	0x3c290d0b	0.010318051
253	0x39fc6901	0.0004814342
254	0x3bd29624	0.0064265896
255	0x3b54356f	0.0032380482

network_body._body_endoder.seq_layers.4.weight f4 [256, 256]
0	0xbc78622f	-0.015160128
1	0x3be43ebd	0.006965487
2	0xbc0366b3	-0.008020091
3	0xbd43d26d	-0.0478081
4	0xbcfea75c	-0.031085663
5	0x3d9fdc71	0.07805718
6	0xbdaec532	-0.08533706
7	0xbd17c075	-0.037048776
8	0xbdf9f1c1	-0.12204314
9	0xbc3f2b78	-0.011668079
10	0xbdaef4f4	-0.08542815
11	0xbcba6478	-0.022752985
12	0x3dbacbc8	0.091208994
13	0xbd63577e	-0.05550336
14	0xbcc9ec4f	-0.024648814
15	0x3d804f40	0.06265116
16	0x3dd8e9aa	0.10591443
17	0x3e00412e	0.12524864
18	0x3d21e1d8	0.039522022
19	0xbc03d46d	-0.008046252
20	0xbc6612fa	-0.01404261
21	0x3caeda08	0.0213442
22	0x3c5fc727	0.013658321
23	0x3d44a54c	0.048009202
24	0x3db9b38e	0.090674505
25	0xbb7341b2	-0.0037118015
26	0xbdda428d	-0.10657225
27	0x3aa4ff55	0.0012588302
28	0x3c4044f3	0.011735189
29	0x3c45f232	0.01208167
30	0x3dcdb72c	0.10044703
31	0xbcd05ef3	-0.0254359
32	0x3db2ed30	0.08736646
33	0x3d13d6fa	0.03609369
34	0x3dba6087	0.091004424
35	0x3c44aecf	0.012004568
36	0x3d373f67	0.0447382
37	0xbcb0a7fd	-0.021564478
38	0xbd05cf27	-0.03266826
39	0xbdbc5303	-0.09195521
40	0x3e02fa8c	0.12790889
41	0x3d62e79f	0.055396672
42	0xbbee453d	-0.0072714374
43	0x3d3db906	0.04631903
44	0xbdb6df28	-0.089292824
45	0x3dd8a8cb	0.1057907
46	0xbca89d06	-0.020582687
47	0x391e8d25	0.00015120635
48	0xbe19038f	-0.14942764
49	0xbd423330	-0.047412097
50	0x3d70a27d	0.05874871
51	0xbd5c448b	-0.053776305
52	0x3d9b2c6c	0.07576832
53	0xbc0228f5	-0.007944335
54	0x3da7e532	0.081980124
55	0x3d11bac7	0.035578515
56	0x3d0f304e	0.034958176
57	0x3c8af3b4	0.01696191
58	0xbd061f8f	-0.03274494
59	0x3d0feebb	0.03513978
60	0xbbe5e541	-0.0070158546
61	0x3d29fe90	0.041502535
62	0xbd128191	-0.035768095
63	0x3da43f10	0.08019841
64	0x3bb76c04	0.0055975933
65	0x3d505fbe	0.050872557
66	0x3c2c9061	0.0105324695
67	0xbcfc5f82	-0.03080726
68	0xbc2d1a6e	-0.010565383
69	0xbd3f3672	-0.046682782
70	0xbd9cbeea	-0.076536015
71	0x3dd63083	0.104584716
72	0x3db5fbae	0.08885895
73	0xbc958092	-0.018249784
74	0xbccf7f18	-0.025329158
75	0xbd854794	-0.06507793
76	0x3c1879ba	0.009306366
77	0x3c982d8a	0.018576402
78	0x3da2ff6f	0.07958876
79	0xbd0f03db	-0.034915786
80	0xbd57039b	-0.052493673
81	0x3c3c59dc	0.0114960335
82	0x3db9abe2	0.09065987
83	0xbcb819dc	-0.022473268
84	0x3dd284cc	0.10279235
85	0x3d9868fe	0.07441901
86	0xbe05b544	-0.13057429
87	0x3d3c04e0	0.045903087
88	0x3d0007ae	0.031257324
89	0xbc6ec7bc	-0.014573988
90	0xbc746804	-0.014917377
91	0x3dae70ec	0.08517632
92	0x3d3e061d	0.04639255
93	0x3ca7f0d9	0.020500587
94	0x3ce6add6	0.028159063
95	0x3df2e124	0.118593484
96	0xbbe11517	-0.006868969
97	0xbe11ed5c	-0.14250702
98	0x3a32736a	0.0006807359
99	0x3e0dd317	0.13850056
100	0xbc1535f0	-0.009107098
101	0xbd1809d6	-0.037118755
102	0x3e1c0452	0.15236023
103	0xbdc921fc	-0.09820935
104	0xbdc1c0e3	-0.09460618
105	0x3d9382ec	0.07202706
106	0x3bdb4b1e	0.0066923043
107	0x3d6a6c43	0.057232153
108	0xbd89eca7	-0.06734591
109	0xbb9a793c	-0.0047141593
110	0x3d85ce2e	0.06533466
111	0xbc96685e	-0.018360313
112	0xbce9f19a	-0.028557587
113	0xbd26646e	-0.04062312
114	0x3d425a3a	0.047449328
115	0xbce6133a	-0.02808534
116	0xbb2314ad	-0.002488415
117	0xbd0690d3	-0.03285296
118	0x3dd68290	0.104741216
119	0xbd42ebc0	-0.04758811
120	0x3c99489b	0.018711379
121	0x3cef9ad1	0.029248627
122	0x3d4291df	0.047502395
123	0xbbfbe6a0	-0.0076874048
124	0xbc1dcf8a	-0.009632001
125	0x3e08dcf7	0.13365541
126	0x3d4fc06f	0.05072063
127	0xbdc8ae31	-0.097988494
128	0xbc62ee06	-0.0138506945
129	0x3bc190a2	0.005907134
130	0x3c572cac	0.013133209
131	0xbd713ca9	-0.05889574
132	0xbdf12494	-0.11774555
133	0x3cdd7fda	0.027038503
134	0x3cb365fa	0.021899212
135	0x3cc39195	0.02387313
136	0xbd31d610	-0.043417037
137	0xbc8d553f	-0.017252563
138	0xbdfb8f40	-0.12283182
139	0x3ce42045	0.027847419
140	0x3cca2930	0.024677843
141	0x3c74dc00	0.01494503
142	0xbdbf9fce	-0.09356652
143	0x3b5372b1	0.0032264406
144	0x3cbd10ce	0.023079302
145	0x3c1fe979	0.009760254
146	0xbd8779a6	-0.066149995
147	0xbc9aaa83	-0.018880134
148	0x3d55e6de	0.052222125
149	0xbd5d07bb	-0.05396245
150	0xbd69d61c	-0.057088956
151	0x3d192d16	0.037396513
152	0x3d3b78f6	0.045769654
153	0x3c9b0c71	0.018926831
154	0x3c89c5bd	0.016817922
155	0x3cc4af46	0.024009358
156	0x3ccbe938	0.02489148
157	0xbd294936	-0.041329585
158	0x3d5db73b	0.05412982
159	0x3d7295e7	0.05922499
160	0x3d77300d	0.06034856
161	0xbc115430	-0.0088701695
162	0x3bc2a6f1	0.005940311
163	0x3d4465cb	0.04794864
164	0xbc99f59c	-0.018793873
165	0xbd08a6a5	-0.03336205
166	0xbceb6dfd	-0.02873897
167	0xbcec84a8	-0.02887185
168	0x3bce1183	0.0062887087
169	0x3c4faac7	0.012674994
170	0x3d9f996c	0.07792935
171	0x3cb3ca39	0.021947013
172	0x3d0ef602	0.03490258
173	0xbdb3c916	-0.087785885
174	0xbc507ed0	-0.012725547
175	0x3bf74306	0.0075458316
176	0x3bef5e21	0.007304922
177	0xbbfa172f	-0.007632158
178	0xbc219a7c	-0.009863492
179	0xbc94b2e3	-0.018151706
180	0xbcd207c7	-0.025638474
181	0x3d84ff59	0.06494016
182	0xbc8c31dd	-0.01711362
183	0xbce433bf	-0.027856706
184	0x3def2d69	0.11678583
185	0xbd705245	-0.05867221
186	0x3e0c52ac	0.13703412
187	0xbd6f75a7	-0.05846181
188	0x3c0628c5	0.008188431
189	0x3d1ad92c	0.037804767
190	0x3d1520e1	0.03640831
191	0x3c942944	0.018086083
192	0x3d0c6d43	0.034283888
193	0xbd1fe915	-0.039040644
194	0xbe022b68	-0.1271187
195	0xbd52ee0d	-0.051496554
196	0x3cc529ef	0.024067847
197	0x3da409e1	0.08009697
198	0xbcf207c2	-0.029544715
199	0xbdbafae8	-0.09129888
200	0x3df70e27	0.12063246
201	0x3da5fb32	0.08104552
202	0xbdb78ff7	-0.08963006
203	0x39c66aac	0.0003784498
204	0xbd5beae2	-0.0536908
205	0x3d96472a	0.07337792
206	0xbc4c1a99	-0.012457513
207	0xbc89f082	-0.016838316
208	0x3cbe69c2	0.023243789
209	0xbd86582d	-0.06559787
210	0xbdb5a1df	-0.08868765
211	0xbdca3b5f	-0.098746054
212	0x3d86bde0	0.065791845
213	0xbd80d92f	-0.062914245
214	0x3dfff717	0.124983005
215	0x3c5f9cf6	0.013648262
216	0xbbbe76b0	-0.0058124885
217	0xbd61c3d5	-0.0551184
218	0x3de9d5fb	0.11417767
219	0xbda5aa4d	-0.08089123
220	0xbd107266	-0.03526535
221	0xbd8e1b24	-0.069387704
222	0x3d08da93	0.033411574
223	0xbd388b18	-0.045054525
224	0xbd8c33a6	-0.06845789
225	0xbdbe49d2	-0.09291424
226	0xbc448d7e	-0.011996625
227	0x3cd129ae	0.02553257
228	0xbd669cd9	-0.056301925
229	0xbd093d66	-0.03350582
230	0xbd0bc3dc	-0.034122333
231	0xbc7ce570	-0.015435562
232	0x3d066274	0.032808736
233	0xbd86f048	-0.06588799
234	0x3e234e0c	0.15947741
235	0x3d326124	0.04354967
236	0x3da0182a	0.07817109
237	0x3c79b03f	0.015239774
238	0x3af4f7ca	0.001868957
239	0xbc66d834	-0.014089633
240	0xbcba696a	-0.022755343
241	0xbd9ae400	-0.07563019
242	0x3e0b87de	0.13626048
243	0xbd665e26	-0.05624213
244	0x3e40031b	0.18751185
245	0xbc918b87	-0.017766727
246	0x3dda189f	0.10649227
247	0x3e03db9b	0.12876742
248	0x3d1b4623	0.037908684
249	0x3d81be5a	0.06335135
250	0xbcae31a2	-0.021263901
251	0x3d80e6ab	0.062939964
252	0xbbd60466	-0.006531286
253	0xbcae2986	-0.021260034
254	0x3e09f887	0.13473712
255	0xbd84efbb	-0.064910375

network_body._body_endoder.seq_layers.4.bias f4 [256]
0	0x3abc277c	0.0014355029
1	0x3bfe10ee	0.007753483
2	0x3ab9dfc8	0.0014181072
3	0x3bbd0ada	0.005769116
4	0x3b33add0	0.0027416833
5	0xbb196f7c	-0.0023412397
6	0x3b5d9d53	0.0033815696
7	0xb9c2506c	-0.00037062482
8	0x3b912e12	0.004430541
9	0x3a8709b4	0.0010302574
10	0x3bcb1c5f	0.0061984505
11	0x3be5a727	0.0070084515
12	0x3b8f0aeb	0.004365315
13	0xbb55eb8b	-0.0032641615
14	0xbb1fc591	-0.0024379233
15	0x39b4ec54	0.00034508354
16	0x3b240d54	0.0025032358
17	0x3a28dfa1	0.0006442015
18	0x3ad36581	0.0016128273
19	0x3addc65f	0.0016920081
20	0x3b364080	0.002780944
21	0x3a5007bf	0.00079357246
22	0x3b79a9f6	0.003809569
23	0x3a989c88	0.001164333
24	0x3b3d1a4c	0.0028854785
25	0x3b9a4a60	0.004708573
26	0x3a1f5970	0.0006078696
27	0xba55fcd8	-0.0008162982
28	0xb9d76eaa	-0.00041090447
29	0x3b96c376	0.0046009375
30	0x3b06cc4a	0.0020568543
31	0x3c0c3760	0.008558124
32	0x3b57783a	0.0032878057
33	0x3b8ac306	0.0042346744
34	0x3b880622	0.0041511217
35	0x3ba5d12e	0.0050603366
36	0xb9ebd7d3	-0.00044983494
37	0x3b8b2540	0.004246384
38	0x3b421098	0.0029611941
39	0x3a2eb08b	0.000666388
40	0x3b2e1378	0.0026561897
41	0x3af73580	0.0018860549
42	0x3b891f7e	0.0041846624
43	0x3b7637a6	0.003756979
44	0x3abdd1bc	0.0014482061
45	0x3c106c4d	0.008814883
46	0x3add202b	0.0016870549
47	0xbb0b7cf3	-0.0021284192
48	0x3b94a530	0.0045362934
49	0x3b1cf215	0.0023948003
50	0x3c10146f	0.008793934
51	0x3bbe63db	0.0058102435
52	0xbac9ed8e	-0.001540588
53	0x3bc1022b	0.005890151
54	0x3b19dafe	0.0023476477
55	0x3b3dfd37	0.002899004
56	0x39e7e909	0.00044233378
57	0x3bd0f63b	0.006377009
58	0x3aaf8e29	0.0013393807
59	0x3b09131a	0.0020915926
60	0x3a3aecf8	0.0007130648
61	0x3a2438c2	0.0006264561
62	0xb912c445	-0.00013996761
63	0x3a5f918f	0.0008528465
64	0x3b74843b	0.003731026
65	0x3a1f975b	0.00060879224
66	0x3b7c9c2e	0.0038545239
67	0x3a654627	0.000874611
68	0x3b46d18b	0.00303373
69	0x3b885e28	0.004161615
70	0x3adeb643	0.0016991574
71	0x3b771d30	0.0037706606
72	0x3bb25dbb	0.0054433024
73	0x3af82b16	0.0018933739
74	0x3bcb1f60	0.0061988086
75	0x3b082603	0.002077461
76	0x3a53cb0e	0.0008079269
77	0x3b858955	0.004075209
78	0x38cb2dbd	9.688314e-05
79	0x3ac2b2d5	0.0014854321
80	0x3abb60fc	0.0014295871
81	0x3ae71551	0.0017630254
82	0x3722de2e	9.707683e-06
83	0x3a8a1482	0.0010534676
84	0x3b9bbf88	0.004753057
85	0x3b9eef21	0.0048502837
86	0xbb0e45d8	-0.002170911
87	0xb93de330	-0.00018109079
88	0x3b243f91	0.0025062303
89	0x3b6f9aba	0.003656073
90	0x3b2d9273	0.0026484996
91	0x3b4e5ca9	0.0031488335
92	0xb9126639	-0.00013961726
93	0xb940a843	-0.00018373229
94	0x3a9f69bc	0.0012162249
95	0x3b47917c	0.0030451706
96	0xbb11e295	-0.0022260298
97	0xbb040fb5	-0.0020150964
98	0xbb53d1c5	-0.0032321077
99	0x3c4e20ec	0.012581091
100	0xbaec9e5c	-0.0018052566
101	0x3a4778d4	0.00076092524
102	0x3afb3dc0	0.0019168183
103	0xba950004	-0.0011367803
104	0xbba03d23	-0.0048901006
105	0x3b812f22	0.0039423862
106	0x39457520	0.00018831016
107	0x3b78d28e	0.0037967297
108	0x3a8915e9	0.00104588
109	0xbb60be38	-0.0034293067
110	0x3b887b90	0.0041651204
111	0x3a623a38	0.0008629891
112	0x3bd3bf11	0.006461986
113	0xb999573f	-0.00029247437
114	0xba97bf1b	-0.001157734
115	0x3ba672b7	0.005079593
116	0xb9be6ea7	-0.00036322066
117	0x3b8bb74a	0.004263793
118	0x3a8c2346	0.0010691665
119	0x3ac735ca	0.0015198526
120	0x3bd8375b	0.0065983958
121	0x3b4e7454	0.0031502442
122	0x3adaf2d6	0.0016704451
123	0x3b7379a0	0.0037151352
124	0x3b5029f3	0.0031763285
125	0x3b52b491	0.0032151083
126	0x39b3567a	0.0003420597
127	0x3a197487	0.0005853851
128	0x3b6c4f99	0.0036058186
129	0x3b31834d	0.0027086318
130	0x3b5f0ec0	0.0034035891
131	0x3b1aca80	0.0023619235
132	0x3b6e76b3	0.0036386668
133	0x3aa2ca5c	0.0012419927
134	0x3bc78f83	0.006090106
135	0xbb2dbd01	-0.002651036
136	0x3b42ccd3	0.0029724136
137	0x3b716660	0.0036834702
138	0xba5258ca	-0.0008024095
139	0x3b94dfa6	0.0045432625
140	0xbab1c863	-0.0013563748
141	0x3b81b113	0.0039578765
142	0x3c1251d0	0.008930638
143	0x3b20efde	0.0024557034
144	0x3b73e68c	0.0037216274
145	0x3b795d0f	0.0038049852
146	0x3b823ffc	0.0039749127
147	0x3b19c167	0.0023461224
148	0x3ad8d763	0.0016543682
149	0xba9ad534	-0.0011812807
150	0x3a166ade	0.00057379704
151	0x3be033f7	0.006842132
152	0x39de3a4a	0.00042386568
153	0x39e1a2c5	0.00043036617
154	0x39d6357e	0.00040857116
155	0x3b746730	0.003729295
156	0x3952cf98	0.00020104495
157	0x3b09afcc	0.0021009324
158	0x3bc1669f	0.005902126
159	0x3a5b09fa	0.00083556736
160	0x3b813c11	0.003943928
161	0x3a6d91a2	0.00090625335
162	0x3b3d0020	0.0028839186
163	0x3bb6bf1f	0.0055769826
164	0x3ba84c16	0.0051360233
165	0x39136dbc	0.00014059892
166	0x3b762f9e	0.0037565003
167	0x3ab015c8	0.0013434226
168	0x3b8e1185	0.0043355846
169	0xb9c81677	-0.0003816371
170	0x3be9ef7a	0.0071391435
171	0x3b8909c1	0.004182071
172	0x3a7c874b	0.00096331973
173	0x3bc3e12a	0.0059777694
174	0x3b4e9b0e	0.0031525525
175	0x392a3bea	0.00016234783
176	0x3b76e10c	0.003767076
177	0x3b7da3c0	0.003870234
178	0x3919b0a9	0.00014657028
179	0x39512346	0.00019944934
180	0x3b6ed530	0.0036442988
181	0x3a9857b2	0.0011622815
182	0xba720c0d	-0.0009233363
183	0x391d340e	0.00014992079
184	0x3aca94de	0.0015455743
185	0xba89dd8d	-0.0010518298
186	0x39df77cf	0.0004262314
187	0x3c0d67be	0.008630691
188	0xb9a9ae09	-0.00032363858
189	0x39cca393	0.00039031784
190	0x3bc549ad	0.0060207457
191	0xba173019	-0.000576736
192	0xba334279	-0.00068382133
193	0x3b3d6918	0.0028901752
194	0x3a934f42	0.0011238831
195	0x3a077516	0.00051672885
196	0xbb0d0926	-0.0021520345
197	0x3ba2f4b9	0.004973021
198	0x39740645	0.00023271989
199	0x3b24178c	0.002503845
200	0x3b8a7e7e	0.004226505
201	0x3a579725	0.00082241214
202	0x3b433786	0.0029787733
203	0x3bde6d44	0.006787928
204	0x3aa36791	0.0012466778
205	0xbb387a04	-0.00281489
206	0x3b958483	0.004562916
207	0x3a692e7a	0.000889517
208	0xbb2e4b3d	-0.0026595138
209	0x3b99013a	0.0046693357
210	0x3bcddd2b	0.006282469
211	0x3a963c3b	0.0011462042
212	0x3bc977cb	0.0061483136
213	0x3b895a8f	0.0041917036
214	0x3ba9e2a2	0.0051844874
215	0xbb3ca2c4	-0.002878354
216	0x3b0b402e	0.002124797
217	0x3bacca6c	0.005273154
218	0xba2755b6	-0.00063833164
219	0xbabaef90	-0.0014262069
220	0x3b31b9e8	0.0027118865
221	0x3b161021	0.0022897797
222	0x3b51575c	0.003194294
223	0x3b241684	0.0025037834
224	0x3bee04c7	0.007263753
225	0x3b261d68	0.0025347117
226	0x3b8e225c	0.004337592
227	0x3bef3472	0.007299953
228	0x3b6f505f	0.003651641
229	0x3ade8430	0.0016976651
230	0x3aab955b	0.0013090776
231	0xba516b04	-0.0007988664
232	0x3b37f644	0.002807037
233	0x3b2c98f5	0.0026336287
234	0x3aa2b981	0.0012414904
235	0x3b27f75d	0.0025629618
236	0xbad46061	-0.001620304
237	0x3b82c9b8	0.003991332
238	0x3ba93662	0.0051639536
239	0x3b8d6ad6	0.0043157144
240	0x3b77ea3a	0.003782882
241	0x3b56130b	0.003266516
242	0x3b880d04	0.004151942
243	0x39a780af	0.000319486
244	0x3ba021a6	0.0048868237
245	0xb931d7fa	-0.00016960493
246	0x393c0ca8	0.00017933792
247	0xb906ca00	-0.00012854487
248	0xbb3b2590	-0.0028556325
249	0xbb5ee652	-0.0034011793
250	0x3b892334	0.0041851047
251	0x3b167751	0.0022959302
252	0x3b430977	0.002976028
253	0x3b5e0d93	0.0033882603
254	0x3b3859b3	0.0028129637
255	0x3aeb424d	0.0017948836

action_model._continuous_distribution.log_sigma f4 [1, 2]
0	0xbcf13899	-0.029445933
1	0x3901b47e	0.00012369637

action_model._continuous_distribution.mu.weight f4 [2, 256]
0	0xbcf87b2c	-0.03033217
1	0x3ccf7283	0.025323158
2	0xbc3ce069	-0.011528113
3	0xbb129bee	-0.0022370773
4	0xbc0a6e5c	-0.008449163
5	0xbb320265	-0.0027162072
6	0x3b647755	0.0034861166
7	0xb9aa3911	-0.00032467445
8	0x3c3e53d6	0.011616668
9	0x3c981ff2	0.01856992
10	0x3ca4ded4	0.020125784
11	0x3cf3cf17	0.029761834
12	0x3d192b32	0.03739471
13	0x3c27b0bd	0.010235009
14	0xbc35c258	-0.011093698
15	0x3c59af85	0.013286476
16	0xbc909a3a	-0.017651666
17	0x39f4c39a	0.0004668504
18	0x3cbeaf6d	0.023277009
19	0x3ca14808	0.019687667
20	0x3caf5f2c	0.021407686
21	0x3c89bfa7	0.01681502
22	0xbd0b2c17	-0.033977594
23	0x3cb7c1cb	0.022431275
24	0x3cda6c63	0.026663011
25	0x3cef9ba8	0.029249027
26	0x3ac31b88	0.0014885524
27	0x3c2edc2f	0.010672613
28	0xbb87c7b8	-0.0041436814
29	0x3cf32415	0.029680291
30	0x3cdde924	0.02708871
31	0x3c39a147	0.011329955
32	0x3cd46615	0.025927583
33	0x3c919450	0.017770916
34	0x3d2789f4	0.040903047
35	0xbc9ab906	-0.018887054
36	0xbc4f2539	-0.012643152
37	0xbcc2db0c	-0.02378609
38	0xbd27e87d	-0.040993202
39	0xbd46d64c	-0.048544213
40	0xbb99811a	-0.0046845796
41	0xbc5a85be	-0.013337551
42	0x3cd9c0a9	0.026581125
43	0x3c2dfef8	0.010619871
44	0x3c7df42f	0.015500112
45	0xbc5fe1ab	-0.013664643
46	0x3c75e4a7	0.015008128
47	0x3b15ca6a	0.0022856244
48	0x3cb1d5e7	0.021708442
49	0x3c1d4742	0.009599509
50	0x3c123e85	0.008926039
51	0x3d01c08e	0.031677775
52	0xbc4eca51	-0.012621478
53	0xba201f17	-0.00061081484
54	0x3cbbe5db	0.022936752
55	0x3c723080	0.014782071
56	0xbd138d0e	-0.036023192
57	0xbba89edb	-0.00514589
58	0x3c7b85c7	0.015351719
59	0x3c8be934	0.017078973
60	0xbca5b608	-0.0202284
61	0x3a3460bb	0.0006880869
62	0x3cdceae4	0.026967473
63	0x3b82e7b0	0.0039949045
64	0xbcddd980	-0.027081251
65	0x3b88a880	0.0041704774
66	0xbc70378d	-0.014661682
67	0xbd367775	-0.044547517
68	0x3cbc0256	0.022950333
69	0x3d1f2ef7	0.03886315
70	0xbcfeb56e	-0.031092372
71	0x3ba48dfa	0.0050218077
72	0x3c89e91d	0.01683479
73	0xbcbf5f2a	-0.023360807
74	0x3d4dccbc	0.050244078
75	0x3c7c68e9	0.015405872
76	0xbca96c56	-0.020681541
77	0x3cf93529	0.030420857
78	0xbcae9a6e	-0.021313872
79	0x3cd85113	0.026405847
80	0xbce01043	-0.027351504
81	0xbc8fca5f	-0.017552553
82	0xbc895400	-0.016763687
83	0x3c24fb33	0.010069656
84	0x3b753fe5	0.0037422117
85	0xbd0fef2f	-0.035140213
86	0xbb521d85	-0.0032061052
87	0xbbf7df9c	-0.007564498
88	0xbb1a2c1b	-0.0023524824
89	0xbb8c5c4e	-0.0042834645
90	0x3d308747	0.04309776
91	0x3ae55415	0.0017496372
92	0xbbf50b1f	-0.0074781324
93	0x3b07aa70	0.0020700954
94	0x3cee6f2d	0.029105747
95	0x3c9fe8f3	0.019520259
96	0x3a1b39d5	0.00059213984
97	0xbb936219	-0.004497778
98	0x3c546c9c	0.012965348
99	0x3b1bcfb8	0.0023774933
100	0x3bb282e4	0.0054477323
101	0xbcdbd24e	-0.02683368
102	0x3c017d98	0.007903479
103	0xbb72d7f3	-0.0037054985
104	0xb9676df5	-0.00022070839
105	0xbd14bf94	-0.036315516
106	0x3b0a22a2	0.0021077772
107	0xbd47cede	-0.04878127
108	0x3d392f20	0.045210958
109	0xbca26c59	-0.019827055
110	0x3d50b3d0	0.050952733
111	0x3b4b3274	0.0031005414
112	0x3cc8d27a	0.024514426
113	0x3bd6bf75	0.006553585
114	0xbc84450c	-0.016146205
115	0x3bc60a80	0.006043732
116	0x3a91dc7f	0.0011128335
117	0xbc5741ba	-0.013138229
118	0xbc91c574	-0.017794348
119	0x39e11ec2	0.0004293826
120	0x3c22b7f7	0.009931556
121	0xbc97e58a	-0.01854207
122	0xbc88d904	-0.016705044
123	0xbc74e744	-0.014947716
124	0xbbde9bdd	-0.0067934827
125	0xbbb13bb8	-0.0054087304
126	0x3c07078a	0.008241544
127	0xbd01f7d1	-0.031730477
128	0xbcaf26f9	-0.021380888
129	0xbcc6ba82	-0.024258856
130	0x3d1e6727	0.038672592
131	0x3cba6ca8	0.02275689
132	0xbcbba7eb	-0.022907218
133	0xbcaa1517	-0.02076201
134	0x3c444bc2	0.011980953
135	0xbc38e3e0	-0.011284798
136	0xbc665acc	-0.014059734
137	0x3cf90b58	0.030400917
138	0xbb77f763	-0.0037836663
139	0x3c7ee56d	0.015557629
140	0x3afc9048	0.0019269073
141	0xbc49d481	-0.012318731
142	0xbbf2e389	-0.007412378
143	0xbd34a77a	-0.04410503
144	0xbcb8f865	-0.022579381
145	0xbbdd2b84	-0.006749572
146	0x3d23a7dc	0.039955005
147	0x3ca4d5b7	0.020121438
148	0xbcc849a4	-0.024449177
149	0x3c2fc741	0.010728658
150	0xba7a3bd9	-0.0009545661
151	0x3c21fcb7	0.009886912
152	0xbce3ce7a	-0.027808417
153	0xbc03e08c	-0.008049142
154	0x3b71ec0d	0.003691438
155	0xbd3cb95d	-0.046075214
156	0x3bc2f5f8	0.005949732
157	0xbca7ed29	-0.020498829
158	0x3c4e1696	0.012578627
159	0x3caca4f8	0.021074757
160	0x3c9f31a4	0.01943285
161	0x3c133584	0.008984927
162	0xbc13643d	-0.008996067
163	0x3d347172	0.044053502
164	0xbd1714af	-0.03688496
165	0xba130992	-0.0005609031
166	0xbbf5faf3	-0.007506722
167	0xbbe0d898	-0.0068617575
168	0x3bf29aed	0.0074037225
169	0xbc2bd73e	-0.010488329
170	0x3c9849b0	0.018589824
171	0x3b5bd716	0.003354495
172	0x3c232d36	0.00995951
173	0xbca8df17	-0.02061419
174	0xbbe330fe	-0.0069333306
175	0x3bec64da	0.007214171
176	0xbc907673	-0.017634606
177	0xbd009e8b	-0.0314012
178	0x3a90cf42	0.0011048096
179	0xbcd63888	-0.026150003
180	0x3c3b0a61	0.011416049
181	0x3cbbd920	0.022930682
182	0x3c693fc8	0.014236398
183	0xbc550b5c	-0.013003197
184	0xbb4af667	-0.003096962
185	0xbc06484a	-0.008195946
186	0xbcd71a32	-0.026257608
187	0xb9f2fa0e	-0.00046344142
188	0x3cdee2ce	0.027207758
189	0x3b0d6168	0.0021572951
190	0xbd0f0ea4	-0.03492607
191	0xbb0e2982	-0.002169222
192	0xbbf14430	-0.007362865
193	0xbd37ce27	-0.044874337
194	0x3c5e418a	0.01356543
195	0xb885f298	-6.387121e-05
196	0xbcaa4e06	-0.020789158
197	0x3bf8f3c9	0.007597421
198	0x3bd4722d	0.0064833374
199	0x3b71c358	0.0036890116
200	0x3c2edecc	0.010673236
201	0x3a9091dc	0.0011029798
202	0xbc1b9d67	-0.009497977
203	0xba8d0aae	-0.0010760629
204	0xbc13c8f4	-0.009020079
205	0x3c0ac53d	0.008469877
206	0x3bf913de	0.0076012453
207	0xbc6207eb	-0.013795833
208	0xbc4f800d	-0.012664807
209	0xbd1632bc	-0.036669478
210	0x3d2310a5	0.039810795
211	0x3c121b29	0.008917608
212	0x3cc646d7	0.024203701
213	0x3c595576	0.013265004
214	0xbaef4d7e	-0.0018257347
215	0xbc995a7c	-0.018719904
216	0x3ca4f20a	0.020134944
217	0x3cc2b21c	0.02376657
218	0xbc962f0d	-0.018332982
219	0x3aaba608	0.0013095746
220	0xbd1baeb8	-0.03800842
221	0x3cbf13d0	0.023324877
222	0xbbbe6e42	-0.0058114836
223	0xbc0f51ef	-0.008747562
224	0xbb51f5e8	-0.003203744
225	0xbb9cbe84	-0.0047834534
226	0xbc0cf773	-0.008603918
227	0xbc77bad3	-0.015120226
228	0xbcef8fcb	-0.02924337
229	0xbc231f1d	-0.009956148
230	0xbcb68621	-0.022280755
231	0xbc749b34	-0.014929581
232	0xbcd90d00	-0.026495457
233	0x3c3e818c	0.011627566
234	0xbc4944b1	-0.012284444
235	0x3c69c8bf	0.014269053
236	0x3c702489	0.014657148
237	0x3cbebf39	0.023284541
238	0xbc50caf3	-0.012743699
239	0xbd2b6b22	-0.041850217
240	0xbd3f5fae	-0.046722107
241	0xbc18994d	-0.0093138935
242	0x3ce1d83f	0.027568934
243	0x3c260e5d	0.01013526
244	0x3d0ebd25	0.03484835
245	0xbcc9f7b3	-0.024654245
246	0x3c86057d	0.016360039
247	0x3c83ed36	0.016104322
248	0xbc12b953	-0.008955318
249	0x3acabfc3	0.0015468526
250	0xbbcbfede	-0.006225451
251	0xba070c22	-0.0005151649
252	0xbb15b87a	-0.0022845552
253	0x3ccebf1c	0.025237612
254	0xbc865407	-0.01639749
255	0x3d101df0	0.0351848

action_model._continuous_distribution.mu.bias f4 [2]
0	0x3a63b359	0.00086860877
1	0x3b231a00	0.0024887323
