results/valami/AgentController/AgentController-6687.pt (torch, 276571 bytes, 14 tensors)

network_body._body_endoder.seq_layers.0.weight f4 [128, 128]
0	0xbdcfec30	-0.10152471
1	0xbe17988b	-0.14804284
2	0x3d8dc0d7	0.06921547
3	0x3e451128	0.19244826
4	0x3e34e097	0.17663799
5	0xbd9e56b2	-0.077313796
6	0xbde05576	-0.109538004
7	0x3d9f0a5b	0.07765647
8	0x3e0676d4	0.13131267
9	0xbc12d4d7	-0.008961878
10	0x3c6a828c	0.014313351
11	0xbd81502e	-0.06314121
12	0x3cd18505	0.025576124
13	0x3e99b004	0.30017102
14	0xbcd25bbb	-0.025678506
15	0xbd51031a	-0.05102835
16	0x3d638c80	0.055553913
17	0xbe518334	-0.20460206
18	0xbcaa0189	-0.020752685
19	0xbc088a11	-0.008333699
20	0xbddbfbaa	-0.107413605
21	0x3d589923	0.052880418
22	0xbdf1537a	-0.117835
23	0x3e186584	0.14882475
24	0xbdde6396	-0.10858838
25	0xbc1b0b71	-0.009463177
26	0xbd094e13	-0.033521723
27	0xbdb5f0c9	-0.08883817
28	0x3e0d9fb3	0.13830452
29	0xbbabecb5	-0.0052467235
30	0xbc5b62ef	-0.013390287
31	0x3d370d18	0.04469022
32	0xbc66cb32	-0.0140865315
33	0x3d581c22	0.052761205
34	0xbdb92aa7	-0.090413384
35	0x3d485947	0.048913267
36	0xbdfa6216	-0.1222574
37	0xbcd9504d	-0.026527548
38	0xbc419dc4	-0.011817399
39	0x3e184d83	0.14873318
40	0x3bae2e33	0.005315566
41	0x3c0f8b6c	0.008761268
42	0x3cc9d515	0.024637738
43	0xbc923159	-0.017845796
44	0x3d3935e4	0.04521741
45	0xbc4f7b4b	-0.012663673
46	0xbdb636e6	-0.0889719
47	0xbde8d394	-0.1136848
48	0x3ca9ae49	0.020712988
49	0x3d67617d	0.056489456
50	0x3dccbb27	0.09996634
51	0x3e40c728	0.18825972
52	0xbd4cd9eb	-0.05001251
53	0x3b8a206e	0.0042152917
54	0x3dbbaa1f	0.091633074
55	0xbe023a06	-0.12717447
56	0xbc6640b9	-0.014053517
57	0x3cf69230	0.030099005
58	0xbda7524d	-0.081699945
59	0xbe162b3d	-0.14664932
60	0x3d8565c9	0.065135546
61	0xbdf30350	-0.11865866
62	0xbc252ddd	-0.010081735
63	0x3cd67924	0.026180811
64	0xbde10fbc	-0.10989329
65	0xbd468655	-0.048467953
66	0xbd850f6b	-0.06497081
67	0xbe0ef809	-0.13961805
68	0xbd0fef91	-0.035140578
69	0x3cf77af4	0.030209996
70	0x3e01a947	0.1266223
71	0x3d17cbe7	0.03705969
72	0x3d40eb90	0.04709965
73	0xbd9cf749	-0.076643534
74	0x3b175431	0.0023090953
75	0x3e3f8bb2	0.18705633
76	0xbe407888	-0.18795979
77	0x3b7c0451	0.0038454721
78	0x3d4813b7	0.048846927
79	0x3dac5037	0.08413737
80	0x3d0c6b41	0.034281973
81	0xbd9ebdcf	-0.07751047
82	0xbc6be9e7	-0.014399028
83	0x3df18f60	0.11794925
84	0xbc949a55	-0.018139997
85	0xbc076eec	-0.008266192
86	0x3e0a451a	0.13502923
87	0x3e86434e	0.26223224
88	0x3e081aca	0.13291469
89	0xbe016f8c	-0.12640208
90	0xbdc6697d	-0.09688089
91	0xbc9a978e	-0.018871095
92	0xbdc400f8	-0.09570497
93	0x3dcdd594	0.100505024
94	0x3c225209	0.009907254
95	0x3d6221a9	0.055207882
96	0x3ca04651	0.01956478
97	0x3d82afc7	0.06381183
98	0xbde5a3f8	-0.11212915
99	0xbe04da72	-0.12973955
100	0xbd8ac0db	-0.067750655
101	0xbd97aab9	-0.0740561
102	0xba4b2c3d	-0.00077504275
103	0x3cc3a813	0.023883855
104	0x3e0eae3a	0.1393365
105	0x3c7fe34f	0.015618159
106	0x3e78bbf8	0.24290454
107	0xbd607415	-0.054798204
108	0x3d6ed8fb	0.058312397
109	0x3dc585ca	0.09644659
110	0xbdbabe35	-0.0911831
111	0xbe2216cf	-0.15829013
112	0x3cdeb2a5	0.027184794
113	0x3d84f8b3	0.06492748
114	0x3d0fcf39	0.035109732
115	0x3dc521b2	0.096255675
116	0x3da2a60f	0.079418294
117	0xbdc0b3e8	-0.094093144
118	0x3dfc6c29	0.123253174
119	0xbd124818	-0.035713285
120	0xbc366bd4	-0.011134107
121	0x3ddb8cc7	0.107202105
122	0xbc86a727	-0.016437126
123	0xbdc3d3fc	-0.09561917
124	0xbd9c4783	-0.07630827
125	0xbdd99b29	-0.106252976
126	0x3e239f46	0.15978727
127	0x3bbd9153	0.0057851463
128	0x3ccd89fa	0.025090206
129	0x3d25473c	0.040351138
130	0xbd3274ca	-0.04356841
131	0xb9d5d8dd	-0.00040788102
132	0x3e079de2	0.13243821
133	0xbe2f9c13	-0.17149381
134	0x3d1d278f	0.038367804
135	0xbd84828c	-0.06470212
136	0xbda2b12f	-0.07943951
137	0xbc9b4b08	-0.018956676
138	0x3cbc939b	0.023019603
139	0x3d2b41d5	0.04181083
140	0x3dbead1b	0.09310361
141	0x3c5f3bd0	0.0136251
142	0xbc8db996	-0.017300408
143	0xbe39d14a	-0.18146244
144	0x3df9dda8	0.12200481
145	0xbcf454cb	-0.029825589
146	0xbd8dc591	-0.069224484
147	0x3d9103ce	0.07080804
148	0xbc64c1ac	-0.013962191
149	0xbd9eb137	-0.07748645
150	0xbe0fd34f	-0.14045452
151	0x3e12c716	0.14333758
152	0xbb523d51	-0.0032080004
153	0xbd0b520a	-0.034013785
154	0xbccd9314	-0.025094546
155	0x3d89fe29	0.0673793
156	0x3ae7278e	0.001763569
157	0xbd2e72df	-0.04259002
158	0x3bcf9e2b	0.0063359938
159	0xbc7b2d1d	-0.01533058
160	0xbd35dc8c	-0.044399783
161	0xbd2716fb	-0.0407934
162	0xbd12a347	-0.035800245
163	0x3d6b47e8	0.057441622
164	0xbcf885ec	-0.030337296
165	0x3dd9b398	0.10629958
166	0xbd279ce8	-0.04092112
167	0xbd9e8337	-0.07739871
168	0x3bdea556	0.006794612
169	0x3d21b11e	0.039475553
170	0xbd003a0c	-0.031305358
171	0xbd99f00b	-0.07516488
172	0xbd87f681	-0.06638814
173	0x3e2a4c39	0.16630639
174	0xbdeb17c9	-0.11479146
175	0x3e1c2530	0.15248561
176	0x3df0aa8d	0.1175128
177	0x3bec2e0f	0.007207639
178	0x3db311ce	0.0874363
179	0xbd20b5dc	-0.039235935
180	0xbd4ba2d8	-0.049715847
181	0xbc86017e	-0.016358133
182	0x3d9d44b9	0.076791234
183	0x3d66f212	0.0563832
184	0xbdbb5b9e	-0.09148334
185	0x3d150572	0.036382146
186	0x3e4429a0	0.19156504
187	0xbd02cf84	-0.031936184
188	0xbc993968	-0.018704131
189	0xbe62b12e	-0.22137901
190	0xbc012a62	-0.00788364
191	0xbe4391de	-0.19098613
192	0x3db627d4	0.08894315
193	0xbdad3fb9	-0.0845942
194	0x3c88b989	0.016690033
195	0x3dd142e4	0.102178365
196	0xbd848ef1	-0.064725764
197	0x3e1ad526	0.15120372
198	0xbd8cc71c	-0.068739146
199	0xbd71a809	-0.05899814
200	0xbdab03b1	-0.083503135
201	0xbd999444	-0.074989825
202	0x3a85f735	0.0010220768
203	0x3d08a752	0.033362694
204	0x3e800aa8	0.2500813
205	0x3d9c0ae1	0.076192625
206	0xbd453846	-0.04814937
207	0xbc072628	-0.008248843
208	0xbd3922da	-0.045199253
209	0x3cca7dc1	0.024718167
210	0x3dcfb716	0.10142343
211	0x3dfc3195	0.123141445
212	0x3d831164	0.063998014
213	0x3dfd9010	0.12380993
214	0xbc121bb9	-0.008917742
215	0xbd9b931e	-0.0759642
216	0x3ddacbe2	0.10683419
217	0x3e3b9e82	0.18322185
218	0x3d65fbe7	0.056148436
219	0x3d150dd1	0.03639013
220	0x3c3b5f72	0.01143633
221	0x3c2aeb54	0.010432083
222	0x3dc2d1c4	0.09512666
223	0x3cf20a49	0.02954592
224	0xbd7759cf	-0.060388383
225	0x3d6193aa	0.055072464
226	0x3c830622	0.015994135
227	0xbca71ef1	-0.020400496
228	0x3c2e9ed6	0.010657987
229	0xb850dd3d	-4.979711e-05
230	0x3e2e9d03	0.17052083
231	0x3dcf0c3b	0.10109755
232	0x3e00bacb	0.12571256
233	0xbe62896c	-0.22122735
234	0x3d08d7ea	0.033409037
235	0x3ca0f0be	0.019646045
236	0x3dac21df	0.08404898
237	0x3cae22f9	0.02125691
238	0x3dea8745	0.11451582
239	0x3cfae6ba	0.030627597
240	0xbcd62020	-0.026138365
241	0xbd7d38cc	-0.061821744
242	0x3decc2b2	0.11560573
243	0x3d87f131	0.066378005
244	0x3de30060	0.11084056
245	0x3d2259b6	0.039636336
246	0x3d604a08	0.0547581
247	0x3bf4c31e	0.007469549
248	0xbd106ca3	-0.035259854
249	0x3d88cdd5	0.06679884
250	0xbdb504be	-0.08838795
251	0xbe1b4184	-0.15161711
252	0x3c50e6f0	0.012750372
253	0x3e433c61	0.19066001
254	0xbcda3d79	-0.02664064
255	0x3cb18bf8	0.021673188

network_body._body_endoder.seq_layers.0.bias f4 [128]
0	0x00000000	0.0
1	0x00000000	0.0
2	0x00000000	0.0
3	0x00000000	0.0
4	0x00000000	0.0
5	0x00000000	0.0
6	0x00000000	0.0
7	0x00000000	0.0
8	0x00000000	0.0
9	0x00000000	0.0
10	0x00000000	0.0
11	0x00000000	0.0
12	0x00000000	0.0
13	0x00000000	0.0
14	0x00000000	0.0
15	0x00000000	0.0
16	0x00000000	0.0
17	0x00000000	0.0
18	0x00000000	0.0
19	0x00000000	0.0
20	0x00000000	0.0
21	0x00000000	0.0
22	0x00000000	0.0
23	0x00000000	0.0
24	0x00000000	0.0
25	0x00000000	0.0
26	0x00000000	0.0
27	0x00000000	0.0
28	0x00000000	0.0
29	0x00000000	0.0
30	0x00000000	0.0
31	0x00000000	0.0
32	0x00000000	0.0
33	0x00000000	0.0
34	0x00000000	0.0
35	0x00000000	0.0
36	0x00000000	0.0
37	0x00000000	0.0
38	0x00000000	0.0
39	0x00000000	0.0
40	0x00000000	0.0
41	0x00000000	0.0
42	0x00000000	0.0
43	0x00000000	0.0
44	0x00000000	0.0
45	0x00000000	0.0
46	0x00000000	0.0
47	0x00000000	0.0
48	0x00000000	0.0
49	0x00000000	0.0
50	0x00000000	0.0
51	0x00000000	0.0
52	0x00000000	0.0
53	0x00000000	0.0
54	0x00000000	0.0
55	0x00000000	0.0
56	0x00000000	0.0
57	0x00000000	0.0
58	0x00000000	0.0
59	0x00000000	0.0
60	0x00000000	0.0
61	0x00000000	0.0
62	0x00000000	0.0
63	0x00000000	0.0
64	0x00000000	0.0
65	0x00000000	0.0
66	0x00000000	0.0
67	0x00000000	0.0
68	0x00000000	0.0
69	0x00000000	0.0
70	0x00000000	0.0
71	0x00000000	0.0
72	0x00000000	0.0
73	0x00000000	0.0
74	0x00000000	0.0
75	0x00000000	0.0
76	0x00000000	0.0
77	0x00000000	0.0
78	0x00000000	0.0
79	0x00000000	0.0
80	0x00000000	0.0
81	0x00000000	0.0
82	0x00000000	0.0
83	0x00000000	0.0
84	0x00000000	0.0
85	0x00000000	0.0
86	0x00000000	0.0
87	0x00000000	0.0
88	0x00000000	0.0
89	0x00000000	0.0
90	0x00000000	0.0
91	0x00000000	0.0
92	0x00000000	0.0
93	0x00000000	0.0
94	0x00000000	0.0
95	0x00000000	0.0
96	0x00000000	0.0
97	0x00000000	0.0
98	0x00000000	0.0
99	0x00000000	0.0
100	0x00000000	0.0
101	0x00000000	0.0
102	0x00000000	0.0
103	0x00000000	0.0
104	0x00000000	0.0
105	0x00000000	0.0
106	0x00000000	0.0
107	0x00000000	0.0
108	0x00000000	0.0
109	0x00000000	0.0
110	0x00000000	0.0
111	0x00000000	0.0
112	0x00000000	0.0
113	0x00000000	0.0
114	0x00000000	0.0
115	0x00000000	0.0
116	0x00000000	0.0
117	0x00000000	0.0
118	0x00000000	0.0
119	0x00000000	0.0
120	0x00000000	0.0
121	0x00000000	0.0
122	0x00000000	0.0
123	0x00000000	0.0
124	0x00000000	0.0
125	0x00000000	0.0
126	0x00000000	0.0
127	0x00000000	0.0

network_body._body_endoder.seq_layers.2.weight f4 [128, 128]
0	0x3d5a1b1b	0.053248506
1	0x3e464bd3	0.19364862
2	0x3dbbec53	0.09175935
3	0xbdf5f9a4	-0.12010506
4	0xbd62446d	-0.055241037
5	0xbc122c8a	-0.008921752
6	0x3d902abc	0.07039401
7	0x3d4b6ba7	0.049663212
8	0xbdbf6a3f	-0.09346437
9	0xbd841f77	-0.06451314
10	0xbd62a98a	-0.055337466
11	0x3e2b5e91	0.16735293
12	0x3d855abc	0.06511447
13	0x3a8bbf9c	0.0010661962
14	0x3e03a340	0.12855244
15	0xbd9ce8b9	-0.07661576
16	0xbe38863f	-0.18019961
17	0xbdb7f79f	-0.08982777
18	0xbdba31b8	-0.09091514
19	0x3d940077	0.07226651
20	0xbd7347ee	-0.05939477
21	0x3d93bda9	0.07213909
22	0x3bd4ef80	0.006498277
23	0xbd5fb2e2	-0.054613955
24	0x3bf18e29	0.007371683
25	0x3dcae688	0.099072516
26	0x3d581b09	0.052760158
27	0xbbd3a127	-0.00645842
28	0xbde515c6	-0.111857936
29	0xbc3551ac	-0.011066835
30	0xbdf54526	-0.1197608
31	0x3deef34f	0.11667501
32	0xbc88d869	-0.016704755
33	0xbd020af4	-0.031748727
34	0xbd119cc0	-0.03554988
35	0xbc8e4793	-0.017368114
36	0xbdea037a	-0.11426444
37	0xbe4fcfe4	-0.20294148
38	0xbc8792de	-0.016549524
39	0x3cff7077	0.031181557
40	0xbd25937a	-0.040423848
41	0x3e208a6c	0.15677804
42	0xbc3cb46f	-0.011517628
43	0xbdbe42ab	-0.0929006
44	0x3e242761	0.16030647
45	0x3dae8da9	0.08523113
46	0x3d70f678	0.0588288
47	0xbd567dc5	-0.052366037
48	0xbc709f02	-0.014686348
49	0x3d34b51d	0.044118036
50	0x3ca38368	0.01996012
51	0x3d0a88e2	0.033821948
52	0x3da35fa4	0.079772264
53	0xbd97f000	-0.07418823
54	0x3dacf0de	0.08444379
55	0xbe0585eb	-0.13039367
56	0x3d4523b6	0.04812976
57	0x3b757d3f	0.0037458686
58	0xbc8f0010	-0.017456084
59	0xbd3ae0e9	-0.045624647
60	0xbd83cbb6	-0.06435339
61	0x3d934fd7	0.071929626
62	0xbdc0931f	-0.09403061
63	0xbd1941c3	-0.03741623
64	0xbb950ad3	-0.0045484095
65	0xbd64499e	-0.05573427
66	0x3c1264a6	0.008935129
67	0x3d17532f	0.036944564
68	0xbe4de7f6	-0.20108017
69	0xbd150e22	-0.03639043
70	0xbd966da9	-0.07345135
71	0xbcf133c4	-0.02944363
72	0xbd623fe4	-0.055236712
73	0x3b69a9f2	0.0035654274
74	0x3c8fad79	0.017538773
75	0xbdab1484	-0.083535224
76	0xbd9b82ee	-0.07593332
77	0xbe3777ef	-0.17916845
78	0x3da13599	0.07871551
79	0x3d6aa910	0.057290137
80	0xbcfbbab2	-0.030728672
81	0x3e30ae43	0.17253976
82	0xbcb9264b	-0.022601267
83	0xbce66bc1	-0.028127553
84	0x3c0139e3	0.007887336
85	0xbdd62b6b	-0.104575
86	0x3dd42174	0.10357943
87	0x3d5e151a	0.054219343
88	0x3c6da432	0.014504479
89	0x3de77a6e	0.113026485
90	0x3d76ddc9	0.060270105
91	0x3e61e892	0.22061375
92	0x3cc29938	0.023754701
93	0x3d3849c7	0.044992235
94	0x38a1202f	7.683073e-05
95	0xbc422cc7	-0.011851496
96	0x3d746a92	0.059671946
97	0x3e28a366	0.16468582
98	0x3d9df3ba	0.07712503
99	0x3e3601d8	0.17774141
100	0xbd8a016c	-0.067385525
101	0x3dde03d3	0.10840573
102	0xbda5a22a	-0.08087571
103	0x3beae5d3	0.0071685105
104	0xbce9b772	-0.028529856
105	0x3ddff3eb	0.109351955
106	0x3dbffefb	0.093748055
107	0x3d27f20e	0.041002326
108	0xbe0b6068	-0.13610995
109	0xbd13f0c9	-0.036118302
110	0x3c904a68	0.017613605
111	0x3bf846f0	0.007576816
112	0xbd4a32ca	-0.049364842
113	0xbcb75144	-0.022377618
114	0x3b8d9af5	0.004321451
115	0x3d7e6b95	0.062114317
116	0x3da9323a	0.08261533
117	0x3d20257c	0.039098248
118	0xbb1e968d	-0.0024198622
119	0x3d7585d5	0.059942085
120	0x3e21cc58	0.15800607
121	0x3d2c36f0	0.04204458
122	0xbb11f461	-0.0022270905
123	0x3d85346c	0.06504139
124	0xbd83bfe7	-0.06433087
125	0x3de6e1cc	0.11273536
126	0xbd94a0b2	-0.07257213
127	0x3dedb21a	0.11606236
128	0xbdb179a9	-0.08665783
129	0x3dd2150b	0.1025792
130	0x3e780a36	0.24222645
131	0x3cbd9dd2	0.023146544
132	0xbc81efe4	-0.01586146
133	0x3e0d164d	0.13778038
134	0x3cdbeca3	0.026846236
135	0xbd6747d6	-0.056464992
136	0xbe56b381	-0.20966913
137	0x3bb6e3d1	0.005581357
138	0x3e61b360	0.22041082
139	0xbdaf53ce	-0.08560906
140	0xbd72efee	-0.059310846
141	0xbb655446	-0.0034992858
142	0x3d354fdf	0.044265624
143	0x3e0a2e18	0.13494146
144	0xbd10de20	-0.035368085
145	0x3cf04d5c	0.029333763
146	0x3dcc1c4e	0.09966336
147	0x3d476dbc	0.048688635
148	0xbe22ff50	-0.15917706
149	0x3c858c8a	0.016302366
150	0x3bff7e84	0.0077970643
151	0x3d9f7aa5	0.077870645
152	0xbde84f11	-0.11343206
153	0x3e363634	0.17794114
154	0x3e3a3fe1	0.1818843
155	0xbd85961a	-0.0652277
156	0x3c0a1808	0.008428581
157	0x3cd11ef3	0.025527453
158	0xbd4164cb	-0.047215264
159	0x3c7662e1	0.015038223
160	0x3e1d4c8f	0.15361236
161	0x3dab1e61	0.08355404
162	0xbe13b53f	-0.14424609
163	0x3d0cb672	0.03435368
164	0x3c71ba1f	0.014753847
165	0xbd910dc7	-0.07082706
166	0x3d9e00b5	0.077149786
167	0xbc59b458	-0.013287626
168	0x3e700ac8	0.23441613
169	0x3cb2c9c2	0.021824721
170	0xbd952f4c	-0.07284412
171	0xbd109d3b	-0.035306197
172	0x3ce54a89	0.027989643
173	0x3d64b00b	0.05583195
174	0x3d8fae19	0.07015628
175	0xbde0d90a	-0.10978897
176	0x3d2f19e4	0.0427493
177	0x3d25f43f	0.040516134
178	0xbd6f244c	-0.058384225
179	0xbd134099	-0.035950277
180	0xbd86e2f7	-0.06586259
181	0x3d5d26e0	0.053992152
182	0xbccdf4e3	-0.025141185
183	0x3e230b4e	0.15922281
184	0xbdc01870	-0.09379661
185	0x3dde9fdb	0.10870334
186	0xbda51841	-0.08061267
187	0x3bdf903c	0.006822614
188	0x3d1e59ee	0.038659982
189	0x3d42df77	0.047576394
190	0x3db2ce37	0.087307386
191	0xbc8b2e71	-0.016989918
192	0xbc8394d9	-0.016062187
193	0x3d64d129	0.055863533
194	0x3d92717b	0.07150551
195	0xbc46febf	-0.012145697
196	0x3d24bf31	0.040221397
197	0xbc9d86f5	-0.019229392
198	0x3db3f805	0.0878754
199	0xbce64d41	-0.02811301
200	0x3e006110	0.12537026
201	0x3e43bcab	0.1911494
202	0x3d3f695b	0.046731334
203	0xbe47b6d3	-0.19503336
204	0xbcd6a358	-0.026200935
205	0x3d06e146	0.03292968
206	0x39477cc8	0.00019024604
207	0xbe040ffb	-0.12896721
208	0x3d7fdb98	0.06246528
209	0xbbe4ffa6	-0.0069884835
210	0xbd309b2c	-0.043116733
211	0xbd0b7af6	-0.03405281
212	0xbda442fd	-0.080205895
213	0xbd177e1d	-0.036985505
214	0xbc4dd437	-0.012562803
215	0x3e2f2dd0	0.1710732
216	0xbe6a649c	-0.22889942
217	0xbd50f584	-0.051015392
218	0x3d7a923c	0.061174616
219	0xbda38fb6	-0.07986395
220	0xbda6c1d4	-0.081424385
221	0xbd8ea05c	-0.0696418
222	0xbcc56508	-0.024096027
223	0xbd6dbe7e	-0.058042996
224	0x3dae74f6	0.08518402
225	0xbdeabf48	-0.11462265
226	0xbd883e90	-0.06652558
227	0x3d1cb957	0.03826269
228	0x3e238838	0.15969932
229	0x3e2e3f57	0.1701635
230	0xbe2ca73c	-0.1686067
231	0x3dd8a8f2	0.10579099
232	0x3daf9de7	0.08575039
233	0xbd8ff542	-0.07029201
234	0xbdd1f790	-0.10252297
235	0xbe30ee1e	-0.17278334
236	0x3e1f9e03	0.1558762
237	0xbd5f8946	-0.054574274
238	0xbce9d816	-0.02854542
239	0x3d5f6688	0.05454114
240	0xbdc33b88	-0.09532839
241	0x3ccd1935	0.025036434
242	0xbbfaa551	-0.007649102
243	0xbd0d51ee	-0.034501962
244	0xbd5c2df2	-0.053754754
245	0xbce67d89	-0.028136032
246	0x3d58b358	0.05290541
247	0xbd4593d8	-0.048236698
248	0x3cb44911	0.022007497
249	0x3de80c04	0.11330417
250	0x3dcf32bf	0.10117101
251	0xbdb523f9	-0.08844752
252	0x3dbab55b	0.09116622
253	0x3671d23f	3.6034178e-06
254	0x3d0ec371	0.034854356
255	0x3bc422bc	0.005985586

network_body._body_endoder.seq_layers.2.bias f4 [128]
0	0x00000000	0.0
1	0x00000000	0.0
2	0x00000000	0.0
3	0x00000000	0.0
4	0x00000000	0.0
5	0x00000000	0.0
6	0x00000000	0.0
7	0x00000000	0.0
8	0x00000000	0.0
9	0x00000000	0.0
10	0x00000000	0.0
11	0x00000000	0.0
12	0x00000000	0.0
13	0x00000000	0.0
14	0x00000000	0.0
15	0x00000000	0.0
16	0x00000000	0.0
17	0x00000000	0.0
18	0x00000000	0.0
19	0x00000000	0.0
20	0x00000000	0.0
21	0x00000000	0.0
22	0x00000000	0.0
23	0x00000000	0.0
24	0x00000000	0.0
25	0x00000000	0.0
26	0x00000000	0.0
27	0x00000000	0.0
28	0x00000000	0.0
29	0x00000000	0.0
30	0x00000000	0.0
31	0x00000000	0.0
32	0x00000000	0.0
33	0x00000000	0.0
34	0x00000000	0.0
35	0x00000000	0.0
36	0x00000000	0.0
37	0x00000000	0.0
38	0x00000000	0.0
39	0x00000000	0.0
40	0x00000000	0.0
41	0x00000000	0.0
42	0x00000000	0.0
43	0x00000000	0.0
44	0x00000000	0.0
45	0x00000000	0.0
46	0x00000000	0.0
47	0x00000000	0.0
48	0x00000000	0.0
49	0x00000000	0.0
50	0x00000000	0.0
51	0x00000000	0.0
52	0x00000000	0.0
53	0x00000000	0.0
54	0x00000000	0.0
55	0x00000000	0.0
56	0x00000000	0.0
57	0x00000000	0.0
58	0x00000000	0.0
59	0x00000000	0.0
60	0x00000000	0.0
61	0x00000000	0.0
62	0x00000000	0.0
63	0x00000000	0.0
64	0x00000000	0.0
65	0x00000000	0.0
66	0x00000000	0.0
67	0x00000000	0.0
68	0x00000000	0.0
69	0x00000000	0.0
70	0x00000000	0.0
71	0x00000000	0.0
72	0x00000000	0.0
73	0x00000000	0.0
74	0x00000000	0.0
75	0x00000000	0.0
76	0x00000000	0.0
77	0x00000000	0.0
78	0x00000000	0.0
79	0x00000000	0.0
80	0x00000000	0.0
81	0x00000000	0.0
82	0x00000000	0.0
83	0x00000000	0.0
84	0x00000000	0.0
85	0x00000000	0.0
86	0x00000000	0.0
87	0x00000000	0.0
88	0x00000000	0.0
89	0x00000000	0.0
90	0x00000000	0.0
91	0x00000000	0.0
92	0x00000000	0.0
93	0x00000000	0.0
94	0x00000000	0.0
95	0x00000000	0.0
96	0x00000000	0.0
97	0x00000000	0.0
98	0x00000000	0.0
99	0x00000000	0.0
100	0x00000000	0.0
101	0x00000000	0.0
102	0x00000000	0.0
103	0x00000000	0.0
104	0x00000000	0.0
105	0x00000000	0.0
106	0x00000000	0.0
107	0x00000000	0.0
108	0x00000000	0.0
109	0x00000000	0.0
110	0x00000000	0.0
111	0x00000000	0.0
112	0x00000000	0.0
113	0x00000000	0.0
114	0x00000000	0.0
115	0x00000000	0.0
116	0x00000000	0.0
117	0x00000000	0.0
118	0x00000000	0.0
119	0x00000000	0.0
120	0x00000000	0.0
121	0x00000000	0.0
122	0x00000000	0.0
123	0x00000000	0.0
124	0x00000000	0.0
125	0x00000000	0.0
126	0x00000000	0.0
127	0x00000000	0.0

action_model._continuous_distribution.log_sigma f4 [1, 2]
0	0x00000000	0.0
1	0x00000000	0.0

action_model._continuous_distribution.mu.weight f4 [2, 128]
0	0x3cb94b7c	0.022619002
1	0x3c176841	0.009241165
2	0x3c147cf9	0.009062999
3	0xbb42440e	-0.0029642615
4	0xbb98f93f	-0.0046683843
5	0x3b9f0096	0.004852365
6	0xbc61132a	-0.013737479
7	0x3ca53be4	0.02017016
8	0x3b8c642d	0.004284403
9	0x3c05b80e	0.008161558
10	0xbb93459b	-0.0044943816
11	0x3c6d0ab7	0.014467887
12	0xbc6b07a0	-0.01434508
13	0x391812e2	0.00014502884
14	0xbb913eaf	-0.0044325213
15	0x3bbedd36	0.0058247102
16	0xbba5501c	-0.00504495
17	0x3cd4304d	0.025901938
18	0xbc121d56	-0.008918127
19	0xbc422b23	-0.011851105
20	0xba998d61	-0.0011715108
21	0x3bb30c1b	0.0054640896
22	0xbcd7b882	-0.026333097
23	0x3c2a64e3	0.01040003
24	0xbc9f5b47	-0.019452704
25	0xbb1d0682	-0.0023960178
26	0xbc8e35be	-0.01735961
27	0xbcd91a45	-0.026501784
28	0xbc86eff9	-0.01647185
29	0xbb6ff6b2	-0.0036615548
30	0x3c99b7aa	0.018764336
31	0xbaea5ea8	-0.0017880993
32	0x3c8a5601	0.016886713
33	0x3bd27f62	0.0064238766
34	0xbce17162	-0.027519885
35	0xbb098121	-0.0020981508
36	0x3a918b51	0.0011104142
37	0xbbc871a8	-0.0061170645
38	0xbc5b1b83	-0.0133732585
39	0x3bdb7a27	0.0066979113
40	0xbbf874bd	-0.0075822757
41	0x3cf10832	0.029422853
42	0x3d65ca45	0.056101102
43	0xbc9b44cc	-0.018953703
44	0x3c4c79cb	0.01248021
45	0xbba5de89	-0.0050619286
46	0xbcde926a	-0.027169425
47	0xbd134e16	-0.03596314
48	0xbd1a3ece	-0.03765755
49	0x3cfdbf8b	0.030975124
50	0x3c9fe087	0.019516243
51	0x3b9b4956	0.004738967
52	0x3c26df25	0.010185038
53	0x3d127b7e	0.035762303
54	0xbc6063e0	-0.013695687
55	0xbcf7abe5	-0.030233333
56	0x3d56ca8f	0.05243927
57	0xba66167d	-0.0008777155
58	0xbc22efd7	-0.009944878
59	0xbbacf8b3	-0.0052786707
60	0xbccb0d1b	-0.024786523
61	0x3ceeec70	0.029165477
62	0x3d13c10d	0.03607278
63	0xbc1df783	-0.009641531
64	0xbbf9138d	-0.0076012076
65	0xbcbe28b7	-0.023212774
66	0x3bd845ea	0.0066001313
67	0xbcfdd675	-0.03098605
68	0x3cb024eb	0.021501979
69	0x3c250fb4	0.010074545
70	0xbc85c0cf	-0.01632729
71	0x3d168dce	0.03675633
72	0x3c76aacb	0.015055369
73	0x3c45a230	0.012062594
74	0xbc0b5a6c	-0.008505445
75	0x3c84a03b	0.016189685
76	0xbc9d9bb4	-0.019239284
77	0xbcf47388	-0.029840246
78	0xbc971b55	-0.01844565
79	0xbc3d7013	-0.011562365
80	0x3bd59a00	0.0065186024
81	0xbc40019a	-0.011719132
82	0x39718e35	0.00023036527
83	0xbbd34752	-0.006447711
84	0x3bf99d10	0.0076176003
85	0x3d4c5f13	0.049895357
86	0xbd01fe8e	-0.031736903
87	0xbb95fb6d	-0.0045770914
88	0x3cbc3438	0.022974119
89	0xbd26b3aa	-0.040698685
90	0x3b403acd	0.0029331923
91	0xbc490088	-0.012268193
92	0xbd112aeb	-0.03544132
93	0x3cf371aa	0.029717285
94	0x3b70ce73	0.0036744147
95	0xbd1eec12	-0.038799353
96	0x3cbd7839	0.023128616
97	0xbd1183ee	-0.03552621
98	0x3cb53b77	0.022123082
99	0x3b732e60	0.00371065
100	0xbc3ce1f2	-0.011528479
101	0x3c16b5ca	0.009198615
102	0x3ce91d6b	0.02845641
103	0xbb2899b4	-0.002572638
104	0x3cd8c887	0.026462806
105	0x3ae1da0a	0.0017231118
106	0xbc77980d	-0.015111935
107	0xba98045f	-0.0011597982
108	0xba35cab9	-0.000693481
109	0x3ca62d90	0.020285398
110	0xbaa82597	-0.0012828585
111	0xbc315d0f	-0.01082541
112	0xbbde6512	-0.006786951
113	0x3c3c366b	0.011487584
114	0x3c469ed2	0.012122827
115	0x3c9d52e6	0.019204568
116	0xbb887d33	-0.0041653155
117	0xbce54edb	-0.027991703
118	0xbc0c7d43	-0.008574787
119	0xbc87fa20	-0.016598761
120	0x3c5b25c7	0.013375706
121	0x3c30ebea	0.010798434
122	0xbc97eff3	-0.018547034
123	0x3a39c61a	0.00070867094
124	0x3c646b43	0.013941589
125	0x3cd57f77	0.026061757
126	0x39b1ad1d	0.0003388905
127	0x3cdf6400	0.027269363
128	0xbcb9447f	-0.02261567
129	0xbcf117d3	-0.029430306
130	0xbc0251fb	-0.007954116
131	0xbcadb93d	-0.021206493
132	0xbc894a96	-0.016759198
133	0x3b374f94	0.0027971016
134	0x3c0ec1fc	0.008713242
135	0xbb5f254f	-0.0034049337
136	0xbc808f3f	-0.015693305
137	0x3ba5aeed	0.005056253
138	0x3be0b38d	0.0068573416
139	0x3bdb41fd	0.006691216
140	0x3cd40b58	0.025884315
141	0x3c255af9	0.01009249
142	0xbbeea81b	-0.0072832233
143	0xba93c107	-0.0011272737
144	0xbcc684a3	-0.024233168
145	0xbb406e76	-0.0029362715
146	0xbbd52137	-0.0065042037
147	0x3c47af9d	0.012187866
148	0xbd157f3f	-0.036498304
149	0x3d22e907	0.039773013
150	0x3d24cf61	0.040236834
151	0x3bba55c7	0.005686495
152	0xbd10658c	-0.035253093
153	0x3c47fb1b	0.012205864
154	0x3cce58a3	0.02518875
155	0x3b8b2d5b	0.00424735
156	0x3c657be8	0.014006592
157	0xbd07e4a5	-0.033177037
158	0xbc8c0d6e	-0.017096248
159	0x3c427e11	0.011870877
160	0xbcd72cd8	-0.0262665
161	0xbccc0433	-0.024904346
162	0x3c9f1e7c	0.019423716
163	0xbc262214	-0.010139961
164	0xbd2647b7	-0.040595736
165	0xbc3b7163	-0.011440608
166	0x3bbf69e7	0.005841482
167	0x3d01daa1	0.03170264
168	0x3bf965a7	0.007610995
169	0x3ac830f6	0.001527338
170	0x3cba46c9	0.022738831
171	0x3c0983a0	0.008393198
172	0x3d0e4dca	0.034742154
173	0x3c78ef32	0.015193747
174	0x3b7bbcba	0.003841205
175	0x3bd0cc98	0.0063720457
176	0x3b8f99fd	0.0043823705
177	0xbcc337e2	-0.023830358
178	0xbd082b23	-0.033244263
179	0x3d109620	0.03529942
180	0xbb3bde2f	-0.0028666367
181	0xbbe136fd	-0.00687301
182	0x3bc4230f	0.0059856246
183	0x3cc4f18b	0.024040958
184	0xbc8fa719	-0.017535733
185	0x3c11cc23	0.008898768
186	0x3c52d96a	0.012869218
187	0xbbf162d5	-0.007366518
188	0xbbf79b73	-0.007556373
189	0x3c8f1ed0	0.017470747
190	0x3bd4cd2b	0.0064941845
191	0xbab53321	-0.0013824442
192	0x3c4cdb72	0.012503492
193	0x3cc1590a	0.023602027
194	0xbc322a99	-0.010874414
195	0x3b1ad41f	0.002362497
196	0xbc8d0b5a	-0.017217327
197	0x3cbcef7b	0.023063412
198	0xbcaad770	-0.020854682
199	0x3cfda2c3	0.0309614
200	0xbc7557d7	-0.014974556
201	0x3c51c1a5	0.012802516
202	0x3cf98330	0.030458063
203	0xbc3914a0	-0.011296421
204	0x3cf4f0b8	0.02989994
205	0xbc187e97	-0.009307525
206	0xbd1247bd	-0.035712946
207	0xbc056ddb	-0.008143867
208	0xb710cca0	-8.630712e-06
209	0x3ceb956f	0.028757779
210	0xbca632af	-0.02028784
211	0xba5f3bfa	-0.0008515712
212	0xbbbaa8cd	-0.005696392
213	0xbb34356a	-0.0027497658
214	0xbcf5a73b	-0.029986968
215	0xbd16631c	-0.03671561
216	0x3c731f6a	0.014839033
217	0xbbecd030	-0.0072269663
218	0x3ca00363	0.019532865
219	0xbc87774c	-0.016536377
220	0xbd15736a	-0.03648702
221	0x3c198217	0.009369395
222	0x3cf35505	0.029703626
223	0xbc870dbb	-0.01648604
224	0x3c9c8ae3	0.019109195
225	0xbbc8a597	-0.0061232555
226	0xbb983fb4	-0.004646266
227	0x3c1bd082	0.009510161
228	0x3a2ed0c7	0.00066686835
229	0xb9ec221f	-0.0004503885
230	0x3c2a84e7	0.010407663
231	0xbcc778d8	-0.024349615
232	0x3c4c2474	0.012459863
233	0x3d2552ff	0.040362354
234	0xbc43fe82	-0.011962535
235	0xbd095e2f	-0.033537086
236	0x3cc09f0b	0.023513338
237	0xbbcab64f	-0.0061862837
238	0x3c994f1d	0.018714482
239	0x3aec916b	0.0018048709
240	0xbb025fe2	-0.0019893576
241	0x3bead52f	0.0071665267
242	0xbb8ba1ce	-0.004261232
243	0x3cfd72ea	0.030938584
244	0xbc441071	-0.011966811
245	0xbc891583	-0.01673389
246	0x3c9f26bf	0.019427655
247	0xbbc60939	-0.00604358
248	0xbc9f1fe2	-0.019424383
249	0xbcf40890	-0.02978924
250	0x3aedc902	0.001814157
251	0xbcc39bdf	-0.023878036
252	0x3a1029f4	0.00054994156
253	0xbc9c5cea	-0.019087274
254	0xbb0017af	-0.0019545367
255	0xbcbb8a4f	-0.0228931

action_model._continuous_distribution.mu.bias f4 [2]
0	0x00000000	0.0
1	0x00000000	0.0

action_model._discrete_distribution.branches.0.weight f4 [2, 128]
0	0xbb86d105	-0.0041142725
1	0xbbd81140	-0.0065938532
2	0xbb52065a	-0.0032047243
3	0xbc846e55	-0.016165892
4	0x3b871ad3	0.0041230707
5	0x3c5ee17d	0.013603565
6	0x3ba986c3	0.0051735356
7	0x3b886455	0.004162351
8	0xbbdc7e38	-0.0067289136
9	0x3b3237ba	0.002719386
10	0x3c31adb9	0.010844641
11	0x3bb6eac3	0.005582185
12	0x3b250719	0.0025181232
13	0xbcbf0710	-0.023318797
14	0xbbc74752	-0.0060815
15	0xbb44d25f	-0.0030032618
16	0x3c1f36ca	0.009717653
17	0xbc1893fb	-0.009312625
18	0xbbb41ed0	-0.005496837
19	0x3be584c8	0.007004354
20	0xbc02b824	-0.007978473
21	0x3c6ae272	0.014336215
22	0x398643ff	0.00025609133
23	0x3b8e7279	0.0043471423
24	0xbca3536f	-0.019937245
25	0x3b97981a	0.004626286
26	0x3b9ece0f	0.0048463414
27	0xbb073453	-0.0020630553
28	0xba99e35b	-0.0011740731
29	0xbc2a523d	-0.010395584
30	0x3c36b144	0.011150662
31	0xbb40be6b	-0.0029410373
32	0x3bc9a372	0.0061535174
33	0xbc2665f3	-0.0101561425
34	0x3bc5c6b9	0.0060356525
35	0xbc2a7e48	-0.010406084
36	0x3c1a7406	0.009427076
37	0x3bd1089b	0.0063791997
38	0xbbb6df8f	-0.0055808495
39	0xbbac9015	-0.0052661994
40	0x3ba7111e	0.005098476
41	0xbab99931	-0.0014160034
42	0xbb0b64c6	-0.0021269782
43	0x3b6a0d70	0.0035713576
44	0x3b4d7202	0.0031348472
45	0x3b4784d7	0.003044417
46	0xbc5a88d8	-0.01333829
47	0x3acee673	0.0015785232
48	0xbaf815b0	-0.0018927362
49	0xbc370183	-0.011169794
50	0x3bc83a08	0.0061104335
51	0x3b91ad2f	0.004445694
52	0x3b09f756	0.0021051965
53	0x3ca574c4	0.02019728
54	0x39d1949f	0.00039974318
55	0xbbfae42a	-0.007656594
56	0xbc6a47e7	-0.014299369
57	0xbc1c976c	-0.009557586
58	0xbbb220e1	-0.0054360484
59	0x3a414f8e	0.00073742203
60	0x3c1a9e50	0.009437159
61	0x3a4403a3	0.00074773486
62	0x3c27df82	0.0102461595
63	0xbc4bdaf9	-0.012442344
64	0xbbff145d	-0.00778441
65	0xbbe45562	-0.0069681862
66	0x3c4d8d5a	0.012545908
67	0xbb3411b7	-0.002747638
68	0x3b8a321b	0.004217399
69	0x3ba84b23	0.00513591
70	0xbc2c83d1	-0.010529474
71	0xbc894ec3	-0.01676119
72	0x3c23a170	0.00998722
73	0xbc0223a9	-0.007943072
74	0x39b0c5f1	0.00033716814
75	0x3b2843b1	0.0025675113
76	0xbc2974ac	-0.010342758
77	0xbb87445f	-0.0041280235
78	0xbbf7ffb2	-0.007568323
79	0x3c1d02bb	0.0095831705
80	0x3b9200da	0.004455668
81	0x3c2a2c82	0.010386588
82	0xbb4037d0	-0.0029330142
83	0x3c003110	0.007824197
84	0x3c15f403	0.009152415
85	0x3b249e99	0.0025118946
86	0xbc149c87	-0.009070522
87	0x3b9eb328	0.0048431344
88	0x3c004df3	0.007831085
89	0x3c040b07	0.00805927
90	0x3b85e1d1	0.0040857573
91	0xba32788a	-0.0006808123
92	0xbc6b7983	-0.014372232
93	0xbc0f7604	-0.008756164
94	0x3bf5b0b2	0.0074978704
95	0x3bded285	0.006799998
96	0x3c711a37	0.014715723
97	0xbb6057a8	-0.0034231935
98	0x3b8c8506	0.0042883186
99	0xbba1703b	-0.004926709
100	0xbbc714fe	-0.0060755005
101	0xbc2799c3	-0.010229531
102	0x3bda6e08	0.006665949
103	0xbc929821	-0.017894806
104	0xbbca2fce	-0.0061702495
105	0xbc937743	-0.018001204
106	0x3c60ee32	0.013728665
107	0xbb3260c8	-0.002721833
108	0xbb9c2c75	-0.004766042
109	0xba3b6bc2	-0.0007149541
110	0x3af1fff3	0.001846312
111	0x3b74fd8b	0.0037382569
112	0x3b40670f	0.0029358303
113	0x3bb7b6fb	0.00560653
114	0x3af43b0d	0.0018633321
115	0x3b5d25cf	0.003374446
116	0x3b8309a3	0.0039989515
117	0x3b339c50	0.0027406402
118	0xbb379c33	-0.0028016686
119	0x3c564b5f	0.013079493
120	0x3b9f8f3f	0.004869371
121	0xbbbd88db	-0.0057841367
122	0x3c36621f	0.011131792
123	0x3b478f7e	0.0030450518
124	0xbbcce4f5	-0.0062528797
125	0xbc43a02e	-0.011940045
126	0xbbc7bd33	-0.0060955524
127	0x3a488e40	0.00076505914
128	0xbc068b64	-0.008211944
129	0x3c69ed38	0.014277749
130	0x3c080f4a	0.008304426
131	0x3b81c34b	0.0039600483
132	0xbc0317dd	-0.008001295
133	0x3a977941	0.0011556522
134	0x3c833387	0.016015781
135	0x3c24a690	0.010049477
136	0xbabf9435	-0.0014616313
137	0xbc18001e	-0.009277372
138	0x3c3a2cf2	0.011363255
139	0x3a86043a	0.0010224648
140	0xbc7a71cd	-0.015285921
141	0xbc5c2dc3	-0.013438645
142	0x3c1145ce	0.00886674
143	0xbbf3f26d	-0.007444671
144	0xbb05e4db	-0.0020430598
145	0x3c3b1713	0.011419076
146	0xbc097017	-0.008388541
147	0x3aaccff3	0.0013184532
148	0xbba7f4e9	-0.005125631
149	0xbb6f73d0	-0.0036537535
150	0xba451430	-0.0007517962
151	0xbc76b713	-0.015058297
152	0x3bfde820	0.0077486187
153	0x3b734ee8	0.003712589
154	0x3a833386	0.0010009862
155	0xbc5acb95	-0.013354202
156	0x3bf5cb25	0.0075010234
157	0x3b2d7724	0.0026468718
158	0x3c1955af	0.0093588075
159	0xbb47316b	-0.0030394446
160	0xbae38ef8	-0.0017361334
161	0xbb8cb1ab	-0.0042936406
162	0xbbd0775b	-0.0063618845
163	0x3b4188a6	0.0029530912
164	0xbaa1198f	-0.0012290942
165	0xbbcfe125	-0.006343978
166	0xbc6bbd90	-0.014388457
167	0xbc27fa26	-0.010252511
168	0xbb5d943f	-0.0033810285
169	0x3bb75930	0.005595349
170	0x3b9a2173	0.0047036945
171	0x3bc8431c	0.0061115157
172	0x3bae2e97	0.0053156125
173	0x3b9fdb69	0.0048784507
174	0x3af02677	0.001832201
175	0xbb6f5a40	-0.00365223
176	0xbb1630c1	-0.0022917243
177	0xbc0a0530	-0.008424088
178	0xbba867eb	-0.005139341
179	0x3b9367df	0.0044984664
180	0xbbbdb0bb	-0.00578889
181	0x3c2163fd	0.009850499
182	0xba98786f	-0.0011632572
183	0x3b3b6eff	0.0028600094
184	0x3c1bed53	0.009517032
185	0x3a1ea2dc	0.00060514896
186	0xbbb3e391	-0.0054897745
187	0x3bc9ce97	0.0061586606
188	0x3a597742	0.0008295664
189	0x3c93ca8e	0.018040922
190	0x3b0412d7	0.002015283
191	0xbaa3d7ed	-0.0012500264
192	0x3c4788af	0.012178584
193	0xbc6f16fd	-0.014592883
194	0x3c5630c3	0.013073149
195	0xbc88f01b	-0.016716054
196	0xbb1b2e83	-0.0023678846
197	0x3ad6883a	0.0016367503
198	0xbc3dc1cf	-0.011581852
199	0xbc0a051b	-0.008424069
200	0xbb102bcc	-0.0021998761
201	0x3c806a42	0.015675668
202	0xbb6c60eb	-0.003606851
203	0x3c2e8b68	0.010653354
204	0xbc502bcd	-0.012705755
205	0xbbb059ab	-0.005381783
206	0xbb315e3f	-0.0027064232
207	0x3c4d3df8	0.0125269815
208	0xbc1bd5da	-0.009511435
209	0x3b0cfc1a	0.002151257
210	0x3c10f899	0.008848333
211	0xbb4c2e39	-0.003115548
212	0x3ba51d3d	0.005038886
213	0xbb5318a5	-0.0032210734
214	0x3bb18fc2	0.0054187486
215	0xbc80a50f	-0.015703706
216	0x3ac24592	0.0014821759
217	0x3c0df207	0.008663661
218	0xbc1e7eef	-0.009673818
219	0xbb2ea8e8	-0.002665097
220	0x3c409716	0.011754772
221	0x3b9155cf	0.004435278
222	0x3ba69f30	0.0050848946
223	0xba609760	-0.00085674785
224	0x3b02b32f	0.0019943228
225	0x3b9f3988	0.004859153
226	0xbb806cd7	-0.0039192247
227	0x3a298fb8	0.0006468254
228	0xbbbe43de	-0.0058064302
229	0x39ccc9dc	0.0003906031
230	0xbbdd7acf	-0.0067590247
231	0x3b9e9e3f	0.0048406417
232	0xbc20ad3d	-0.009806928
233	0xbbfdd18a	-0.0077459263
234	0x3bbea32f	0.005817793
235	0x3c007d4d	0.007842374
236	0x3b559928	0.003259251
237	0xbbf74865	-0.007546472
238	0xbb42d632	-0.002972972
239	0xb9c1d49b	-0.00036970232
240	0x3be59bff	0.0070071216
241	0x3c5263cd	0.012841177
242	0x3ad3b9df	0.0016153416
243	0xbc258eeb	-0.010104875
244	0x3c31107a	0.010807151
245	0xbc1fb87f	-0.009748577
246	0xbc131d10	-0.008979097
247	0x3bd111a7	0.006380278
248	0x3c2fe424	0.010735545
249	0xbc7e9037	-0.015537313
250	0x3bc7fc71	0.0061030914
251	0x3c2bd80d	0.010488522
252	0x3b1aa445	0.0023596447
253	0xbbcc812c	-0.0062409844
254	0xbb692662	-0.0035575856
255	0xbc565172	-0.0130809415

action_model._discrete_distribution.branches.0.bias f4 [2]
0	0x00000000	0.0
1	0x00000000	0.0

network_body._body_endoder.seq_layers.0.weight f4 [128, 128]
0	0x3d783e85	0.0606065
1	0xbd8b1bac	-0.06792387
2	0xbd8f41c1	-0.069949634
3	0x3bff25f9	0.007786509
4	0x3cff6520	0.03117615
5	0xbd72e965	-0.059304614
6	0x3c67e35c	0.014153328
7	0x3d2c6c0d	0.042095233
8	0x3da279d6	0.079333946
9	0x3c5a635c	0.013329353
10	0x3e3aa38d	0.18226452
11	0x3dbd08ec	0.09230217
12	0x3dee7fbe	0.11645459
13	0x3db05478	0.08609861
14	0xbd16fc56	-0.03686174
15	0x3cfcad75	0.03084443
16	0x3d55f81c	0.05223857
17	0xbc18c302	-0.009323837
18	0x3caf130c	0.021371387
19	0xbd301876	-0.042992078
20	0xbe088290	-0.13331056
21	0x3ccfc15e	0.02536076
22	0x3de41993	0.111376904
23	0x3a37dca2	0.0007013773
24	0xbdc1787d	-0.094468094
25	0x3b5326d6	0.0032219193
26	0x3e05ca9a	0.13065568
27	0xbdbb3917	-0.091417484
28	0x3d7b2767	0.061316874
29	0xbc8f2499	-0.017473506
30	0xbdd45697	-0.10368078
31	0xbe46757d	-0.19380756
32	0x3caeaf91	0.021323951
33	0x3e438090	0.19092011
34	0x3dc0853a	0.09400411
35	0xbc33f063	-0.010982606
36	0xbd4834fe	-0.048878662
37	0xbbc375ef	-0.0059649865
38	0x3dbbd7bc	0.091720074
39	0x3e1aa94b	0.15103643
40	0xbc06f1d8	-0.008236371
41	0x3e26d859	0.16293468
42	0xbcf3c373	-0.029756283
43	0xbe297bc4	-0.16551119
44	0xbc05479f	-0.008134752
45	0x3c7f10ea	0.0155679975
46	0xbdce55f7	-0.1007499
47	0x3a657e48	0.0008754474
48	0xbd616225	-0.05502524
49	0x3d44cb86	0.048045658
50	0xbd8d96ac	-0.06913504
51	0x3bb237a6	0.0054387627
52	0xbd58f7ec	-0.05297081
53	0xbdb657a4	-0.08903435
54	0x3bbebb1c	0.005820645
55	0xbdc6c315	-0.09705178
56	0xbd565aec	-0.052332804
57	0x3c4aab0f	0.012369885
58	0x3e1d3e71	0.15355851
59	0x3cb8909f	0.022529898
60	0xbbff134a	-0.007784282
61	0xbe121669	-0.14266361
62	0x3d880473	0.066414736
63	0x3d868c97	0.06569784
64	0xbd08d0ca	-0.03340224
65	0x3daa88f4	0.08326903
66	0xbd9b53b5	-0.07584325
67	0xbda5a16f	-0.08087432
68	0x3d88790f	0.06663715
69	0xbd6ab949	-0.057305608
70	0xbdbd6336	-0.092474386
71	0x3d081c1e	0.03322994
72	0xbd55f97b	-0.052239876
73	0x3e09f1a3	0.13471083
74	0x3d663568	0.056203276
75	0xbe2c94bd	-0.16853614
76	0xbc014202	-0.007889273
77	0x3e2a73e4	0.16645771
78	0xbd5fa4d0	-0.054600537
79	0xbd5eee4b	-0.054426473
80	0x3b08b715	0.0020861079
81	0x3c90f955	0.017697016
82	0xbe237ff5	-0.1596678
83	0xbc92e05c	-0.017929249
84	0x3d42387f	0.04741716
85	0xbdcdd3f5	-0.10050193
86	0x3ce82857	0.028339548
87	0x3ceeca37	0.029149158
88	0xbd978b20	-0.07399583
89	0xbe0271eb	-0.12738769
90	0xbe55ac59	-0.20866527
91	0xbd24018d	-0.04004054
92	0xbd39e393	-0.045383047
93	0xbdc09c66	-0.09404831
94	0x3c8d94ff	0.017282961
95	0xbd9a1f56	-0.07525508
96	0xbdf8d418	-0.12149829
97	0xbcc918ce	-0.02454796
98	0x3d9e3b76	0.07726185
99	0xbd2b4255	-0.041811306
100	0x3c7a3f9a	0.015273953
101	0xbd5f5830	-0.05452746
102	0xbd1c26a8	-0.038122803
103	0xbc18008d	-0.009277475
104	0xbd64f29e	-0.05589544
105	0x3ca7e737	0.020495994
106	0xbdc3c1d1	-0.09558452
107	0xbda12591	-0.07868493
108	0x3d75ca62	0.06000746
109	0xbda562c9	-0.080754824
110	0x3a9429ff	0.001130402
111	0x3de55ce4	0.11199358
112	0xbe2f5b90	-0.17124772
113	0xbdd22132	-0.10260238
114	0x3e2f5570	0.17122436
115	0x3c1cfe75	0.009582152
116	0xbd7e6068	-0.06210366
117	0x3d1eb16a	0.038743414
118	0x3d523657	0.051321354
119	0xbd9fdafe	-0.07805441
120	0x3d0e39ae	0.034722976
121	0xbcc8ce3e	-0.024512406
122	0xbd84e1a6	-0.064883515
123	0x3cca29ef	0.024678199
124	0x3d1fb9c4	0.03899552
125	0xbdd108f5	-0.102067865
126	0xbde3e86a	-0.11128314
127	0x3d148450	0.036258996
128	0xbcf816d9	-0.030284332
129	0x3da38095	0.079835095
130	0x3d909bd6	0.07060973
131	0xbdadd623	-0.08488109
132	0xbd1fc447	-0.039005544
133	0xbdacb6dd	-0.08433316
134	0x3ca1e9c9	0.019764798
135	0x3da2e475	0.07953731
136	0x3e104ad9	0.14091052
137	0x3c14108a	0.009037146
138	0xbe163110	-0.14667153
139	0x3dea470c	0.11439332
140	0x3ca15ca2	0.019697491
141	0x3daece8b	0.08535489
142	0xbda7e867	-0.08198624
143	0x3e04d989	0.12973608
144	0xbe0760de	-0.13220546
145	0xbc983c08	-0.018583313
146	0xbdfe6f4a	-0.124235705
147	0xbcb30326	-0.021852087
148	0xbc89bc80	-0.016813517
149	0xbd4cb4c5	-0.049977083
150	0xbbe06154	-0.00684754
151	0x3d42d149	0.04756287
152	0x3d639989	0.055566344
153	0x3d838bf9	0.06423182
154	0x3cf921bc	0.030411594
155	0xbd156bcb	-0.036479753
156	0xbbb99440	-0.0056634247
157	0x3ca61b11	0.020276578
158	0x3d479377	0.048724618
159	0x3bd868ed	0.006604305
160	0xbbd8d347	-0.006616983
161	0x3d867c90	0.06566727
162	0x3e2a67d3	0.16641168
163	0x3ccbfa4e	0.024899628
164	0xbd85e4a1	-0.06537748
165	0xbd2dfcab	-0.04247729
166	0xbd5d449e	-0.054020517
167	0xbdedfbf7	-0.11620324
168	0x3e02b353	0.1276372
169	0xbd849add	-0.0647485
170	0x3dd747bb	0.105117284
171	0xbe29c9b1	-0.16580845
172	0x3e18780d	0.14889546
173	0xbe0d4c64	-0.13798672
174	0xbda824f1	-0.08210171
175	0x3db6814a	0.08911379
176	0x3de11acc	0.10991439
177	0xbd126212	-0.03573806
178	0x3d47ac38	0.048748225
179	0xbd6b624d	-0.057466794
180	0xbc8d7fad	-0.017272795
181	0xbd461785	-0.048362274
182	0xbd1994b1	-0.03749532
183	0x3da45654	0.08024278
184	0xbe0bb265	-0.13642271
185	0x3d0b4c65	0.034008402
186	0xbcbd5fce	-0.023116972
187	0xbce674ff	-0.02813196
188	0x3bd04241	0.0063555543
189	0x3db6486f	0.08900534
190	0x3d066354	0.03280957
191	0xbe20db3c	-0.15708631
192	0x3df1f50d	0.11814318
193	0x3c2a6b3e	0.010401545
194	0xbe4099c5	-0.18808658
195	0x3dea3727	0.11436301
196	0xbcef3544	-0.029200204
197	0x3e180cc7	0.14848624
198	0xbdb2b907	-0.087266974
199	0x3d904311	0.07044042
200	0xbc5c35d2	-0.013440566
201	0x3d08aa1b	0.03336535
202	0x3dfb021b	0.12256261
203	0xbd92557d	-0.07145212
204	0xbd58166c	-0.05275576
205	0xbdd4c769	-0.10389597
206	0x3d74abe8	0.059734255
207	0xbd8570f9	-0.065156884
208	0x3df2ba9f	0.118520014
209	0x3e043522	0.12910894
210	0x3d7fd2f5	0.062457044
211	0x3c974d51	0.018469485
212	0x3d9c34f2	0.07627286
213	0xbc858cab	-0.016302427
214	0xbcb81aea	-0.022473771
215	0xbd1c8ccc	-0.038220212
216	0x3c83f4e0	0.016107976
217	0x3db1b973	0.0867795
218	0xbd98aff1	-0.07455433
219	0x3d25eba1	0.040507916
220	0x3d27c727	0.04096141
221	0x3da05702	0.078290954
222	0xbe160e8d	-0.14653988
223	0x3d3328b6	0.043739997
224	0xbd88cf67	-0.06680184
225	0xbd80aa2d	-0.062824585
226	0xbe085262	-0.13312677
227	0xbe16876a	-0.14700094
228	0x3dc865b8	0.09785026
229	0x3e1e072b	0.15432422
230	0xbdffd223	-0.12491252
231	0xbc76165a	-0.015019977
232	0xbd177f9f	-0.036986943
233	0xbdaf0ee1	-0.0854776
234	0xbd181c4f	-0.037136372
235	0xbd7481c2	-0.05969406
236	0xbdac3f2a	-0.08410485
237	0x3c9d07df	0.019168792
238	0xbc3f7f08	-0.011688001
239	0x3b7fbbaa	0.0039021769
240	0xbd60bb0f	-0.054865893
241	0xbe30d7af	-0.17269777
242	0x3c4d5d09	0.012534388
243	0xbd48cc3f	-0.04902291
244	0xbe055da9	-0.1302401
245	0x3d574416	0.052555166
246	0xbd99850d	-0.074960805
247	0x3e3897ca	0.18026653
248	0xbd46a7a3	-0.048499715
249	0x3cada6ae	0.021197643
250	0xbdebec67	-0.115196995
251	0x3d92da67	0.07170563
252	0x3d94cab7	0.07265227
253	0xbd8920d0	-0.066957116
254	0xbcd05f50	-0.025436074
255	0xbda0c7b9	-0.07850594

network_body._body_endoder.seq_layers.0.bias f4 [128]
0	0x00000000	0.0
1	0x00000000	0.0
2	0x00000000	0.0
3	0x00000000	0.0
4	0x00000000	0.0
5	0x00000000	0.0
6	0x00000000	0.0
7	0x00000000	0.0
8	0x00000000	0.0
9	0x00000000	0.0
10	0x00000000	0.0
11	0x00000000	0.0
12	0x00000000	0.0
13	0x00000000	0.0
14	0x00000000	0.0
15	0x00000000	0.0
16	0x00000000	0.0
17	0x00000000	0.0
18	0x00000000	0.0
19	0x00000000	0.0
20	0x00000000	0.0
21	0x00000000	0.0
22	0x00000000	0.0
23	0x00000000	0.0
24	0x00000000	0.0
25	0x00000000	0.0
26	0x00000000	0.0
27	0x00000000	0.0
28	0x00000000	0.0
29	0x00000000	0.0
30	0x00000000	0.0
31	0x00000000	0.0
32	0x00000000	0.0
33	0x00000000	0.0
34	0x00000000	0.0
35	0x00000000	0.0
36	0x00000000	0.0
37	0x00000000	0.0
38	0x00000000	0.0
39	0x00000000	0.0
40	0x00000000	0.0
41	0x00000000	0.0
42	0x00000000	0.0
43	0x00000000	0.0
44	0x00000000	0.0
45	0x00000000	0.0
46	0x00000000	0.0
47	0x00000000	0.0
48	0x00000000	0.0
49	0x00000000	0.0
50	0x00000000	0.0
51	0x00000000	0.0
52	0x00000000	0.0
53	0x00000000	0.0
54	0x00000000	0.0
55	0x00000000	0.0
56	0x00000000	0.0
57	0x00000000	0.0
58	0x00000000	0.0
59	0x00000000	0.0
60	0x00000000	0.0
61	0x00000000	0.0
62	0x00000000	0.0
63	0x00000000	0.0
64	0x00000000	0.0
65	0x00000000	0.0
66	0x00000000	0.0
67	0x00000000	0.0
68	0x00000000	0.0
69	0x00000000	0.0
70	0x00000000	0.0
71	0x00000000	0.0
72	0x00000000	0.0
73	0x00000000	0.0
74	0x00000000	0.0
75	0x00000000	0.0
76	0x00000000	0.0
77	0x00000000	0.0
78	0x00000000	0.0
79	0x00000000	0.0
80	0x00000000	0.0
81	0x00000000	0.0
82	0x00000000	0.0
83	0x00000000	0.0
84	0x00000000	0.0
85	0x00000000	0.0
86	0x00000000	0.0
87	0x00000000	0.0
88	0x00000000	0.0
89	0x00000000	0.0
90	0x00000000	0.0
91	0x00000000	0.0
92	0x00000000	0.0
93	0x00000000	0.0
94	0x00000000	0.0
95	0x00000000	0.0
96	0x00000000	0.0
97	0x00000000	0.0
98	0x00000000	0.0
99	0x00000000	0.0
100	0x00000000	0.0
101	0x00000000	0.0
102	0x00000000	0.0
103	0x00000000	0.0
104	0x00000000	0.0
105	0x00000000	0.0
106	0x00000000	0.0
107	0x00000000	0.0
108	0x00000000	0.0
109	0x00000000	0.0
110	0x00000000	0.0
111	0x00000000	0.0
112	0x00000000	0.0
113	0x00000000	0.0
114	0x00000000	0.0
115	0x00000000	0.0
116	0x00000000	0.0
117	0x00000000	0.0
118	0x00000000	0.0
119	0x00000000	0.0
120	0x00000000	0.0
121	0x00000000	0.0
122	0x00000000	0.0
123	0x00000000	0.0
124	0x00000000	0.0
125	0x00000000	0.0
126	0x00000000	0.0
127	0x00000000	0.0

network_body._body_endoder.seq_layers.2.weight f4 [128, 128]
0	0x3dabe0a5	0.08392457
1	0x3c9c44e8	0.019075826
2	0x3d814ac5	0.06313089
3	0xbd8cac72	-0.06868829
4	0x3cb47421	0.02202803
5	0x3dfae2f6	0.122503206
6	0x3d4b47d2	0.04962904
7	0x3da8a77b	0.08235069
8	0x3c2d8874	0.010591615
9	0x3dab7ebd	0.08373783
10	0x3c85e287	0.016343368
11	0xbddd8e25	-0.108181275
12	0xbdb5343e	-0.08847855
13	0xbd77d574	-0.0605063
14	0xbcbc7744	-0.023006089
15	0xbc924fdf	-0.017860351
16	0xbdd0578e	-0.1017295
17	0xbd079254	-0.033098534
18	0xbc7e840d	-0.015534413
19	0xbd8d8e08	-0.06911856
20	0xbc0b2aa1	-0.00849405
21	0xbd0a4fe8	-0.03376761
22	0xbcd294b6	-0.025705677
23	0xbc8f5fbd	-0.017501706
24	0xbcb3655f	-0.021898923
25	0x3d0e5568	0.03474942
26	0xbe6bb77b	-0.23019211
27	0x3d62f9f8	0.05541417
28	0x3e229db8	0.15880477
29	0xbbbbb027	-0.005727786
30	0xbd070d05	-0.0329714
31	0xbd89cc66	-0.06728439
32	0xbd4c8209	-0.0499287
33	0x3d3f4032	0.04669208
34	0x3dcf71e8	0.10129148
35	0x3e21f957	0.15817772
36	0x3e090a43	0.13382821
37	0xbc18582c	-0.009298366
38	0xbb609cc0	-0.0034273118
39	0xbdb3f3c3	-0.08786728
40	0xbdb7f274	-0.08981791
41	0xbd9f34fe	-0.07773779
42	0xbe41e7db	-0.18936102
43	0x3d6fa232	0.05850429
44	0xbd1831d6	-0.037156902
45	0xbdb1bf28	-0.08679038
46	0x3a7d3ac6	0.0009659942
47	0xbd621c2d	-0.05520265
48	0xbd64579c	-0.055747613
49	0xbe207d55	-0.1567281
50	0x3c8f306b	0.017479142
51	0x3e0bdae0	0.13657713
52	0x3d1bb813	0.038017344
53	0xbd395b9c	-0.04525338
54	0x3e1e06a9	0.15432228
55	0x3d33bdc5	0.04388215
56	0xbcdcf004	-0.026969917
57	0xbde57393	-0.11203685
58	0x3e2e178f	0.17001174
59	0x3e1e51ec	0.15460938
60	0xbc102904	-0.008798841
61	0x3cc4b709	0.02401306
62	0x3bb5ae9b	0.0055444962
63	0x3b6019be	0.003419503
64	0xbd340031	-0.043945495
65	0x3ddc5895	0.10759083
66	0x3d60819f	0.054811116
67	0x3cd59db6	0.026076179
68	0xbe608ae8	-0.21927989
69	0x3de16e30	0.11007345
70	0xbd93b94a	-0.072130755
71	0xbd9786da	-0.07398768
72	0xbcab569d	-0.020915324
73	0x3db9ef2e	0.09078823
74	0xbe04d08b	-0.12970178
75	0x3cf6f843	0.030147677
76	0xbbb0682f	-0.0053835134
77	0xbde6b497	-0.112649135
78	0x3d56ae8f	0.052412566
79	0x3c9479d3	0.018124497
80	0x3d7df62e	0.062002353
81	0xbbced34c	-0.0063118096
82	0x3d95b409	0.073097296
83	0x3db3cf61	0.08779789
84	0x3dfe8c07	0.12429052
85	0xbddcccac	-0.107812256
86	0xbc9f3c31	-0.019437881
87	0xbd6db53c	-0.058034167
88	0xbd85ccca	-0.06533201
89	0xbdab3bf9	-0.08361048
90	0x3dd8d0d1	0.105867036
91	0x3d8b27e7	0.0679472
92	0x3b8525e6	0.0040633557
93	0x3db7ecee	0.089807376
94	0x3d4166ba	0.04721711
95	0xbcbec3e9	-0.023286777
96	0xbd4067e0	-0.046974063
97	0xbd24705f	-0.040146228
98	0xbdeabb26	-0.11461477
99	0x3d3d1664	0.04616393
100	0x3ce0b1b4	0.027428485
101	0xbe162358	-0.1466192
102	0xbde5d5e5	-0.11222438
103	0x3dde5e3a	0.10857816
104	0xbe044fa0	-0.12921
105	0xbe451b58	-0.19248712
106	0x3aecdca7	0.0018071131
107	0x3d3d0118	0.04614362
108	0x3e1829f6	0.14859757
109	0xbdd60fa4	-0.10452202
110	0x3dbac170	0.091189265
111	0x3d343264	0.04399337
112	0x3d566376	0.052340947
113	0xbd0a58d5	-0.033776123
114	0xbd627204	-0.055284515
115	0xbd24bce4	-0.040219203
116	0x3d0d65ae	0.034520797
117	0xbcf87fb3	-0.03033433
118	0xbd9bbf5f	-0.076048605
119	0x3d9457ec	0.07243332
120	0xbcb43ca0	-0.022001565
121	0xbd246490	-0.040134966
122	0xbd853a75	-0.065052904
123	0xbd2e233b	-0.042514067
124	0xbbfd55d0	-0.007731177
125	0x3de027ff	0.10945129
126	0xbd162307	-0.0366545
127	0xbc88f38b	-0.016717693
128	0x3dbd462f	0.09241902
129	0xbda71be6	-0.08159618
130	0x3dcff321	0.10153795
131	0x3e1a0964	0.15042645
132	0xbdf21332	-0.118200675
133	0xbcc94f50	-0.024573952
134	0xba35ee39	-0.00069401
135	0xbcdc77fa	-0.026912678
136	0x3d8ee35d	0.0697696
137	0xbc2fbfaf	-0.010726853
138	0x3d416857	0.047218647
139	0x3df69e90	0.12041962
140	0xbc99d856	-0.018779915
141	0x3d52a396	0.05142554
142	0xbd8bb8b6	-0.0682234
143	0x3da7068b	0.08155545
144	0xbc89f494	-0.016840257
145	0xbe0a2967	-0.13492356
146	0x3d7e9bc7	0.06216028
147	0xbceabbc0	-0.02865398
148	0x3de72cfa	0.112878755
149	0x3c4aafa8	0.012370981
150	0xbe994d47	-0.2994177
151	0xbd735cb1	-0.05941457
152	0x3cb6e9af	0.022328226
153	0x3d3fa5d3	0.046789
154	0xbdb7ba33	-0.089710616
155	0x3e5c4520	0.21510744
156	0x3cc0a41f	0.023515759
157	0xbd5a7cd2	-0.053341694
158	0x3e629e95	0.22130807
159	0xbddbe900	-0.107378006
160	0x3cedd387	0.029031528
161	0xbe662516	-0.22475085
162	0x3d652640	0.05594468
163	0xbd4ec1aa	-0.05047766
164	0xbc2bbd61	-0.010482163
165	0x3d2f914b	0.04286317
166	0x3e03216e	0.12805721
167	0x3e229f0c	0.15880984
168	0x3d37740c	0.044788405
169	0x3c79ef9c	0.015254881
170	0xbd54bae3	-0.05193604
171	0x3d359f25	0.044341225
172	0xbca41130	-0.020027727
173	0xbd595e34	-0.053068355
174	0x3dd260b1	0.10272349
175	0x3dcc5224	0.099766046
176	0x3bf0a679	0.007344064
177	0x3da20fc1	0.07913161
178	0xbdd8bd48	-0.105829775
179	0x3d2e32a1	0.042528752
180	0xbe820876	-0.2539708
181	0x3de9a2b5	0.11407987
182	0xbb38fea7	-0.0028227956
183	0x3e16a07b	0.14709656
184	0x3d8b6d91	0.068080075
185	0xbe1c76ed	-0.15279742
186	0xbd322fb3	-0.04350252
187	0xbc474f4e	-0.012164904
188	0xbc4c7572	-0.012479173
189	0x3e24f5ad	0.16109343
190	0x3d44450a	0.047917403
191	0xbe2d893e	-0.16946885
192	0x3c93ad96	0.018027108
193	0x3d510259	0.05102763
194	0xbd858ecf	-0.06521379
195	0xbdf76df2	-0.12081517
196	0xbdabde1a	-0.08391972
197	0x3d2a117a	0.041520573
198	0xbe02521b	-0.12726633
199	0xbd0aaf2a	-0.033858456
200	0x3d010494	0.031498507
201	0x3d476cd5	0.048687775
202	0xbce265c9	-0.027636426
203	0x3db33bbc	0.08751628
204	0x3d890603	0.066906
205	0x3d81e9c9	0.06343419
206	0xbd46b700	-0.048514366
207	0x3d35e127	0.044404175
208	0xbd077b14	-0.03307636
209	0xbdb70805	-0.089370765
210	0x3d777edf	0.060423728
211	0xbcc2aa7b	-0.023762932
212	0xbd974a08	-0.07387167
213	0xbd24e117	-0.040253725
214	0xbe014208	-0.12622845
215	0x3bb96165	0.0056573623
216	0xbcc3d234	-0.023903944
217	0x3d58b2fd	0.05290507
218	0x3d04f2af	0.032458004
219	0xbe0448ee	-0.12918445
220	0xbd232b4d	-0.039836217
221	0x3d9cd417	0.076576404
222	0x3d804b1d	0.06264327
223	0xbc67b2d8	-0.014141761
224	0x3db89d53	0.09014382
225	0xbe258beb	-0.16166656
226	0x3db0e586	0.08637528
227	0xbdce3bd4	-0.10070005
228	0xbe09ba84	-0.13450056
229	0xbd2b314a	-0.041795053
230	0xbdff1b4c	-0.12456378
231	0xbd4c7cad	-0.049923588
232	0xbc532f25	-0.012889658
233	0x3e0e1a0d	0.13877125
234	0xbd34ba90	-0.044123232
235	0xbbc2d6f8	-0.0059460364
236	0x3d8cc85d	0.06874154
237	0xbd6faeba	-0.05851624
238	0x3da669fb	0.08125683
239	0x3b919ab2	0.00444349
240	0xbd45ce2a	-0.048292316
241	0xbc9a59a0	-0.018841565
242	0xbc5d8217	-0.013519785
243	0x3c556eee	0.013026936
244	0x3d092a22	0.033487447
245	0xbda179d6	-0.078845665
246	0x3c6e694d	0.014551473
247	0xbd812e36	-0.06307642
248	0x3c345fde	0.011009185
249	0x3cae00bf	0.02124059
250	0xbb43dfea	-0.0029888102
251	0x3e058c1a	0.13041726
252	0xbd89296b	-0.06697353
253	0xbc54f890	-0.012998715
254	0x3c1a6d12	0.009425418
255	0x3cb6059a	0.022219468
